{
  "nodes": [
    {
      "op": "null", 
      "name": "0", 
      "inputs": []
    }, 
    {
      "op": "null", 
      "name": "1", 
      "inputs": []
    }, 
    {
      "op": "tvm_op", 
      "name": "conv2d0", 
      "attrs": {
        "flatten_data": "0", 
        "func_name": "fuse_conv2d", 
        "num_inputs": "2", 
        "num_outputs": "1"
      }, 
      "inputs": [[0, 0, 0], [1, 0, 0]]
    }, 
    {
      "op": "null", 
      "name": "7", 
      "inputs": []
    }, 
    {
      "op": "tvm_op", 
      "name": "batch_norm0_add_eps", 
      "attrs": {
        "flatten_data": "1", 
        "func_name": "fuse___add_scalar__", 
        "num_inputs": "1", 
        "num_outputs": "1"
      }, 
      "inputs": [[3, 0, 1]]
    }, 
    {
      "op": "tvm_op", 
      "name": "batch_norm0_sqrt", 
      "attrs": {
        "flatten_data": "1", 
        "func_name": "fuse_sqrt", 
        "num_inputs": "1", 
        "num_outputs": "1"
      }, 
      "inputs": [[4, 0, 0]]
    }, 
    {
      "op": "tvm_op", 
      "name": "batch_norm0_div", 
      "attrs": {
        "flatten_data": "1", 
        "func_name": "fuse___rdiv_scalar__", 
        "num_inputs": "1", 
        "num_outputs": "1"
      }, 
      "inputs": [[5, 0, 0]]
    }, 
    {
      "op": "null", 
      "name": "4", 
      "inputs": []
    }, 
    {
      "op": "tvm_op", 
      "name": "batch_norm0_gamma_mul_div", 
      "attrs": {
        "flatten_data": "1", 
        "func_name": "fuse_elemwise_mul", 
        "num_inputs": "2", 
        "num_outputs": "1"
      }, 
      "inputs": [[6, 0, 0], [7, 0, 0]]
    }, 
    {
      "op": "tvm_op", 
      "name": "batch_norm0_gamma_mul_div_expand", 
      "attrs": {
        "flatten_data": "0", 
        "func_name": "fuse_expand_dims", 
        "num_inputs": "1", 
        "num_outputs": "1"
      }, 
      "inputs": [[8, 0, 0]]
    }, 
    {
      "op": "tvm_op", 
      "name": "batch_norm0_a_mul_data", 
      "attrs": {
        "flatten_data": "0", 
        "func_name": "fuse_broadcast_mul", 
        "num_inputs": "2", 
        "num_outputs": "1"
      }, 
      "inputs": [[2, 0, 0], [9, 0, 0]]
    }, 
    {
      "op": "null", 
      "name": "6", 
      "inputs": []
    }, 
    {
      "op": "tvm_op", 
      "name": "batch_norm0_neg_mean", 
      "attrs": {
        "flatten_data": "1", 
        "func_name": "fuse_negative", 
        "num_inputs": "1", 
        "num_outputs": "1"
      }, 
      "inputs": [[11, 0, 1]]
    }, 
    {
      "op": "tvm_op", 
      "name": "batch_norm0_neg_mean_mul_a", 
      "attrs": {
        "flatten_data": "1", 
        "func_name": "fuse_elemwise_mul", 
        "num_inputs": "2", 
        "num_outputs": "1"
      }, 
      "inputs": [[12, 0, 0], [8, 0, 0]]
    }, 
    {
      "op": "null", 
      "name": "5", 
      "inputs": []
    }, 
    {
      "op": "tvm_op", 
      "name": "batch_norm0_add_beta", 
      "attrs": {
        "flatten_data": "1", 
        "func_name": "fuse_elemwise_add", 
        "num_inputs": "2", 
        "num_outputs": "1"
      }, 
      "inputs": [[13, 0, 0], [14, 0, 0]]
    }, 
    {
      "op": "tvm_op", 
      "name": "batch_norm0_add_beta_expand", 
      "attrs": {
        "flatten_data": "0", 
        "func_name": "fuse_expand_dims", 
        "num_inputs": "1", 
        "num_outputs": "1"
      }, 
      "inputs": [[15, 0, 0]]
    }, 
    {
      "op": "tvm_op", 
      "name": "batch_norm0_out", 
      "attrs": {
        "flatten_data": "0", 
        "func_name": "fuse_broadcast_add", 
        "num_inputs": "2", 
        "num_outputs": "1"
      }, 
      "inputs": [[10, 0, 0], [16, 0, 0]]
    }, 
    {
      "op": "tvm_op", 
      "name": "relu0", 
      "attrs": {
        "flatten_data": "1", 
        "func_name": "fuse_relu", 
        "num_inputs": "1", 
        "num_outputs": "1"
      }, 
      "inputs": [[17, 0, 0]]
    }, 
    {
      "op": "null", 
      "name": "10", 
      "inputs": []
    }, 
    {
      "op": "tvm_op", 
      "name": "conv2d1", 
      "attrs": {
        "flatten_data": "0", 
        "func_name": "fuse_conv2d_1", 
        "num_inputs": "2", 
        "num_outputs": "1"
      }, 
      "inputs": [[18, 0, 0], [19, 0, 0]]
    }, 
    {
      "op": "null", 
      "name": "15", 
      "inputs": []
    }, 
    {
      "op": "tvm_op", 
      "name": "batch_norm1_add_eps", 
      "attrs": {
        "flatten_data": "1", 
        "func_name": "fuse___add_scalar___1", 
        "num_inputs": "1", 
        "num_outputs": "1"
      }, 
      "inputs": [[21, 0, 1]]
    }, 
    {
      "op": "tvm_op", 
      "name": "batch_norm1_sqrt", 
      "attrs": {
        "flatten_data": "1", 
        "func_name": "fuse_sqrt_1", 
        "num_inputs": "1", 
        "num_outputs": "1"
      }, 
      "inputs": [[22, 0, 0]]
    }, 
    {
      "op": "tvm_op", 
      "name": "batch_norm1_div", 
      "attrs": {
        "flatten_data": "1", 
        "func_name": "fuse___rdiv_scalar___1", 
        "num_inputs": "1", 
        "num_outputs": "1"
      }, 
      "inputs": [[23, 0, 0]]
    }, 
    {
      "op": "null", 
      "name": "12", 
      "inputs": []
    }, 
    {
      "op": "tvm_op", 
      "name": "batch_norm1_gamma_mul_div", 
      "attrs": {
        "flatten_data": "1", 
        "func_name": "fuse_elemwise_mul_1", 
        "num_inputs": "2", 
        "num_outputs": "1"
      }, 
      "inputs": [[24, 0, 0], [25, 0, 0]]
    }, 
    {
      "op": "tvm_op", 
      "name": "batch_norm1_gamma_mul_div_expand", 
      "attrs": {
        "flatten_data": "0", 
        "func_name": "fuse_expand_dims_1", 
        "num_inputs": "1", 
        "num_outputs": "1"
      }, 
      "inputs": [[26, 0, 0]]
    }, 
    {
      "op": "tvm_op", 
      "name": "batch_norm1_a_mul_data", 
      "attrs": {
        "flatten_data": "0", 
        "func_name": "fuse_broadcast_mul_1", 
        "num_inputs": "2", 
        "num_outputs": "1"
      }, 
      "inputs": [[20, 0, 0], [27, 0, 0]]
    }, 
    {
      "op": "null", 
      "name": "14", 
      "inputs": []
    }, 
    {
      "op": "tvm_op", 
      "name": "batch_norm1_neg_mean", 
      "attrs": {
        "flatten_data": "1", 
        "func_name": "fuse_negative_1", 
        "num_inputs": "1", 
        "num_outputs": "1"
      }, 
      "inputs": [[29, 0, 1]]
    }, 
    {
      "op": "tvm_op", 
      "name": "batch_norm1_neg_mean_mul_a", 
      "attrs": {
        "flatten_data": "1", 
        "func_name": "fuse_elemwise_mul_1", 
        "num_inputs": "2", 
        "num_outputs": "1"
      }, 
      "inputs": [[30, 0, 0], [26, 0, 0]]
    }, 
    {
      "op": "null", 
      "name": "13", 
      "inputs": []
    }, 
    {
      "op": "tvm_op", 
      "name": "batch_norm1_add_beta", 
      "attrs": {
        "flatten_data": "1", 
        "func_name": "fuse_elemwise_add_1", 
        "num_inputs": "2", 
        "num_outputs": "1"
      }, 
      "inputs": [[31, 0, 0], [32, 0, 0]]
    }, 
    {
      "op": "tvm_op", 
      "name": "batch_norm1_add_beta_expand", 
      "attrs": {
        "flatten_data": "0", 
        "func_name": "fuse_expand_dims_1", 
        "num_inputs": "1", 
        "num_outputs": "1"
      }, 
      "inputs": [[33, 0, 0]]
    }, 
    {
      "op": "tvm_op", 
      "name": "batch_norm1_out", 
      "attrs": {
        "flatten_data": "0", 
        "func_name": "fuse_broadcast_add_1", 
        "num_inputs": "2", 
        "num_outputs": "1"
      }, 
      "inputs": [[28, 0, 0], [34, 0, 0]]
    }, 
    {
      "op": "tvm_op", 
      "name": "relu1", 
      "attrs": {
        "flatten_data": "1", 
        "func_name": "fuse_relu_1", 
        "num_inputs": "1", 
        "num_outputs": "1"
      }, 
      "inputs": [[35, 0, 0]]
    }, 
    {
      "op": "null", 
      "name": "18", 
      "inputs": []
    }, 
    {
      "op": "tvm_op", 
      "name": "conv2d2", 
      "attrs": {
        "flatten_data": "0", 
        "func_name": "fuse_conv2d_2", 
        "num_inputs": "2", 
        "num_outputs": "1"
      }, 
      "inputs": [[36, 0, 0], [37, 0, 0]]
    }, 
    {
      "op": "null", 
      "name": "20", 
      "inputs": []
    }, 
    {
      "op": "tvm_op", 
      "name": "conv2d3", 
      "attrs": {
        "flatten_data": "0", 
        "func_name": "fuse_conv2d_3", 
        "num_inputs": "2", 
        "num_outputs": "1"
      }, 
      "inputs": [[18, 0, 0], [39, 0, 0]]
    }, 
    {
      "op": "tvm_op", 
      "name": "elemwise_add0", 
      "attrs": {
        "flatten_data": "1", 
        "func_name": "fuse_elemwise_add_2", 
        "num_inputs": "2", 
        "num_outputs": "1"
      }, 
      "inputs": [[38, 0, 0], [40, 0, 0]]
    }, 
    {
      "op": "null", 
      "name": "26", 
      "inputs": []
    }, 
    {
      "op": "tvm_op", 
      "name": "batch_norm2_add_eps", 
      "attrs": {
        "flatten_data": "1", 
        "func_name": "fuse___add_scalar___1", 
        "num_inputs": "1", 
        "num_outputs": "1"
      }, 
      "inputs": [[42, 0, 1]]
    }, 
    {
      "op": "tvm_op", 
      "name": "batch_norm2_sqrt", 
      "attrs": {
        "flatten_data": "1", 
        "func_name": "fuse_sqrt_1", 
        "num_inputs": "1", 
        "num_outputs": "1"
      }, 
      "inputs": [[43, 0, 0]]
    }, 
    {
      "op": "tvm_op", 
      "name": "batch_norm2_div", 
      "attrs": {
        "flatten_data": "1", 
        "func_name": "fuse___rdiv_scalar___1", 
        "num_inputs": "1", 
        "num_outputs": "1"
      }, 
      "inputs": [[44, 0, 0]]
    }, 
    {
      "op": "null", 
      "name": "23", 
      "inputs": []
    }, 
    {
      "op": "tvm_op", 
      "name": "batch_norm2_gamma_mul_div", 
      "attrs": {
        "flatten_data": "1", 
        "func_name": "fuse_elemwise_mul_1", 
        "num_inputs": "2", 
        "num_outputs": "1"
      }, 
      "inputs": [[45, 0, 0], [46, 0, 0]]
    }, 
    {
      "op": "tvm_op", 
      "name": "batch_norm2_gamma_mul_div_expand", 
      "attrs": {
        "flatten_data": "0", 
        "func_name": "fuse_expand_dims_1", 
        "num_inputs": "1", 
        "num_outputs": "1"
      }, 
      "inputs": [[47, 0, 0]]
    }, 
    {
      "op": "tvm_op", 
      "name": "batch_norm2_a_mul_data", 
      "attrs": {
        "flatten_data": "0", 
        "func_name": "fuse_broadcast_mul_1", 
        "num_inputs": "2", 
        "num_outputs": "1"
      }, 
      "inputs": [[41, 0, 0], [48, 0, 0]]
    }, 
    {
      "op": "null", 
      "name": "25", 
      "inputs": []
    }, 
    {
      "op": "tvm_op", 
      "name": "batch_norm2_neg_mean", 
      "attrs": {
        "flatten_data": "1", 
        "func_name": "fuse_negative_1", 
        "num_inputs": "1", 
        "num_outputs": "1"
      }, 
      "inputs": [[50, 0, 1]]
    }, 
    {
      "op": "tvm_op", 
      "name": "batch_norm2_neg_mean_mul_a", 
      "attrs": {
        "flatten_data": "1", 
        "func_name": "fuse_elemwise_mul_1", 
        "num_inputs": "2", 
        "num_outputs": "1"
      }, 
      "inputs": [[51, 0, 0], [47, 0, 0]]
    }, 
    {
      "op": "null", 
      "name": "24", 
      "inputs": []
    }, 
    {
      "op": "tvm_op", 
      "name": "batch_norm2_add_beta", 
      "attrs": {
        "flatten_data": "1", 
        "func_name": "fuse_elemwise_add_1", 
        "num_inputs": "2", 
        "num_outputs": "1"
      }, 
      "inputs": [[52, 0, 0], [53, 0, 0]]
    }, 
    {
      "op": "tvm_op", 
      "name": "batch_norm2_add_beta_expand", 
      "attrs": {
        "flatten_data": "0", 
        "func_name": "fuse_expand_dims_1", 
        "num_inputs": "1", 
        "num_outputs": "1"
      }, 
      "inputs": [[54, 0, 0]]
    }, 
    {
      "op": "tvm_op", 
      "name": "batch_norm2_out", 
      "attrs": {
        "flatten_data": "0", 
        "func_name": "fuse_broadcast_add_1", 
        "num_inputs": "2", 
        "num_outputs": "1"
      }, 
      "inputs": [[49, 0, 0], [55, 0, 0]]
    }, 
    {
      "op": "tvm_op", 
      "name": "relu2", 
      "attrs": {
        "flatten_data": "1", 
        "func_name": "fuse_relu_1", 
        "num_inputs": "1", 
        "num_outputs": "1"
      }, 
      "inputs": [[56, 0, 0]]
    }, 
    {
      "op": "null", 
      "name": "29", 
      "inputs": []
    }, 
    {
      "op": "tvm_op", 
      "name": "conv2d4", 
      "attrs": {
        "flatten_data": "0", 
        "func_name": "fuse_conv2d_2", 
        "num_inputs": "2", 
        "num_outputs": "1"
      }, 
      "inputs": [[57, 0, 0], [58, 0, 0]]
    }, 
    {
      "op": "null", 
      "name": "34", 
      "inputs": []
    }, 
    {
      "op": "tvm_op", 
      "name": "batch_norm3_add_eps", 
      "attrs": {
        "flatten_data": "1", 
        "func_name": "fuse___add_scalar___1", 
        "num_inputs": "1", 
        "num_outputs": "1"
      }, 
      "inputs": [[60, 0, 1]]
    }, 
    {
      "op": "tvm_op", 
      "name": "batch_norm3_sqrt", 
      "attrs": {
        "flatten_data": "1", 
        "func_name": "fuse_sqrt_1", 
        "num_inputs": "1", 
        "num_outputs": "1"
      }, 
      "inputs": [[61, 0, 0]]
    }, 
    {
      "op": "tvm_op", 
      "name": "batch_norm3_div", 
      "attrs": {
        "flatten_data": "1", 
        "func_name": "fuse___rdiv_scalar___1", 
        "num_inputs": "1", 
        "num_outputs": "1"
      }, 
      "inputs": [[62, 0, 0]]
    }, 
    {
      "op": "null", 
      "name": "31", 
      "inputs": []
    }, 
    {
      "op": "tvm_op", 
      "name": "batch_norm3_gamma_mul_div", 
      "attrs": {
        "flatten_data": "1", 
        "func_name": "fuse_elemwise_mul_1", 
        "num_inputs": "2", 
        "num_outputs": "1"
      }, 
      "inputs": [[63, 0, 0], [64, 0, 0]]
    }, 
    {
      "op": "tvm_op", 
      "name": "batch_norm3_gamma_mul_div_expand", 
      "attrs": {
        "flatten_data": "0", 
        "func_name": "fuse_expand_dims_1", 
        "num_inputs": "1", 
        "num_outputs": "1"
      }, 
      "inputs": [[65, 0, 0]]
    }, 
    {
      "op": "tvm_op", 
      "name": "batch_norm3_a_mul_data", 
      "attrs": {
        "flatten_data": "0", 
        "func_name": "fuse_broadcast_mul_1", 
        "num_inputs": "2", 
        "num_outputs": "1"
      }, 
      "inputs": [[59, 0, 0], [66, 0, 0]]
    }, 
    {
      "op": "null", 
      "name": "33", 
      "inputs": []
    }, 
    {
      "op": "tvm_op", 
      "name": "batch_norm3_neg_mean", 
      "attrs": {
        "flatten_data": "1", 
        "func_name": "fuse_negative_1", 
        "num_inputs": "1", 
        "num_outputs": "1"
      }, 
      "inputs": [[68, 0, 1]]
    }, 
    {
      "op": "tvm_op", 
      "name": "batch_norm3_neg_mean_mul_a", 
      "attrs": {
        "flatten_data": "1", 
        "func_name": "fuse_elemwise_mul_1", 
        "num_inputs": "2", 
        "num_outputs": "1"
      }, 
      "inputs": [[69, 0, 0], [65, 0, 0]]
    }, 
    {
      "op": "null", 
      "name": "32", 
      "inputs": []
    }, 
    {
      "op": "tvm_op", 
      "name": "batch_norm3_add_beta", 
      "attrs": {
        "flatten_data": "1", 
        "func_name": "fuse_elemwise_add_1", 
        "num_inputs": "2", 
        "num_outputs": "1"
      }, 
      "inputs": [[70, 0, 0], [71, 0, 0]]
    }, 
    {
      "op": "tvm_op", 
      "name": "batch_norm3_add_beta_expand", 
      "attrs": {
        "flatten_data": "0", 
        "func_name": "fuse_expand_dims_1", 
        "num_inputs": "1", 
        "num_outputs": "1"
      }, 
      "inputs": [[72, 0, 0]]
    }, 
    {
      "op": "tvm_op", 
      "name": "batch_norm3_out", 
      "attrs": {
        "flatten_data": "0", 
        "func_name": "fuse_broadcast_add_1", 
        "num_inputs": "2", 
        "num_outputs": "1"
      }, 
      "inputs": [[67, 0, 0], [73, 0, 0]]
    }, 
    {
      "op": "tvm_op", 
      "name": "relu3", 
      "attrs": {
        "flatten_data": "1", 
        "func_name": "fuse_relu_1", 
        "num_inputs": "1", 
        "num_outputs": "1"
      }, 
      "inputs": [[74, 0, 0]]
    }, 
    {
      "op": "null", 
      "name": "37", 
      "inputs": []
    }, 
    {
      "op": "tvm_op", 
      "name": "conv2d5", 
      "attrs": {
        "flatten_data": "0", 
        "func_name": "fuse_conv2d_2", 
        "num_inputs": "2", 
        "num_outputs": "1"
      }, 
      "inputs": [[75, 0, 0], [76, 0, 0]]
    }, 
    {
      "op": "tvm_op", 
      "name": "elemwise_add1", 
      "attrs": {
        "flatten_data": "1", 
        "func_name": "fuse_elemwise_add_2", 
        "num_inputs": "2", 
        "num_outputs": "1"
      }, 
      "inputs": [[77, 0, 0], [41, 0, 0]]
    }, 
    {
      "op": "null", 
      "name": "43", 
      "inputs": []
    }, 
    {
      "op": "tvm_op", 
      "name": "batch_norm4_add_eps", 
      "attrs": {
        "flatten_data": "1", 
        "func_name": "fuse___add_scalar___1", 
        "num_inputs": "1", 
        "num_outputs": "1"
      }, 
      "inputs": [[79, 0, 1]]
    }, 
    {
      "op": "tvm_op", 
      "name": "batch_norm4_sqrt", 
      "attrs": {
        "flatten_data": "1", 
        "func_name": "fuse_sqrt_1", 
        "num_inputs": "1", 
        "num_outputs": "1"
      }, 
      "inputs": [[80, 0, 0]]
    }, 
    {
      "op": "tvm_op", 
      "name": "batch_norm4_div", 
      "attrs": {
        "flatten_data": "1", 
        "func_name": "fuse___rdiv_scalar___1", 
        "num_inputs": "1", 
        "num_outputs": "1"
      }, 
      "inputs": [[81, 0, 0]]
    }, 
    {
      "op": "null", 
      "name": "40", 
      "inputs": []
    }, 
    {
      "op": "tvm_op", 
      "name": "batch_norm4_gamma_mul_div", 
      "attrs": {
        "flatten_data": "1", 
        "func_name": "fuse_elemwise_mul_1", 
        "num_inputs": "2", 
        "num_outputs": "1"
      }, 
      "inputs": [[82, 0, 0], [83, 0, 0]]
    }, 
    {
      "op": "tvm_op", 
      "name": "batch_norm4_gamma_mul_div_expand", 
      "attrs": {
        "flatten_data": "0", 
        "func_name": "fuse_expand_dims_1", 
        "num_inputs": "1", 
        "num_outputs": "1"
      }, 
      "inputs": [[84, 0, 0]]
    }, 
    {
      "op": "tvm_op", 
      "name": "batch_norm4_a_mul_data", 
      "attrs": {
        "flatten_data": "0", 
        "func_name": "fuse_broadcast_mul_1", 
        "num_inputs": "2", 
        "num_outputs": "1"
      }, 
      "inputs": [[78, 0, 0], [85, 0, 0]]
    }, 
    {
      "op": "null", 
      "name": "42", 
      "inputs": []
    }, 
    {
      "op": "tvm_op", 
      "name": "batch_norm4_neg_mean", 
      "attrs": {
        "flatten_data": "1", 
        "func_name": "fuse_negative_1", 
        "num_inputs": "1", 
        "num_outputs": "1"
      }, 
      "inputs": [[87, 0, 1]]
    }, 
    {
      "op": "tvm_op", 
      "name": "batch_norm4_neg_mean_mul_a", 
      "attrs": {
        "flatten_data": "1", 
        "func_name": "fuse_elemwise_mul_1", 
        "num_inputs": "2", 
        "num_outputs": "1"
      }, 
      "inputs": [[88, 0, 0], [84, 0, 0]]
    }, 
    {
      "op": "null", 
      "name": "41", 
      "inputs": []
    }, 
    {
      "op": "tvm_op", 
      "name": "batch_norm4_add_beta", 
      "attrs": {
        "flatten_data": "1", 
        "func_name": "fuse_elemwise_add_1", 
        "num_inputs": "2", 
        "num_outputs": "1"
      }, 
      "inputs": [[89, 0, 0], [90, 0, 0]]
    }, 
    {
      "op": "tvm_op", 
      "name": "batch_norm4_add_beta_expand", 
      "attrs": {
        "flatten_data": "0", 
        "func_name": "fuse_expand_dims_1", 
        "num_inputs": "1", 
        "num_outputs": "1"
      }, 
      "inputs": [[91, 0, 0]]
    }, 
    {
      "op": "tvm_op", 
      "name": "batch_norm4_out", 
      "attrs": {
        "flatten_data": "0", 
        "func_name": "fuse_broadcast_add_1", 
        "num_inputs": "2", 
        "num_outputs": "1"
      }, 
      "inputs": [[86, 0, 0], [92, 0, 0]]
    }, 
    {
      "op": "tvm_op", 
      "name": "relu4", 
      "attrs": {
        "flatten_data": "1", 
        "func_name": "fuse_relu_1", 
        "num_inputs": "1", 
        "num_outputs": "1"
      }, 
      "inputs": [[93, 0, 0]]
    }, 
    {
      "op": "null", 
      "name": "46", 
      "inputs": []
    }, 
    {
      "op": "tvm_op", 
      "name": "conv2d6", 
      "attrs": {
        "flatten_data": "0", 
        "func_name": "fuse_conv2d_4", 
        "num_inputs": "2", 
        "num_outputs": "1"
      }, 
      "inputs": [[94, 0, 0], [95, 0, 0]]
    }, 
    {
      "op": "null", 
      "name": "51", 
      "inputs": []
    }, 
    {
      "op": "tvm_op", 
      "name": "batch_norm5_add_eps", 
      "attrs": {
        "flatten_data": "1", 
        "func_name": "fuse___add_scalar___2", 
        "num_inputs": "1", 
        "num_outputs": "1"
      }, 
      "inputs": [[97, 0, 1]]
    }, 
    {
      "op": "tvm_op", 
      "name": "batch_norm5_sqrt", 
      "attrs": {
        "flatten_data": "1", 
        "func_name": "fuse_sqrt_2", 
        "num_inputs": "1", 
        "num_outputs": "1"
      }, 
      "inputs": [[98, 0, 0]]
    }, 
    {
      "op": "tvm_op", 
      "name": "batch_norm5_div", 
      "attrs": {
        "flatten_data": "1", 
        "func_name": "fuse___rdiv_scalar___2", 
        "num_inputs": "1", 
        "num_outputs": "1"
      }, 
      "inputs": [[99, 0, 0]]
    }, 
    {
      "op": "null", 
      "name": "48", 
      "inputs": []
    }, 
    {
      "op": "tvm_op", 
      "name": "batch_norm5_gamma_mul_div", 
      "attrs": {
        "flatten_data": "1", 
        "func_name": "fuse_elemwise_mul_2", 
        "num_inputs": "2", 
        "num_outputs": "1"
      }, 
      "inputs": [[100, 0, 0], [101, 0, 0]]
    }, 
    {
      "op": "tvm_op", 
      "name": "batch_norm5_gamma_mul_div_expand", 
      "attrs": {
        "flatten_data": "0", 
        "func_name": "fuse_expand_dims_2", 
        "num_inputs": "1", 
        "num_outputs": "1"
      }, 
      "inputs": [[102, 0, 0]]
    }, 
    {
      "op": "tvm_op", 
      "name": "batch_norm5_a_mul_data", 
      "attrs": {
        "flatten_data": "0", 
        "func_name": "fuse_broadcast_mul_2", 
        "num_inputs": "2", 
        "num_outputs": "1"
      }, 
      "inputs": [[96, 0, 0], [103, 0, 0]]
    }, 
    {
      "op": "null", 
      "name": "50", 
      "inputs": []
    }, 
    {
      "op": "tvm_op", 
      "name": "batch_norm5_neg_mean", 
      "attrs": {
        "flatten_data": "1", 
        "func_name": "fuse_negative_2", 
        "num_inputs": "1", 
        "num_outputs": "1"
      }, 
      "inputs": [[105, 0, 1]]
    }, 
    {
      "op": "tvm_op", 
      "name": "batch_norm5_neg_mean_mul_a", 
      "attrs": {
        "flatten_data": "1", 
        "func_name": "fuse_elemwise_mul_2", 
        "num_inputs": "2", 
        "num_outputs": "1"
      }, 
      "inputs": [[106, 0, 0], [102, 0, 0]]
    }, 
    {
      "op": "null", 
      "name": "49", 
      "inputs": []
    }, 
    {
      "op": "tvm_op", 
      "name": "batch_norm5_add_beta", 
      "attrs": {
        "flatten_data": "1", 
        "func_name": "fuse_elemwise_add_3", 
        "num_inputs": "2", 
        "num_outputs": "1"
      }, 
      "inputs": [[107, 0, 0], [108, 0, 0]]
    }, 
    {
      "op": "tvm_op", 
      "name": "batch_norm5_add_beta_expand", 
      "attrs": {
        "flatten_data": "0", 
        "func_name": "fuse_expand_dims_2", 
        "num_inputs": "1", 
        "num_outputs": "1"
      }, 
      "inputs": [[109, 0, 0]]
    }, 
    {
      "op": "tvm_op", 
      "name": "batch_norm5_out", 
      "attrs": {
        "flatten_data": "0", 
        "func_name": "fuse_broadcast_add_2", 
        "num_inputs": "2", 
        "num_outputs": "1"
      }, 
      "inputs": [[104, 0, 0], [110, 0, 0]]
    }, 
    {
      "op": "tvm_op", 
      "name": "relu5", 
      "attrs": {
        "flatten_data": "1", 
        "func_name": "fuse_relu", 
        "num_inputs": "1", 
        "num_outputs": "1"
      }, 
      "inputs": [[111, 0, 0]]
    }, 
    {
      "op": "null", 
      "name": "54", 
      "inputs": []
    }, 
    {
      "op": "tvm_op", 
      "name": "conv2d7", 
      "attrs": {
        "flatten_data": "0", 
        "func_name": "fuse_conv2d_5", 
        "num_inputs": "2", 
        "num_outputs": "1"
      }, 
      "inputs": [[112, 0, 0], [113, 0, 0]]
    }, 
    {
      "op": "null", 
      "name": "56", 
      "inputs": []
    }, 
    {
      "op": "tvm_op", 
      "name": "conv2d8", 
      "attrs": {
        "flatten_data": "0", 
        "func_name": "fuse_conv2d_6", 
        "num_inputs": "2", 
        "num_outputs": "1"
      }, 
      "inputs": [[94, 0, 0], [115, 0, 0]]
    }, 
    {
      "op": "tvm_op", 
      "name": "elemwise_add2", 
      "attrs": {
        "flatten_data": "1", 
        "func_name": "fuse_elemwise_add_4", 
        "num_inputs": "2", 
        "num_outputs": "1"
      }, 
      "inputs": [[114, 0, 0], [116, 0, 0]]
    }, 
    {
      "op": "null", 
      "name": "62", 
      "inputs": []
    }, 
    {
      "op": "tvm_op", 
      "name": "batch_norm6_add_eps", 
      "attrs": {
        "flatten_data": "1", 
        "func_name": "fuse___add_scalar___2", 
        "num_inputs": "1", 
        "num_outputs": "1"
      }, 
      "inputs": [[118, 0, 1]]
    }, 
    {
      "op": "tvm_op", 
      "name": "batch_norm6_sqrt", 
      "attrs": {
        "flatten_data": "1", 
        "func_name": "fuse_sqrt_2", 
        "num_inputs": "1", 
        "num_outputs": "1"
      }, 
      "inputs": [[119, 0, 0]]
    }, 
    {
      "op": "tvm_op", 
      "name": "batch_norm6_div", 
      "attrs": {
        "flatten_data": "1", 
        "func_name": "fuse___rdiv_scalar___2", 
        "num_inputs": "1", 
        "num_outputs": "1"
      }, 
      "inputs": [[120, 0, 0]]
    }, 
    {
      "op": "null", 
      "name": "59", 
      "inputs": []
    }, 
    {
      "op": "tvm_op", 
      "name": "batch_norm6_gamma_mul_div", 
      "attrs": {
        "flatten_data": "1", 
        "func_name": "fuse_elemwise_mul_2", 
        "num_inputs": "2", 
        "num_outputs": "1"
      }, 
      "inputs": [[121, 0, 0], [122, 0, 0]]
    }, 
    {
      "op": "tvm_op", 
      "name": "batch_norm6_gamma_mul_div_expand", 
      "attrs": {
        "flatten_data": "0", 
        "func_name": "fuse_expand_dims_2", 
        "num_inputs": "1", 
        "num_outputs": "1"
      }, 
      "inputs": [[123, 0, 0]]
    }, 
    {
      "op": "tvm_op", 
      "name": "batch_norm6_a_mul_data", 
      "attrs": {
        "flatten_data": "0", 
        "func_name": "fuse_broadcast_mul_2", 
        "num_inputs": "2", 
        "num_outputs": "1"
      }, 
      "inputs": [[117, 0, 0], [124, 0, 0]]
    }, 
    {
      "op": "null", 
      "name": "61", 
      "inputs": []
    }, 
    {
      "op": "tvm_op", 
      "name": "batch_norm6_neg_mean", 
      "attrs": {
        "flatten_data": "1", 
        "func_name": "fuse_negative_2", 
        "num_inputs": "1", 
        "num_outputs": "1"
      }, 
      "inputs": [[126, 0, 1]]
    }, 
    {
      "op": "tvm_op", 
      "name": "batch_norm6_neg_mean_mul_a", 
      "attrs": {
        "flatten_data": "1", 
        "func_name": "fuse_elemwise_mul_2", 
        "num_inputs": "2", 
        "num_outputs": "1"
      }, 
      "inputs": [[127, 0, 0], [123, 0, 0]]
    }, 
    {
      "op": "null", 
      "name": "60", 
      "inputs": []
    }, 
    {
      "op": "tvm_op", 
      "name": "batch_norm6_add_beta", 
      "attrs": {
        "flatten_data": "1", 
        "func_name": "fuse_elemwise_add_3", 
        "num_inputs": "2", 
        "num_outputs": "1"
      }, 
      "inputs": [[128, 0, 0], [129, 0, 0]]
    }, 
    {
      "op": "tvm_op", 
      "name": "batch_norm6_add_beta_expand", 
      "attrs": {
        "flatten_data": "0", 
        "func_name": "fuse_expand_dims_2", 
        "num_inputs": "1", 
        "num_outputs": "1"
      }, 
      "inputs": [[130, 0, 0]]
    }, 
    {
      "op": "tvm_op", 
      "name": "batch_norm6_out", 
      "attrs": {
        "flatten_data": "0", 
        "func_name": "fuse_broadcast_add_2", 
        "num_inputs": "2", 
        "num_outputs": "1"
      }, 
      "inputs": [[125, 0, 0], [131, 0, 0]]
    }, 
    {
      "op": "tvm_op", 
      "name": "relu6", 
      "attrs": {
        "flatten_data": "1", 
        "func_name": "fuse_relu", 
        "num_inputs": "1", 
        "num_outputs": "1"
      }, 
      "inputs": [[132, 0, 0]]
    }, 
    {
      "op": "null", 
      "name": "65", 
      "inputs": []
    }, 
    {
      "op": "tvm_op", 
      "name": "conv2d9", 
      "attrs": {
        "flatten_data": "0", 
        "func_name": "fuse_conv2d_5", 
        "num_inputs": "2", 
        "num_outputs": "1"
      }, 
      "inputs": [[133, 0, 0], [134, 0, 0]]
    }, 
    {
      "op": "null", 
      "name": "70", 
      "inputs": []
    }, 
    {
      "op": "tvm_op", 
      "name": "batch_norm7_add_eps", 
      "attrs": {
        "flatten_data": "1", 
        "func_name": "fuse___add_scalar___2", 
        "num_inputs": "1", 
        "num_outputs": "1"
      }, 
      "inputs": [[136, 0, 1]]
    }, 
    {
      "op": "tvm_op", 
      "name": "batch_norm7_sqrt", 
      "attrs": {
        "flatten_data": "1", 
        "func_name": "fuse_sqrt_2", 
        "num_inputs": "1", 
        "num_outputs": "1"
      }, 
      "inputs": [[137, 0, 0]]
    }, 
    {
      "op": "tvm_op", 
      "name": "batch_norm7_div", 
      "attrs": {
        "flatten_data": "1", 
        "func_name": "fuse___rdiv_scalar___2", 
        "num_inputs": "1", 
        "num_outputs": "1"
      }, 
      "inputs": [[138, 0, 0]]
    }, 
    {
      "op": "null", 
      "name": "67", 
      "inputs": []
    }, 
    {
      "op": "tvm_op", 
      "name": "batch_norm7_gamma_mul_div", 
      "attrs": {
        "flatten_data": "1", 
        "func_name": "fuse_elemwise_mul_2", 
        "num_inputs": "2", 
        "num_outputs": "1"
      }, 
      "inputs": [[139, 0, 0], [140, 0, 0]]
    }, 
    {
      "op": "tvm_op", 
      "name": "batch_norm7_gamma_mul_div_expand", 
      "attrs": {
        "flatten_data": "0", 
        "func_name": "fuse_expand_dims_2", 
        "num_inputs": "1", 
        "num_outputs": "1"
      }, 
      "inputs": [[141, 0, 0]]
    }, 
    {
      "op": "tvm_op", 
      "name": "batch_norm7_a_mul_data", 
      "attrs": {
        "flatten_data": "0", 
        "func_name": "fuse_broadcast_mul_2", 
        "num_inputs": "2", 
        "num_outputs": "1"
      }, 
      "inputs": [[135, 0, 0], [142, 0, 0]]
    }, 
    {
      "op": "null", 
      "name": "69", 
      "inputs": []
    }, 
    {
      "op": "tvm_op", 
      "name": "batch_norm7_neg_mean", 
      "attrs": {
        "flatten_data": "1", 
        "func_name": "fuse_negative_2", 
        "num_inputs": "1", 
        "num_outputs": "1"
      }, 
      "inputs": [[144, 0, 1]]
    }, 
    {
      "op": "tvm_op", 
      "name": "batch_norm7_neg_mean_mul_a", 
      "attrs": {
        "flatten_data": "1", 
        "func_name": "fuse_elemwise_mul_2", 
        "num_inputs": "2", 
        "num_outputs": "1"
      }, 
      "inputs": [[145, 0, 0], [141, 0, 0]]
    }, 
    {
      "op": "null", 
      "name": "68", 
      "inputs": []
    }, 
    {
      "op": "tvm_op", 
      "name": "batch_norm7_add_beta", 
      "attrs": {
        "flatten_data": "1", 
        "func_name": "fuse_elemwise_add_3", 
        "num_inputs": "2", 
        "num_outputs": "1"
      }, 
      "inputs": [[146, 0, 0], [147, 0, 0]]
    }, 
    {
      "op": "tvm_op", 
      "name": "batch_norm7_add_beta_expand", 
      "attrs": {
        "flatten_data": "0", 
        "func_name": "fuse_expand_dims_2", 
        "num_inputs": "1", 
        "num_outputs": "1"
      }, 
      "inputs": [[148, 0, 0]]
    }, 
    {
      "op": "tvm_op", 
      "name": "batch_norm7_out", 
      "attrs": {
        "flatten_data": "0", 
        "func_name": "fuse_broadcast_add_2", 
        "num_inputs": "2", 
        "num_outputs": "1"
      }, 
      "inputs": [[143, 0, 0], [149, 0, 0]]
    }, 
    {
      "op": "tvm_op", 
      "name": "relu7", 
      "attrs": {
        "flatten_data": "1", 
        "func_name": "fuse_relu", 
        "num_inputs": "1", 
        "num_outputs": "1"
      }, 
      "inputs": [[150, 0, 0]]
    }, 
    {
      "op": "null", 
      "name": "73", 
      "inputs": []
    }, 
    {
      "op": "tvm_op", 
      "name": "conv2d10", 
      "attrs": {
        "flatten_data": "0", 
        "func_name": "fuse_conv2d_5", 
        "num_inputs": "2", 
        "num_outputs": "1"
      }, 
      "inputs": [[151, 0, 0], [152, 0, 0]]
    }, 
    {
      "op": "tvm_op", 
      "name": "elemwise_add3", 
      "attrs": {
        "flatten_data": "1", 
        "func_name": "fuse_elemwise_add_4", 
        "num_inputs": "2", 
        "num_outputs": "1"
      }, 
      "inputs": [[153, 0, 0], [117, 0, 0]]
    }, 
    {
      "op": "null", 
      "name": "79", 
      "inputs": []
    }, 
    {
      "op": "tvm_op", 
      "name": "batch_norm8_add_eps", 
      "attrs": {
        "flatten_data": "1", 
        "func_name": "fuse___add_scalar___2", 
        "num_inputs": "1", 
        "num_outputs": "1"
      }, 
      "inputs": [[155, 0, 1]]
    }, 
    {
      "op": "tvm_op", 
      "name": "batch_norm8_sqrt", 
      "attrs": {
        "flatten_data": "1", 
        "func_name": "fuse_sqrt_2", 
        "num_inputs": "1", 
        "num_outputs": "1"
      }, 
      "inputs": [[156, 0, 0]]
    }, 
    {
      "op": "tvm_op", 
      "name": "batch_norm8_div", 
      "attrs": {
        "flatten_data": "1", 
        "func_name": "fuse___rdiv_scalar___2", 
        "num_inputs": "1", 
        "num_outputs": "1"
      }, 
      "inputs": [[157, 0, 0]]
    }, 
    {
      "op": "null", 
      "name": "76", 
      "inputs": []
    }, 
    {
      "op": "tvm_op", 
      "name": "batch_norm8_gamma_mul_div", 
      "attrs": {
        "flatten_data": "1", 
        "func_name": "fuse_elemwise_mul_2", 
        "num_inputs": "2", 
        "num_outputs": "1"
      }, 
      "inputs": [[158, 0, 0], [159, 0, 0]]
    }, 
    {
      "op": "tvm_op", 
      "name": "batch_norm8_gamma_mul_div_expand", 
      "attrs": {
        "flatten_data": "0", 
        "func_name": "fuse_expand_dims_2", 
        "num_inputs": "1", 
        "num_outputs": "1"
      }, 
      "inputs": [[160, 0, 0]]
    }, 
    {
      "op": "tvm_op", 
      "name": "batch_norm8_a_mul_data", 
      "attrs": {
        "flatten_data": "0", 
        "func_name": "fuse_broadcast_mul_2", 
        "num_inputs": "2", 
        "num_outputs": "1"
      }, 
      "inputs": [[154, 0, 0], [161, 0, 0]]
    }, 
    {
      "op": "null", 
      "name": "78", 
      "inputs": []
    }, 
    {
      "op": "tvm_op", 
      "name": "batch_norm8_neg_mean", 
      "attrs": {
        "flatten_data": "1", 
        "func_name": "fuse_negative_2", 
        "num_inputs": "1", 
        "num_outputs": "1"
      }, 
      "inputs": [[163, 0, 1]]
    }, 
    {
      "op": "tvm_op", 
      "name": "batch_norm8_neg_mean_mul_a", 
      "attrs": {
        "flatten_data": "1", 
        "func_name": "fuse_elemwise_mul_2", 
        "num_inputs": "2", 
        "num_outputs": "1"
      }, 
      "inputs": [[164, 0, 0], [160, 0, 0]]
    }, 
    {
      "op": "null", 
      "name": "77", 
      "inputs": []
    }, 
    {
      "op": "tvm_op", 
      "name": "batch_norm8_add_beta", 
      "attrs": {
        "flatten_data": "1", 
        "func_name": "fuse_elemwise_add_3", 
        "num_inputs": "2", 
        "num_outputs": "1"
      }, 
      "inputs": [[165, 0, 0], [166, 0, 0]]
    }, 
    {
      "op": "tvm_op", 
      "name": "batch_norm8_add_beta_expand", 
      "attrs": {
        "flatten_data": "0", 
        "func_name": "fuse_expand_dims_2", 
        "num_inputs": "1", 
        "num_outputs": "1"
      }, 
      "inputs": [[167, 0, 0]]
    }, 
    {
      "op": "tvm_op", 
      "name": "batch_norm8_out", 
      "attrs": {
        "flatten_data": "0", 
        "func_name": "fuse_broadcast_add_2", 
        "num_inputs": "2", 
        "num_outputs": "1"
      }, 
      "inputs": [[162, 0, 0], [168, 0, 0]]
    }, 
    {
      "op": "tvm_op", 
      "name": "relu8", 
      "attrs": {
        "flatten_data": "1", 
        "func_name": "fuse_relu", 
        "num_inputs": "1", 
        "num_outputs": "1"
      }, 
      "inputs": [[169, 0, 0]]
    }, 
    {
      "op": "null", 
      "name": "82", 
      "inputs": []
    }, 
    {
      "op": "tvm_op", 
      "name": "conv2d11", 
      "attrs": {
        "flatten_data": "0", 
        "func_name": "fuse_conv2d_7", 
        "num_inputs": "2", 
        "num_outputs": "1"
      }, 
      "inputs": [[170, 0, 0], [171, 0, 0]]
    }, 
    {
      "op": "null", 
      "name": "87", 
      "inputs": []
    }, 
    {
      "op": "tvm_op", 
      "name": "batch_norm9_add_eps", 
      "attrs": {
        "flatten_data": "1", 
        "func_name": "fuse___add_scalar___3", 
        "num_inputs": "1", 
        "num_outputs": "1"
      }, 
      "inputs": [[173, 0, 1]]
    }, 
    {
      "op": "tvm_op", 
      "name": "batch_norm9_sqrt", 
      "attrs": {
        "flatten_data": "1", 
        "func_name": "fuse_sqrt_3", 
        "num_inputs": "1", 
        "num_outputs": "1"
      }, 
      "inputs": [[174, 0, 0]]
    }, 
    {
      "op": "tvm_op", 
      "name": "batch_norm9_div", 
      "attrs": {
        "flatten_data": "1", 
        "func_name": "fuse___rdiv_scalar___3", 
        "num_inputs": "1", 
        "num_outputs": "1"
      }, 
      "inputs": [[175, 0, 0]]
    }, 
    {
      "op": "null", 
      "name": "84", 
      "inputs": []
    }, 
    {
      "op": "tvm_op", 
      "name": "batch_norm9_gamma_mul_div", 
      "attrs": {
        "flatten_data": "1", 
        "func_name": "fuse_elemwise_mul_3", 
        "num_inputs": "2", 
        "num_outputs": "1"
      }, 
      "inputs": [[176, 0, 0], [177, 0, 0]]
    }, 
    {
      "op": "tvm_op", 
      "name": "batch_norm9_gamma_mul_div_expand", 
      "attrs": {
        "flatten_data": "0", 
        "func_name": "fuse_expand_dims_3", 
        "num_inputs": "1", 
        "num_outputs": "1"
      }, 
      "inputs": [[178, 0, 0]]
    }, 
    {
      "op": "tvm_op", 
      "name": "batch_norm9_a_mul_data", 
      "attrs": {
        "flatten_data": "0", 
        "func_name": "fuse_broadcast_mul_3", 
        "num_inputs": "2", 
        "num_outputs": "1"
      }, 
      "inputs": [[172, 0, 0], [179, 0, 0]]
    }, 
    {
      "op": "null", 
      "name": "86", 
      "inputs": []
    }, 
    {
      "op": "tvm_op", 
      "name": "batch_norm9_neg_mean", 
      "attrs": {
        "flatten_data": "1", 
        "func_name": "fuse_negative_3", 
        "num_inputs": "1", 
        "num_outputs": "1"
      }, 
      "inputs": [[181, 0, 1]]
    }, 
    {
      "op": "tvm_op", 
      "name": "batch_norm9_neg_mean_mul_a", 
      "attrs": {
        "flatten_data": "1", 
        "func_name": "fuse_elemwise_mul_3", 
        "num_inputs": "2", 
        "num_outputs": "1"
      }, 
      "inputs": [[182, 0, 0], [178, 0, 0]]
    }, 
    {
      "op": "null", 
      "name": "85", 
      "inputs": []
    }, 
    {
      "op": "tvm_op", 
      "name": "batch_norm9_add_beta", 
      "attrs": {
        "flatten_data": "1", 
        "func_name": "fuse_elemwise_add_5", 
        "num_inputs": "2", 
        "num_outputs": "1"
      }, 
      "inputs": [[183, 0, 0], [184, 0, 0]]
    }, 
    {
      "op": "tvm_op", 
      "name": "batch_norm9_add_beta_expand", 
      "attrs": {
        "flatten_data": "0", 
        "func_name": "fuse_expand_dims_3", 
        "num_inputs": "1", 
        "num_outputs": "1"
      }, 
      "inputs": [[185, 0, 0]]
    }, 
    {
      "op": "tvm_op", 
      "name": "batch_norm9_out", 
      "attrs": {
        "flatten_data": "0", 
        "func_name": "fuse_broadcast_add_3", 
        "num_inputs": "2", 
        "num_outputs": "1"
      }, 
      "inputs": [[180, 0, 0], [186, 0, 0]]
    }, 
    {
      "op": "tvm_op", 
      "name": "relu9", 
      "attrs": {
        "flatten_data": "1", 
        "func_name": "fuse_relu_2", 
        "num_inputs": "1", 
        "num_outputs": "1"
      }, 
      "inputs": [[187, 0, 0]]
    }, 
    {
      "op": "null", 
      "name": "90", 
      "inputs": []
    }, 
    {
      "op": "tvm_op", 
      "name": "conv2d12", 
      "attrs": {
        "flatten_data": "0", 
        "func_name": "fuse_conv2d_8", 
        "num_inputs": "2", 
        "num_outputs": "1"
      }, 
      "inputs": [[188, 0, 0], [189, 0, 0]]
    }, 
    {
      "op": "null", 
      "name": "92", 
      "inputs": []
    }, 
    {
      "op": "tvm_op", 
      "name": "conv2d13", 
      "attrs": {
        "flatten_data": "0", 
        "func_name": "fuse_conv2d_9", 
        "num_inputs": "2", 
        "num_outputs": "1"
      }, 
      "inputs": [[170, 0, 0], [191, 0, 0]]
    }, 
    {
      "op": "tvm_op", 
      "name": "elemwise_add4", 
      "attrs": {
        "flatten_data": "1", 
        "func_name": "fuse_elemwise_add_6", 
        "num_inputs": "2", 
        "num_outputs": "1"
      }, 
      "inputs": [[190, 0, 0], [192, 0, 0]]
    }, 
    {
      "op": "null", 
      "name": "98", 
      "inputs": []
    }, 
    {
      "op": "tvm_op", 
      "name": "batch_norm10_add_eps", 
      "attrs": {
        "flatten_data": "1", 
        "func_name": "fuse___add_scalar___3", 
        "num_inputs": "1", 
        "num_outputs": "1"
      }, 
      "inputs": [[194, 0, 1]]
    }, 
    {
      "op": "tvm_op", 
      "name": "batch_norm10_sqrt", 
      "attrs": {
        "flatten_data": "1", 
        "func_name": "fuse_sqrt_3", 
        "num_inputs": "1", 
        "num_outputs": "1"
      }, 
      "inputs": [[195, 0, 0]]
    }, 
    {
      "op": "tvm_op", 
      "name": "batch_norm10_div", 
      "attrs": {
        "flatten_data": "1", 
        "func_name": "fuse___rdiv_scalar___3", 
        "num_inputs": "1", 
        "num_outputs": "1"
      }, 
      "inputs": [[196, 0, 0]]
    }, 
    {
      "op": "null", 
      "name": "95", 
      "inputs": []
    }, 
    {
      "op": "tvm_op", 
      "name": "batch_norm10_gamma_mul_div", 
      "attrs": {
        "flatten_data": "1", 
        "func_name": "fuse_elemwise_mul_3", 
        "num_inputs": "2", 
        "num_outputs": "1"
      }, 
      "inputs": [[197, 0, 0], [198, 0, 0]]
    }, 
    {
      "op": "tvm_op", 
      "name": "batch_norm10_gamma_mul_div_expand", 
      "attrs": {
        "flatten_data": "0", 
        "func_name": "fuse_expand_dims_3", 
        "num_inputs": "1", 
        "num_outputs": "1"
      }, 
      "inputs": [[199, 0, 0]]
    }, 
    {
      "op": "tvm_op", 
      "name": "batch_norm10_a_mul_data", 
      "attrs": {
        "flatten_data": "0", 
        "func_name": "fuse_broadcast_mul_3", 
        "num_inputs": "2", 
        "num_outputs": "1"
      }, 
      "inputs": [[193, 0, 0], [200, 0, 0]]
    }, 
    {
      "op": "null", 
      "name": "97", 
      "inputs": []
    }, 
    {
      "op": "tvm_op", 
      "name": "batch_norm10_neg_mean", 
      "attrs": {
        "flatten_data": "1", 
        "func_name": "fuse_negative_3", 
        "num_inputs": "1", 
        "num_outputs": "1"
      }, 
      "inputs": [[202, 0, 1]]
    }, 
    {
      "op": "tvm_op", 
      "name": "batch_norm10_neg_mean_mul_a", 
      "attrs": {
        "flatten_data": "1", 
        "func_name": "fuse_elemwise_mul_3", 
        "num_inputs": "2", 
        "num_outputs": "1"
      }, 
      "inputs": [[203, 0, 0], [199, 0, 0]]
    }, 
    {
      "op": "null", 
      "name": "96", 
      "inputs": []
    }, 
    {
      "op": "tvm_op", 
      "name": "batch_norm10_add_beta", 
      "attrs": {
        "flatten_data": "1", 
        "func_name": "fuse_elemwise_add_5", 
        "num_inputs": "2", 
        "num_outputs": "1"
      }, 
      "inputs": [[204, 0, 0], [205, 0, 0]]
    }, 
    {
      "op": "tvm_op", 
      "name": "batch_norm10_add_beta_expand", 
      "attrs": {
        "flatten_data": "0", 
        "func_name": "fuse_expand_dims_3", 
        "num_inputs": "1", 
        "num_outputs": "1"
      }, 
      "inputs": [[206, 0, 0]]
    }, 
    {
      "op": "tvm_op", 
      "name": "batch_norm10_out", 
      "attrs": {
        "flatten_data": "0", 
        "func_name": "fuse_broadcast_add_3", 
        "num_inputs": "2", 
        "num_outputs": "1"
      }, 
      "inputs": [[201, 0, 0], [207, 0, 0]]
    }, 
    {
      "op": "tvm_op", 
      "name": "relu10", 
      "attrs": {
        "flatten_data": "1", 
        "func_name": "fuse_relu_2", 
        "num_inputs": "1", 
        "num_outputs": "1"
      }, 
      "inputs": [[208, 0, 0]]
    }, 
    {
      "op": "null", 
      "name": "101", 
      "inputs": []
    }, 
    {
      "op": "tvm_op", 
      "name": "conv2d14", 
      "attrs": {
        "flatten_data": "0", 
        "func_name": "fuse_conv2d_8", 
        "num_inputs": "2", 
        "num_outputs": "1"
      }, 
      "inputs": [[209, 0, 0], [210, 0, 0]]
    }, 
    {
      "op": "null", 
      "name": "106", 
      "inputs": []
    }, 
    {
      "op": "tvm_op", 
      "name": "batch_norm11_add_eps", 
      "attrs": {
        "flatten_data": "1", 
        "func_name": "fuse___add_scalar___3", 
        "num_inputs": "1", 
        "num_outputs": "1"
      }, 
      "inputs": [[212, 0, 1]]
    }, 
    {
      "op": "tvm_op", 
      "name": "batch_norm11_sqrt", 
      "attrs": {
        "flatten_data": "1", 
        "func_name": "fuse_sqrt_3", 
        "num_inputs": "1", 
        "num_outputs": "1"
      }, 
      "inputs": [[213, 0, 0]]
    }, 
    {
      "op": "tvm_op", 
      "name": "batch_norm11_div", 
      "attrs": {
        "flatten_data": "1", 
        "func_name": "fuse___rdiv_scalar___3", 
        "num_inputs": "1", 
        "num_outputs": "1"
      }, 
      "inputs": [[214, 0, 0]]
    }, 
    {
      "op": "null", 
      "name": "103", 
      "inputs": []
    }, 
    {
      "op": "tvm_op", 
      "name": "batch_norm11_gamma_mul_div", 
      "attrs": {
        "flatten_data": "1", 
        "func_name": "fuse_elemwise_mul_3", 
        "num_inputs": "2", 
        "num_outputs": "1"
      }, 
      "inputs": [[215, 0, 0], [216, 0, 0]]
    }, 
    {
      "op": "tvm_op", 
      "name": "batch_norm11_gamma_mul_div_expand", 
      "attrs": {
        "flatten_data": "0", 
        "func_name": "fuse_expand_dims_3", 
        "num_inputs": "1", 
        "num_outputs": "1"
      }, 
      "inputs": [[217, 0, 0]]
    }, 
    {
      "op": "tvm_op", 
      "name": "batch_norm11_a_mul_data", 
      "attrs": {
        "flatten_data": "0", 
        "func_name": "fuse_broadcast_mul_3", 
        "num_inputs": "2", 
        "num_outputs": "1"
      }, 
      "inputs": [[211, 0, 0], [218, 0, 0]]
    }, 
    {
      "op": "null", 
      "name": "105", 
      "inputs": []
    }, 
    {
      "op": "tvm_op", 
      "name": "batch_norm11_neg_mean", 
      "attrs": {
        "flatten_data": "1", 
        "func_name": "fuse_negative_3", 
        "num_inputs": "1", 
        "num_outputs": "1"
      }, 
      "inputs": [[220, 0, 1]]
    }, 
    {
      "op": "tvm_op", 
      "name": "batch_norm11_neg_mean_mul_a", 
      "attrs": {
        "flatten_data": "1", 
        "func_name": "fuse_elemwise_mul_3", 
        "num_inputs": "2", 
        "num_outputs": "1"
      }, 
      "inputs": [[221, 0, 0], [217, 0, 0]]
    }, 
    {
      "op": "null", 
      "name": "104", 
      "inputs": []
    }, 
    {
      "op": "tvm_op", 
      "name": "batch_norm11_add_beta", 
      "attrs": {
        "flatten_data": "1", 
        "func_name": "fuse_elemwise_add_5", 
        "num_inputs": "2", 
        "num_outputs": "1"
      }, 
      "inputs": [[222, 0, 0], [223, 0, 0]]
    }, 
    {
      "op": "tvm_op", 
      "name": "batch_norm11_add_beta_expand", 
      "attrs": {
        "flatten_data": "0", 
        "func_name": "fuse_expand_dims_3", 
        "num_inputs": "1", 
        "num_outputs": "1"
      }, 
      "inputs": [[224, 0, 0]]
    }, 
    {
      "op": "tvm_op", 
      "name": "batch_norm11_out", 
      "attrs": {
        "flatten_data": "0", 
        "func_name": "fuse_broadcast_add_3", 
        "num_inputs": "2", 
        "num_outputs": "1"
      }, 
      "inputs": [[219, 0, 0], [225, 0, 0]]
    }, 
    {
      "op": "tvm_op", 
      "name": "relu11", 
      "attrs": {
        "flatten_data": "1", 
        "func_name": "fuse_relu_2", 
        "num_inputs": "1", 
        "num_outputs": "1"
      }, 
      "inputs": [[226, 0, 0]]
    }, 
    {
      "op": "null", 
      "name": "109", 
      "inputs": []
    }, 
    {
      "op": "tvm_op", 
      "name": "conv2d15", 
      "attrs": {
        "flatten_data": "0", 
        "func_name": "fuse_conv2d_8", 
        "num_inputs": "2", 
        "num_outputs": "1"
      }, 
      "inputs": [[227, 0, 0], [228, 0, 0]]
    }, 
    {
      "op": "tvm_op", 
      "name": "elemwise_add5", 
      "attrs": {
        "flatten_data": "1", 
        "func_name": "fuse_elemwise_add_6", 
        "num_inputs": "2", 
        "num_outputs": "1"
      }, 
      "inputs": [[229, 0, 0], [193, 0, 0]]
    }, 
    {
      "op": "null", 
      "name": "2", 
      "inputs": []
    }, 
    {
      "op": "tvm_op", 
      "name": "conv2d16", 
      "attrs": {
        "flatten_data": "0", 
        "func_name": "fuse_conv2d_10", 
        "num_inputs": "2", 
        "num_outputs": "1"
      }, 
      "inputs": [[230, 0, 0], [231, 0, 0]]
    }
  ], 
  "arg_nodes": [
    0, 
    1, 
    3, 
    7, 
    11, 
    14, 
    19, 
    21, 
    25, 
    29, 
    32, 
    37, 
    39, 
    42, 
    46, 
    50, 
    53, 
    58, 
    60, 
    64, 
    68, 
    71, 
    76, 
    79, 
    83, 
    87, 
    90, 
    95, 
    97, 
    101, 
    105, 
    108, 
    113, 
    115, 
    118, 
    122, 
    126, 
    129, 
    134, 
    136, 
    140, 
    144, 
    147, 
    152, 
    155, 
    159, 
    163, 
    166, 
    171, 
    173, 
    177, 
    181, 
    184, 
    189, 
    191, 
    194, 
    198, 
    202, 
    205, 
    210, 
    212, 
    216, 
    220, 
    223, 
    228, 
    231
  ], 
  "node_row_ptr": [
    0, 
    1, 
    2, 
    3, 
    4, 
    5, 
    6, 
    7, 
    8, 
    9, 
    10, 
    11, 
    12, 
    13, 
    14, 
    15, 
    16, 
    17, 
    18, 
    19, 
    20, 
    21, 
    22, 
    23, 
    24, 
    25, 
    26, 
    27, 
    28, 
    29, 
    30, 
    31, 
    32, 
    33, 
    34, 
    35, 
    36, 
    37, 
    38, 
    39, 
    40, 
    41, 
    42, 
    43, 
    44, 
    45, 
    46, 
    47, 
    48, 
    49, 
    50, 
    51, 
    52, 
    53, 
    54, 
    55, 
    56, 
    57, 
    58, 
    59, 
    60, 
    61, 
    62, 
    63, 
    64, 
    65, 
    66, 
    67, 
    68, 
    69, 
    70, 
    71, 
    72, 
    73, 
    74, 
    75, 
    76, 
    77, 
    78, 
    79, 
    80, 
    81, 
    82, 
    83, 
    84, 
    85, 
    86, 
    87, 
    88, 
    89, 
    90, 
    91, 
    92, 
    93, 
    94, 
    95, 
    96, 
    97, 
    98, 
    99, 
    100, 
    101, 
    102, 
    103, 
    104, 
    105, 
    106, 
    107, 
    108, 
    109, 
    110, 
    111, 
    112, 
    113, 
    114, 
    115, 
    116, 
    117, 
    118, 
    119, 
    120, 
    121, 
    122, 
    123, 
    124, 
    125, 
    126, 
    127, 
    128, 
    129, 
    130, 
    131, 
    132, 
    133, 
    134, 
    135, 
    136, 
    137, 
    138, 
    139, 
    140, 
    141, 
    142, 
    143, 
    144, 
    145, 
    146, 
    147, 
    148, 
    149, 
    150, 
    151, 
    152, 
    153, 
    154, 
    155, 
    156, 
    157, 
    158, 
    159, 
    160, 
    161, 
    162, 
    163, 
    164, 
    165, 
    166, 
    167, 
    168, 
    169, 
    170, 
    171, 
    172, 
    173, 
    174, 
    175, 
    176, 
    177, 
    178, 
    179, 
    180, 
    181, 
    182, 
    183, 
    184, 
    185, 
    186, 
    187, 
    188, 
    189, 
    190, 
    191, 
    192, 
    193, 
    194, 
    195, 
    196, 
    197, 
    198, 
    199, 
    200, 
    201, 
    202, 
    203, 
    204, 
    205, 
    206, 
    207, 
    208, 
    209, 
    210, 
    211, 
    212, 
    213, 
    214, 
    215, 
    216, 
    217, 
    218, 
    219, 
    220, 
    221, 
    222, 
    223, 
    224, 
    225, 
    226, 
    227, 
    228, 
    229, 
    230, 
    231, 
    232, 
    233
  ], 
  "heads": [[232, 0, 0]], 
  "attrs": {
    "storage_id": ["list_int", [
        6, 
        7, 
        0, 
        8, 
        1, 
        2, 
        1, 
        9, 
        2, 
        1, 
        3, 
        10, 
        1, 
        4, 
        11, 
        1, 
        2, 
        0, 
        3, 
        12, 
        0, 
        13, 
        2, 
        1, 
        2, 
        14, 
        1, 
        2, 
        5, 
        15, 
        2, 
        4, 
        16, 
        2, 
        1, 
        0, 
        5, 
        17, 
        0, 
        18, 
        5, 
        3, 
        19, 
        4, 
        2, 
        1, 
        20, 
        4, 
        2, 
        0, 
        21, 
        1, 
        2, 
        22, 
        1, 
        4, 
        5, 
        0, 
        23, 
        5, 
        24, 
        2, 
        1, 
        4, 
        25, 
        2, 
        1, 
        0, 
        26, 
        4, 
        1, 
        27, 
        4, 
        2, 
        5, 
        0, 
        28, 
        5, 
        0, 
        29, 
        1, 
        4, 
        2, 
        30, 
        1, 
        4, 
        5, 
        31, 
        2, 
        4, 
        32, 
        2, 
        1, 
        3, 
        0, 
        33, 
        5, 
        34, 
        1, 
        2, 
        1, 
        35, 
        2, 
        1, 
        3, 
        36, 
        1, 
        4, 
        37, 
        1, 
        2, 
        5, 
        3, 
        38, 
        5, 
        39, 
        3, 
        0, 
        40, 
        4, 
        1, 
        2, 
        41, 
        4, 
        1, 
        5, 
        42, 
        2, 
        1, 
        43, 
        2, 
        4, 
        3, 
        5, 
        44, 
        3, 
        45, 
        1, 
        2, 
        4, 
        46, 
        1, 
        2, 
        5, 
        47, 
        4, 
        2, 
        48, 
        4, 
        1, 
        3, 
        5, 
        49, 
        3, 
        5, 
        50, 
        2, 
        4, 
        1, 
        51, 
        2, 
        4, 
        3, 
        52, 
        1, 
        4, 
        53, 
        1, 
        2, 
        0, 
        5, 
        54, 
        3, 
        55, 
        2, 
        1, 
        2, 
        56, 
        1, 
        2, 
        0, 
        57, 
        2, 
        4, 
        58, 
        2, 
        1, 
        3, 
        0, 
        59, 
        3, 
        60, 
        0, 
        5, 
        61, 
        4, 
        2, 
        1, 
        62, 
        4, 
        2, 
        3, 
        63, 
        1, 
        2, 
        64, 
        1, 
        4, 
        0, 
        3, 
        65, 
        0, 
        66, 
        2, 
        1, 
        4, 
        67, 
        2, 
        1, 
        3, 
        68, 
        4, 
        1, 
        69, 
        4, 
        2, 
        0, 
        3, 
        70, 
        0, 
        3, 
        71, 
        0]], 
    "shape": ["list_shape", [
        [1, 3, 32, 32], 
        [16, 3, 3, 3], 
        [1, 16, 32, 32], 
        [16], 
        [16], 
        [16], 
        [16], 
        [16], 
        [16], 
        [16, 1, 1], 
        [1, 16, 32, 32], 
        [16], 
        [16], 
        [16], 
        [16], 
        [16], 
        [16, 1, 1], 
        [1, 16, 32, 32], 
        [1, 16, 32, 32], 
        [32, 16, 3, 3], 
        [1, 32, 32, 32], 
        [32], 
        [32], 
        [32], 
        [32], 
        [32], 
        [32], 
        [32, 1, 1], 
        [1, 32, 32, 32], 
        [32], 
        [32], 
        [32], 
        [32], 
        [32], 
        [32, 1, 1], 
        [1, 32, 32, 32], 
        [1, 32, 32, 32], 
        [32, 32, 3, 3], 
        [1, 32, 32, 32], 
        [32, 16, 1, 1], 
        [1, 32, 32, 32], 
        [1, 32, 32, 32], 
        [32], 
        [32], 
        [32], 
        [32], 
        [32], 
        [32], 
        [32, 1, 1], 
        [1, 32, 32, 32], 
        [32], 
        [32], 
        [32], 
        [32], 
        [32], 
        [32, 1, 1], 
        [1, 32, 32, 32], 
        [1, 32, 32, 32], 
        [32, 32, 3, 3], 
        [1, 32, 32, 32], 
        [32], 
        [32], 
        [32], 
        [32], 
        [32], 
        [32], 
        [32, 1, 1], 
        [1, 32, 32, 32], 
        [32], 
        [32], 
        [32], 
        [32], 
        [32], 
        [32, 1, 1], 
        [1, 32, 32, 32], 
        [1, 32, 32, 32], 
        [32, 32, 3, 3], 
        [1, 32, 32, 32], 
        [1, 32, 32, 32], 
        [32], 
        [32], 
        [32], 
        [32], 
        [32], 
        [32], 
        [32, 1, 1], 
        [1, 32, 32, 32], 
        [32], 
        [32], 
        [32], 
        [32], 
        [32], 
        [32, 1, 1], 
        [1, 32, 32, 32], 
        [1, 32, 32, 32], 
        [64, 32, 3, 3], 
        [1, 64, 16, 16], 
        [64], 
        [64], 
        [64], 
        [64], 
        [64], 
        [64], 
        [64, 1, 1], 
        [1, 64, 16, 16], 
        [64], 
        [64], 
        [64], 
        [64], 
        [64], 
        [64, 1, 1], 
        [1, 64, 16, 16], 
        [1, 64, 16, 16], 
        [64, 64, 3, 3], 
        [1, 64, 16, 16], 
        [64, 32, 1, 1], 
        [1, 64, 16, 16], 
        [1, 64, 16, 16], 
        [64], 
        [64], 
        [64], 
        [64], 
        [64], 
        [64], 
        [64, 1, 1], 
        [1, 64, 16, 16], 
        [64], 
        [64], 
        [64], 
        [64], 
        [64], 
        [64, 1, 1], 
        [1, 64, 16, 16], 
        [1, 64, 16, 16], 
        [64, 64, 3, 3], 
        [1, 64, 16, 16], 
        [64], 
        [64], 
        [64], 
        [64], 
        [64], 
        [64], 
        [64, 1, 1], 
        [1, 64, 16, 16], 
        [64], 
        [64], 
        [64], 
        [64], 
        [64], 
        [64, 1, 1], 
        [1, 64, 16, 16], 
        [1, 64, 16, 16], 
        [64, 64, 3, 3], 
        [1, 64, 16, 16], 
        [1, 64, 16, 16], 
        [64], 
        [64], 
        [64], 
        [64], 
        [64], 
        [64], 
        [64, 1, 1], 
        [1, 64, 16, 16], 
        [64], 
        [64], 
        [64], 
        [64], 
        [64], 
        [64, 1, 1], 
        [1, 64, 16, 16], 
        [1, 64, 16, 16], 
        [87, 64, 3, 3], 
        [1, 87, 8, 8], 
        [87], 
        [87], 
        [87], 
        [87], 
        [87], 
        [87], 
        [87, 1, 1], 
        [1, 87, 8, 8], 
        [87], 
        [87], 
        [87], 
        [87], 
        [87], 
        [87, 1, 1], 
        [1, 87, 8, 8], 
        [1, 87, 8, 8], 
        [87, 87, 3, 3], 
        [1, 87, 8, 8], 
        [87, 64, 1, 1], 
        [1, 87, 8, 8], 
        [1, 87, 8, 8], 
        [87], 
        [87], 
        [87], 
        [87], 
        [87], 
        [87], 
        [87, 1, 1], 
        [1, 87, 8, 8], 
        [87], 
        [87], 
        [87], 
        [87], 
        [87], 
        [87, 1, 1], 
        [1, 87, 8, 8], 
        [1, 87, 8, 8], 
        [87, 87, 3, 3], 
        [1, 87, 8, 8], 
        [87], 
        [87], 
        [87], 
        [87], 
        [87], 
        [87], 
        [87, 1, 1], 
        [1, 87, 8, 8], 
        [87], 
        [87], 
        [87], 
        [87], 
        [87], 
        [87, 1, 1], 
        [1, 87, 8, 8], 
        [1, 87, 8, 8], 
        [87, 87, 3, 3], 
        [1, 87, 8, 8], 
        [1, 87, 8, 8], 
        [46, 87, 1, 1], 
        [1, 46, 8, 8]]], 
    "dtype": ["list_int", [
        0, 
        0, 
        0, 
        0, 
        0, 
        0, 
        0, 
        0, 
        0, 
        0, 
        0, 
        0, 
        0, 
        0, 
        0, 
        0, 
        0, 
        0, 
        0, 
        0, 
        0, 
        0, 
        0, 
        0, 
        0, 
        0, 
        0, 
        0, 
        0, 
        0, 
        0, 
        0, 
        0, 
        0, 
        0, 
        0, 
        0, 
        0, 
        0, 
        0, 
        0, 
        0, 
        0, 
        0, 
        0, 
        0, 
        0, 
        0, 
        0, 
        0, 
        0, 
        0, 
        0, 
        0, 
        0, 
        0, 
        0, 
        0, 
        0, 
        0, 
        0, 
        0, 
        0, 
        0, 
        0, 
        0, 
        0, 
        0, 
        0, 
        0, 
        0, 
        0, 
        0, 
        0, 
        0, 
        0, 
        0, 
        0, 
        0, 
        0, 
        0, 
        0, 
        0, 
        0, 
        0, 
        0, 
        0, 
        0, 
        0, 
        0, 
        0, 
        0, 
        0, 
        0, 
        0, 
        0, 
        0, 
        0, 
        0, 
        0, 
        0, 
        0, 
        0, 
        0, 
        0, 
        0, 
        0, 
        0, 
        0, 
        0, 
        0, 
        0, 
        0, 
        0, 
        0, 
        0, 
        0, 
        0, 
        0, 
        0, 
        0, 
        0, 
        0, 
        0, 
        0, 
        0, 
        0, 
        0, 
        0, 
        0, 
        0, 
        0, 
        0, 
        0, 
        0, 
        0, 
        0, 
        0, 
        0, 
        0, 
        0, 
        0, 
        0, 
        0, 
        0, 
        0, 
        0, 
        0, 
        0, 
        0, 
        0, 
        0, 
        0, 
        0, 
        0, 
        0, 
        0, 
        0, 
        0, 
        0, 
        0, 
        0, 
        0, 
        0, 
        0, 
        0, 
        0, 
        0, 
        0, 
        0, 
        0, 
        0, 
        0, 
        0, 
        0, 
        0, 
        0, 
        0, 
        0, 
        0, 
        0, 
        0, 
        0, 
        0, 
        0, 
        0, 
        0, 
        0, 
        0, 
        0, 
        0, 
        0, 
        0, 
        0, 
        0, 
        0, 
        0, 
        0, 
        0, 
        0, 
        0, 
        0, 
        0, 
        0, 
        0, 
        0, 
        0, 
        0, 
        0, 
        0, 
        0, 
        0, 
        0, 
        0, 
        0, 
        0, 
        0, 
        0, 
        0, 
        0, 
        0, 
        0, 
        0, 
        0, 
        0, 
        0, 
        0, 
        0, 
        0, 
        0, 
        0, 
        0, 
        0]], 
    "dltype": ["list_str", [
        "float32", 
        "float32", 
        "float32", 
        "float32", 
        "float32", 
        "float32", 
        "float32", 
        "float32", 
        "float32", 
        "float32", 
        "float32", 
        "float32", 
        "float32", 
        "float32", 
        "float32", 
        "float32", 
        "float32", 
        "float32", 
        "float32", 
        "float32", 
        "float32", 
        "float32", 
        "float32", 
        "float32", 
        "float32", 
        "float32", 
        "float32", 
        "float32", 
        "float32", 
        "float32", 
        "float32", 
        "float32", 
        "float32", 
        "float32", 
        "float32", 
        "float32", 
        "float32", 
        "float32", 
        "float32", 
        "float32", 
        "float32", 
        "float32", 
        "float32", 
        "float32", 
        "float32", 
        "float32", 
        "float32", 
        "float32", 
        "float32", 
        "float32", 
        "float32", 
        "float32", 
        "float32", 
        "float32", 
        "float32", 
        "float32", 
        "float32", 
        "float32", 
        "float32", 
        "float32", 
        "float32", 
        "float32", 
        "float32", 
        "float32", 
        "float32", 
        "float32", 
        "float32", 
        "float32", 
        "float32", 
        "float32", 
        "float32", 
        "float32", 
        "float32", 
        "float32", 
        "float32", 
        "float32", 
        "float32", 
        "float32", 
        "float32", 
        "float32", 
        "float32", 
        "float32", 
        "float32", 
        "float32", 
        "float32", 
        "float32", 
        "float32", 
        "float32", 
        "float32", 
        "float32", 
        "float32", 
        "float32", 
        "float32", 
        "float32", 
        "float32", 
        "float32", 
        "float32", 
        "float32", 
        "float32", 
        "float32", 
        "float32", 
        "float32", 
        "float32", 
        "float32", 
        "float32", 
        "float32", 
        "float32", 
        "float32", 
        "float32", 
        "float32", 
        "float32", 
        "float32", 
        "float32", 
        "float32", 
        "float32", 
        "float32", 
        "float32", 
        "float32", 
        "float32", 
        "float32", 
        "float32", 
        "float32", 
        "float32", 
        "float32", 
        "float32", 
        "float32", 
        "float32", 
        "float32", 
        "float32", 
        "float32", 
        "float32", 
        "float32", 
        "float32", 
        "float32", 
        "float32", 
        "float32", 
        "float32", 
        "float32", 
        "float32", 
        "float32", 
        "float32", 
        "float32", 
        "float32", 
        "float32", 
        "float32", 
        "float32", 
        "float32", 
        "float32", 
        "float32", 
        "float32", 
        "float32", 
        "float32", 
        "float32", 
        "float32", 
        "float32", 
        "float32", 
        "float32", 
        "float32", 
        "float32", 
        "float32", 
        "float32", 
        "float32", 
        "float32", 
        "float32", 
        "float32", 
        "float32", 
        "float32", 
        "float32", 
        "float32", 
        "float32", 
        "float32", 
        "float32", 
        "float32", 
        "float32", 
        "float32", 
        "float32", 
        "float32", 
        "float32", 
        "float32", 
        "float32", 
        "float32", 
        "float32", 
        "float32", 
        "float32", 
        "float32", 
        "float32", 
        "float32", 
        "float32", 
        "float32", 
        "float32", 
        "float32", 
        "float32", 
        "float32", 
        "float32", 
        "float32", 
        "float32", 
        "float32", 
        "float32", 
        "float32", 
        "float32", 
        "float32", 
        "float32", 
        "float32", 
        "float32", 
        "float32", 
        "float32", 
        "float32", 
        "float32", 
        "float32", 
        "float32", 
        "float32", 
        "float32", 
        "float32", 
        "float32", 
        "float32", 
        "float32", 
        "float32", 
        "float32", 
        "float32", 
        "float32", 
        "float32", 
        "float32", 
        "float32", 
        "float32", 
        "float32", 
        "float32", 
        "float32", 
        "float32", 
        "float32", 
        "float32", 
        "float32", 
        "float32", 
        "float32"]]
  }
}