{
  "nodes": [
    {
      "op": "null", 
      "name": "0", 
      "inputs": []
    }, 
    {
      "op": "null", 
      "name": "1", 
      "inputs": []
    }, 
    {
      "op": "tvm_op", 
      "name": "conv2d0", 
      "attrs": {
        "flatten_data": "0", 
        "func_name": "fuse_conv2d", 
        "num_inputs": "2", 
        "num_outputs": "1"
      }, 
      "inputs": [[0, 0, 0], [1, 0, 0]]
    }, 
    {
      "op": "null", 
      "name": "5", 
      "inputs": []
    }, 
    {
      "op": "tvm_op", 
      "name": "batch_norm0_add_eps", 
      "attrs": {
        "flatten_data": "1", 
        "func_name": "fuse___add_scalar__", 
        "num_inputs": "1", 
        "num_outputs": "1"
      }, 
      "inputs": [[3, 0, 1]]
    }, 
    {
      "op": "tvm_op", 
      "name": "batch_norm0_sqrt", 
      "attrs": {
        "flatten_data": "1", 
        "func_name": "fuse_sqrt", 
        "num_inputs": "1", 
        "num_outputs": "1"
      }, 
      "inputs": [[4, 0, 0]]
    }, 
    {
      "op": "tvm_op", 
      "name": "batch_norm0_div", 
      "attrs": {
        "flatten_data": "1", 
        "func_name": "fuse___rdiv_scalar__", 
        "num_inputs": "1", 
        "num_outputs": "1"
      }, 
      "inputs": [[5, 0, 0]]
    }, 
    {
      "op": "null", 
      "name": "2", 
      "inputs": []
    }, 
    {
      "op": "tvm_op", 
      "name": "batch_norm0_gamma_mul_div", 
      "attrs": {
        "flatten_data": "1", 
        "func_name": "fuse_elemwise_mul", 
        "num_inputs": "2", 
        "num_outputs": "1"
      }, 
      "inputs": [[6, 0, 0], [7, 0, 0]]
    }, 
    {
      "op": "tvm_op", 
      "name": "batch_norm0_gamma_mul_div_expand", 
      "attrs": {
        "flatten_data": "0", 
        "func_name": "fuse_expand_dims", 
        "num_inputs": "1", 
        "num_outputs": "1"
      }, 
      "inputs": [[8, 0, 0]]
    }, 
    {
      "op": "tvm_op", 
      "name": "batch_norm0_a_mul_data", 
      "attrs": {
        "flatten_data": "0", 
        "func_name": "fuse_broadcast_mul", 
        "num_inputs": "2", 
        "num_outputs": "1"
      }, 
      "inputs": [[2, 0, 0], [9, 0, 0]]
    }, 
    {
      "op": "null", 
      "name": "4", 
      "inputs": []
    }, 
    {
      "op": "tvm_op", 
      "name": "batch_norm0_neg_mean", 
      "attrs": {
        "flatten_data": "1", 
        "func_name": "fuse_negative", 
        "num_inputs": "1", 
        "num_outputs": "1"
      }, 
      "inputs": [[11, 0, 1]]
    }, 
    {
      "op": "tvm_op", 
      "name": "batch_norm0_neg_mean_mul_a", 
      "attrs": {
        "flatten_data": "1", 
        "func_name": "fuse_elemwise_mul", 
        "num_inputs": "2", 
        "num_outputs": "1"
      }, 
      "inputs": [[12, 0, 0], [8, 0, 0]]
    }, 
    {
      "op": "null", 
      "name": "3", 
      "inputs": []
    }, 
    {
      "op": "tvm_op", 
      "name": "batch_norm0_add_beta", 
      "attrs": {
        "flatten_data": "1", 
        "func_name": "fuse_elemwise_add", 
        "num_inputs": "2", 
        "num_outputs": "1"
      }, 
      "inputs": [[13, 0, 0], [14, 0, 0]]
    }, 
    {
      "op": "tvm_op", 
      "name": "batch_norm0_add_beta_expand", 
      "attrs": {
        "flatten_data": "0", 
        "func_name": "fuse_expand_dims", 
        "num_inputs": "1", 
        "num_outputs": "1"
      }, 
      "inputs": [[15, 0, 0]]
    }, 
    {
      "op": "tvm_op", 
      "name": "batch_norm0_out", 
      "attrs": {
        "flatten_data": "0", 
        "func_name": "fuse_broadcast_add", 
        "num_inputs": "2", 
        "num_outputs": "1"
      }, 
      "inputs": [[10, 0, 0], [16, 0, 0]]
    }, 
    {
      "op": "tvm_op", 
      "name": "relu0", 
      "attrs": {
        "flatten_data": "1", 
        "func_name": "fuse_relu", 
        "num_inputs": "1", 
        "num_outputs": "1"
      }, 
      "inputs": [[17, 0, 0]]
    }, 
    {
      "op": "null", 
      "name": "7", 
      "inputs": []
    }, 
    {
      "op": "tvm_op", 
      "name": "conv2d1", 
      "attrs": {
        "flatten_data": "0", 
        "func_name": "fuse_conv2d_1", 
        "num_inputs": "2", 
        "num_outputs": "1"
      }, 
      "inputs": [[18, 0, 0], [19, 0, 0]]
    }, 
    {
      "op": "null", 
      "name": "11", 
      "inputs": []
    }, 
    {
      "op": "tvm_op", 
      "name": "batch_norm1_add_eps", 
      "attrs": {
        "flatten_data": "1", 
        "func_name": "fuse___add_scalar___1", 
        "num_inputs": "1", 
        "num_outputs": "1"
      }, 
      "inputs": [[21, 0, 1]]
    }, 
    {
      "op": "tvm_op", 
      "name": "batch_norm1_sqrt", 
      "attrs": {
        "flatten_data": "1", 
        "func_name": "fuse_sqrt_1", 
        "num_inputs": "1", 
        "num_outputs": "1"
      }, 
      "inputs": [[22, 0, 0]]
    }, 
    {
      "op": "tvm_op", 
      "name": "batch_norm1_div", 
      "attrs": {
        "flatten_data": "1", 
        "func_name": "fuse___rdiv_scalar___1", 
        "num_inputs": "1", 
        "num_outputs": "1"
      }, 
      "inputs": [[23, 0, 0]]
    }, 
    {
      "op": "null", 
      "name": "8", 
      "inputs": []
    }, 
    {
      "op": "tvm_op", 
      "name": "batch_norm1_gamma_mul_div", 
      "attrs": {
        "flatten_data": "1", 
        "func_name": "fuse_elemwise_mul_1", 
        "num_inputs": "2", 
        "num_outputs": "1"
      }, 
      "inputs": [[24, 0, 0], [25, 0, 0]]
    }, 
    {
      "op": "tvm_op", 
      "name": "batch_norm1_gamma_mul_div_expand", 
      "attrs": {
        "flatten_data": "0", 
        "func_name": "fuse_expand_dims_1", 
        "num_inputs": "1", 
        "num_outputs": "1"
      }, 
      "inputs": [[26, 0, 0]]
    }, 
    {
      "op": "tvm_op", 
      "name": "batch_norm1_a_mul_data", 
      "attrs": {
        "flatten_data": "0", 
        "func_name": "fuse_broadcast_mul_1", 
        "num_inputs": "2", 
        "num_outputs": "1"
      }, 
      "inputs": [[20, 0, 0], [27, 0, 0]]
    }, 
    {
      "op": "null", 
      "name": "10", 
      "inputs": []
    }, 
    {
      "op": "tvm_op", 
      "name": "batch_norm1_neg_mean", 
      "attrs": {
        "flatten_data": "1", 
        "func_name": "fuse_negative_1", 
        "num_inputs": "1", 
        "num_outputs": "1"
      }, 
      "inputs": [[29, 0, 1]]
    }, 
    {
      "op": "tvm_op", 
      "name": "batch_norm1_neg_mean_mul_a", 
      "attrs": {
        "flatten_data": "1", 
        "func_name": "fuse_elemwise_mul_1", 
        "num_inputs": "2", 
        "num_outputs": "1"
      }, 
      "inputs": [[30, 0, 0], [26, 0, 0]]
    }, 
    {
      "op": "null", 
      "name": "9", 
      "inputs": []
    }, 
    {
      "op": "tvm_op", 
      "name": "batch_norm1_add_beta", 
      "attrs": {
        "flatten_data": "1", 
        "func_name": "fuse_elemwise_add_1", 
        "num_inputs": "2", 
        "num_outputs": "1"
      }, 
      "inputs": [[31, 0, 0], [32, 0, 0]]
    }, 
    {
      "op": "tvm_op", 
      "name": "batch_norm1_add_beta_expand", 
      "attrs": {
        "flatten_data": "0", 
        "func_name": "fuse_expand_dims_1", 
        "num_inputs": "1", 
        "num_outputs": "1"
      }, 
      "inputs": [[33, 0, 0]]
    }, 
    {
      "op": "tvm_op", 
      "name": "batch_norm1_out", 
      "attrs": {
        "flatten_data": "0", 
        "func_name": "fuse_broadcast_add_1", 
        "num_inputs": "2", 
        "num_outputs": "1"
      }, 
      "inputs": [[28, 0, 0], [34, 0, 0]]
    }, 
    {
      "op": "tvm_op", 
      "name": "relu1", 
      "attrs": {
        "flatten_data": "1", 
        "func_name": "fuse_relu_1", 
        "num_inputs": "1", 
        "num_outputs": "1"
      }, 
      "inputs": [[35, 0, 0]]
    }, 
    {
      "op": "null", 
      "name": "13", 
      "inputs": []
    }, 
    {
      "op": "tvm_op", 
      "name": "conv2d2", 
      "attrs": {
        "flatten_data": "0", 
        "func_name": "fuse_conv2d_2", 
        "num_inputs": "2", 
        "num_outputs": "1"
      }, 
      "inputs": [[36, 0, 0], [37, 0, 0]]
    }, 
    {
      "op": "null", 
      "name": "14", 
      "inputs": []
    }, 
    {
      "op": "tvm_op", 
      "name": "conv2d3", 
      "attrs": {
        "flatten_data": "0", 
        "func_name": "fuse_conv2d_3", 
        "num_inputs": "2", 
        "num_outputs": "1"
      }, 
      "inputs": [[18, 0, 0], [39, 0, 0]]
    }, 
    {
      "op": "tvm_op", 
      "name": "elemwise_add0", 
      "attrs": {
        "flatten_data": "1", 
        "func_name": "fuse_elemwise_add_2", 
        "num_inputs": "2", 
        "num_outputs": "1"
      }, 
      "inputs": [[38, 0, 0], [40, 0, 0]]
    }, 
    {
      "op": "null", 
      "name": "18", 
      "inputs": []
    }, 
    {
      "op": "tvm_op", 
      "name": "batch_norm2_add_eps", 
      "attrs": {
        "flatten_data": "1", 
        "func_name": "fuse___add_scalar___1", 
        "num_inputs": "1", 
        "num_outputs": "1"
      }, 
      "inputs": [[42, 0, 1]]
    }, 
    {
      "op": "tvm_op", 
      "name": "batch_norm2_sqrt", 
      "attrs": {
        "flatten_data": "1", 
        "func_name": "fuse_sqrt_1", 
        "num_inputs": "1", 
        "num_outputs": "1"
      }, 
      "inputs": [[43, 0, 0]]
    }, 
    {
      "op": "tvm_op", 
      "name": "batch_norm2_div", 
      "attrs": {
        "flatten_data": "1", 
        "func_name": "fuse___rdiv_scalar___1", 
        "num_inputs": "1", 
        "num_outputs": "1"
      }, 
      "inputs": [[44, 0, 0]]
    }, 
    {
      "op": "null", 
      "name": "15", 
      "inputs": []
    }, 
    {
      "op": "tvm_op", 
      "name": "batch_norm2_gamma_mul_div", 
      "attrs": {
        "flatten_data": "1", 
        "func_name": "fuse_elemwise_mul_1", 
        "num_inputs": "2", 
        "num_outputs": "1"
      }, 
      "inputs": [[45, 0, 0], [46, 0, 0]]
    }, 
    {
      "op": "tvm_op", 
      "name": "batch_norm2_gamma_mul_div_expand", 
      "attrs": {
        "flatten_data": "0", 
        "func_name": "fuse_expand_dims_1", 
        "num_inputs": "1", 
        "num_outputs": "1"
      }, 
      "inputs": [[47, 0, 0]]
    }, 
    {
      "op": "tvm_op", 
      "name": "batch_norm2_a_mul_data", 
      "attrs": {
        "flatten_data": "0", 
        "func_name": "fuse_broadcast_mul_1", 
        "num_inputs": "2", 
        "num_outputs": "1"
      }, 
      "inputs": [[41, 0, 0], [48, 0, 0]]
    }, 
    {
      "op": "null", 
      "name": "17", 
      "inputs": []
    }, 
    {
      "op": "tvm_op", 
      "name": "batch_norm2_neg_mean", 
      "attrs": {
        "flatten_data": "1", 
        "func_name": "fuse_negative_1", 
        "num_inputs": "1", 
        "num_outputs": "1"
      }, 
      "inputs": [[50, 0, 1]]
    }, 
    {
      "op": "tvm_op", 
      "name": "batch_norm2_neg_mean_mul_a", 
      "attrs": {
        "flatten_data": "1", 
        "func_name": "fuse_elemwise_mul_1", 
        "num_inputs": "2", 
        "num_outputs": "1"
      }, 
      "inputs": [[51, 0, 0], [47, 0, 0]]
    }, 
    {
      "op": "null", 
      "name": "16", 
      "inputs": []
    }, 
    {
      "op": "tvm_op", 
      "name": "batch_norm2_add_beta", 
      "attrs": {
        "flatten_data": "1", 
        "func_name": "fuse_elemwise_add_1", 
        "num_inputs": "2", 
        "num_outputs": "1"
      }, 
      "inputs": [[52, 0, 0], [53, 0, 0]]
    }, 
    {
      "op": "tvm_op", 
      "name": "batch_norm2_add_beta_expand", 
      "attrs": {
        "flatten_data": "0", 
        "func_name": "fuse_expand_dims_1", 
        "num_inputs": "1", 
        "num_outputs": "1"
      }, 
      "inputs": [[54, 0, 0]]
    }, 
    {
      "op": "tvm_op", 
      "name": "batch_norm2_out", 
      "attrs": {
        "flatten_data": "0", 
        "func_name": "fuse_broadcast_add_1", 
        "num_inputs": "2", 
        "num_outputs": "1"
      }, 
      "inputs": [[49, 0, 0], [55, 0, 0]]
    }, 
    {
      "op": "tvm_op", 
      "name": "relu2", 
      "attrs": {
        "flatten_data": "1", 
        "func_name": "fuse_relu_1", 
        "num_inputs": "1", 
        "num_outputs": "1"
      }, 
      "inputs": [[56, 0, 0]]
    }, 
    {
      "op": "null", 
      "name": "20", 
      "inputs": []
    }, 
    {
      "op": "tvm_op", 
      "name": "conv2d4", 
      "attrs": {
        "flatten_data": "0", 
        "func_name": "fuse_conv2d_2", 
        "num_inputs": "2", 
        "num_outputs": "1"
      }, 
      "inputs": [[57, 0, 0], [58, 0, 0]]
    }, 
    {
      "op": "null", 
      "name": "24", 
      "inputs": []
    }, 
    {
      "op": "tvm_op", 
      "name": "batch_norm3_add_eps", 
      "attrs": {
        "flatten_data": "1", 
        "func_name": "fuse___add_scalar___1", 
        "num_inputs": "1", 
        "num_outputs": "1"
      }, 
      "inputs": [[60, 0, 1]]
    }, 
    {
      "op": "tvm_op", 
      "name": "batch_norm3_sqrt", 
      "attrs": {
        "flatten_data": "1", 
        "func_name": "fuse_sqrt_1", 
        "num_inputs": "1", 
        "num_outputs": "1"
      }, 
      "inputs": [[61, 0, 0]]
    }, 
    {
      "op": "tvm_op", 
      "name": "batch_norm3_div", 
      "attrs": {
        "flatten_data": "1", 
        "func_name": "fuse___rdiv_scalar___1", 
        "num_inputs": "1", 
        "num_outputs": "1"
      }, 
      "inputs": [[62, 0, 0]]
    }, 
    {
      "op": "null", 
      "name": "21", 
      "inputs": []
    }, 
    {
      "op": "tvm_op", 
      "name": "batch_norm3_gamma_mul_div", 
      "attrs": {
        "flatten_data": "1", 
        "func_name": "fuse_elemwise_mul_1", 
        "num_inputs": "2", 
        "num_outputs": "1"
      }, 
      "inputs": [[63, 0, 0], [64, 0, 0]]
    }, 
    {
      "op": "tvm_op", 
      "name": "batch_norm3_gamma_mul_div_expand", 
      "attrs": {
        "flatten_data": "0", 
        "func_name": "fuse_expand_dims_1", 
        "num_inputs": "1", 
        "num_outputs": "1"
      }, 
      "inputs": [[65, 0, 0]]
    }, 
    {
      "op": "tvm_op", 
      "name": "batch_norm3_a_mul_data", 
      "attrs": {
        "flatten_data": "0", 
        "func_name": "fuse_broadcast_mul_1", 
        "num_inputs": "2", 
        "num_outputs": "1"
      }, 
      "inputs": [[59, 0, 0], [66, 0, 0]]
    }, 
    {
      "op": "null", 
      "name": "23", 
      "inputs": []
    }, 
    {
      "op": "tvm_op", 
      "name": "batch_norm3_neg_mean", 
      "attrs": {
        "flatten_data": "1", 
        "func_name": "fuse_negative_1", 
        "num_inputs": "1", 
        "num_outputs": "1"
      }, 
      "inputs": [[68, 0, 1]]
    }, 
    {
      "op": "tvm_op", 
      "name": "batch_norm3_neg_mean_mul_a", 
      "attrs": {
        "flatten_data": "1", 
        "func_name": "fuse_elemwise_mul_1", 
        "num_inputs": "2", 
        "num_outputs": "1"
      }, 
      "inputs": [[69, 0, 0], [65, 0, 0]]
    }, 
    {
      "op": "null", 
      "name": "22", 
      "inputs": []
    }, 
    {
      "op": "tvm_op", 
      "name": "batch_norm3_add_beta", 
      "attrs": {
        "flatten_data": "1", 
        "func_name": "fuse_elemwise_add_1", 
        "num_inputs": "2", 
        "num_outputs": "1"
      }, 
      "inputs": [[70, 0, 0], [71, 0, 0]]
    }, 
    {
      "op": "tvm_op", 
      "name": "batch_norm3_add_beta_expand", 
      "attrs": {
        "flatten_data": "0", 
        "func_name": "fuse_expand_dims_1", 
        "num_inputs": "1", 
        "num_outputs": "1"
      }, 
      "inputs": [[72, 0, 0]]
    }, 
    {
      "op": "tvm_op", 
      "name": "batch_norm3_out", 
      "attrs": {
        "flatten_data": "0", 
        "func_name": "fuse_broadcast_add_1", 
        "num_inputs": "2", 
        "num_outputs": "1"
      }, 
      "inputs": [[67, 0, 0], [73, 0, 0]]
    }, 
    {
      "op": "tvm_op", 
      "name": "relu3", 
      "attrs": {
        "flatten_data": "1", 
        "func_name": "fuse_relu_1", 
        "num_inputs": "1", 
        "num_outputs": "1"
      }, 
      "inputs": [[74, 0, 0]]
    }, 
    {
      "op": "null", 
      "name": "26", 
      "inputs": []
    }, 
    {
      "op": "tvm_op", 
      "name": "conv2d5", 
      "attrs": {
        "flatten_data": "0", 
        "func_name": "fuse_conv2d_2", 
        "num_inputs": "2", 
        "num_outputs": "1"
      }, 
      "inputs": [[75, 0, 0], [76, 0, 0]]
    }, 
    {
      "op": "tvm_op", 
      "name": "elemwise_add1", 
      "attrs": {
        "flatten_data": "1", 
        "func_name": "fuse_elemwise_add_2", 
        "num_inputs": "2", 
        "num_outputs": "1"
      }, 
      "inputs": [[77, 0, 0], [41, 0, 0]]
    }, 
    {
      "op": "null", 
      "name": "30", 
      "inputs": []
    }, 
    {
      "op": "tvm_op", 
      "name": "batch_norm4_add_eps", 
      "attrs": {
        "flatten_data": "1", 
        "func_name": "fuse___add_scalar___1", 
        "num_inputs": "1", 
        "num_outputs": "1"
      }, 
      "inputs": [[79, 0, 1]]
    }, 
    {
      "op": "tvm_op", 
      "name": "batch_norm4_sqrt", 
      "attrs": {
        "flatten_data": "1", 
        "func_name": "fuse_sqrt_1", 
        "num_inputs": "1", 
        "num_outputs": "1"
      }, 
      "inputs": [[80, 0, 0]]
    }, 
    {
      "op": "tvm_op", 
      "name": "batch_norm4_div", 
      "attrs": {
        "flatten_data": "1", 
        "func_name": "fuse___rdiv_scalar___1", 
        "num_inputs": "1", 
        "num_outputs": "1"
      }, 
      "inputs": [[81, 0, 0]]
    }, 
    {
      "op": "null", 
      "name": "27", 
      "inputs": []
    }, 
    {
      "op": "tvm_op", 
      "name": "batch_norm4_gamma_mul_div", 
      "attrs": {
        "flatten_data": "1", 
        "func_name": "fuse_elemwise_mul_1", 
        "num_inputs": "2", 
        "num_outputs": "1"
      }, 
      "inputs": [[82, 0, 0], [83, 0, 0]]
    }, 
    {
      "op": "tvm_op", 
      "name": "batch_norm4_gamma_mul_div_expand", 
      "attrs": {
        "flatten_data": "0", 
        "func_name": "fuse_expand_dims_1", 
        "num_inputs": "1", 
        "num_outputs": "1"
      }, 
      "inputs": [[84, 0, 0]]
    }, 
    {
      "op": "tvm_op", 
      "name": "batch_norm4_a_mul_data", 
      "attrs": {
        "flatten_data": "0", 
        "func_name": "fuse_broadcast_mul_1", 
        "num_inputs": "2", 
        "num_outputs": "1"
      }, 
      "inputs": [[78, 0, 0], [85, 0, 0]]
    }, 
    {
      "op": "null", 
      "name": "29", 
      "inputs": []
    }, 
    {
      "op": "tvm_op", 
      "name": "batch_norm4_neg_mean", 
      "attrs": {
        "flatten_data": "1", 
        "func_name": "fuse_negative_1", 
        "num_inputs": "1", 
        "num_outputs": "1"
      }, 
      "inputs": [[87, 0, 1]]
    }, 
    {
      "op": "tvm_op", 
      "name": "batch_norm4_neg_mean_mul_a", 
      "attrs": {
        "flatten_data": "1", 
        "func_name": "fuse_elemwise_mul_1", 
        "num_inputs": "2", 
        "num_outputs": "1"
      }, 
      "inputs": [[88, 0, 0], [84, 0, 0]]
    }, 
    {
      "op": "null", 
      "name": "28", 
      "inputs": []
    }, 
    {
      "op": "tvm_op", 
      "name": "batch_norm4_add_beta", 
      "attrs": {
        "flatten_data": "1", 
        "func_name": "fuse_elemwise_add_1", 
        "num_inputs": "2", 
        "num_outputs": "1"
      }, 
      "inputs": [[89, 0, 0], [90, 0, 0]]
    }, 
    {
      "op": "tvm_op", 
      "name": "batch_norm4_add_beta_expand", 
      "attrs": {
        "flatten_data": "0", 
        "func_name": "fuse_expand_dims_1", 
        "num_inputs": "1", 
        "num_outputs": "1"
      }, 
      "inputs": [[91, 0, 0]]
    }, 
    {
      "op": "tvm_op", 
      "name": "batch_norm4_out", 
      "attrs": {
        "flatten_data": "0", 
        "func_name": "fuse_broadcast_add_1", 
        "num_inputs": "2", 
        "num_outputs": "1"
      }, 
      "inputs": [[86, 0, 0], [92, 0, 0]]
    }, 
    {
      "op": "tvm_op", 
      "name": "relu4", 
      "attrs": {
        "flatten_data": "1", 
        "func_name": "fuse_relu_1", 
        "num_inputs": "1", 
        "num_outputs": "1"
      }, 
      "inputs": [[93, 0, 0]]
    }, 
    {
      "op": "null", 
      "name": "32", 
      "inputs": []
    }, 
    {
      "op": "tvm_op", 
      "name": "conv2d6", 
      "attrs": {
        "flatten_data": "0", 
        "func_name": "fuse_conv2d_2", 
        "num_inputs": "2", 
        "num_outputs": "1"
      }, 
      "inputs": [[94, 0, 0], [95, 0, 0]]
    }, 
    {
      "op": "null", 
      "name": "36", 
      "inputs": []
    }, 
    {
      "op": "tvm_op", 
      "name": "batch_norm5_add_eps", 
      "attrs": {
        "flatten_data": "1", 
        "func_name": "fuse___add_scalar___1", 
        "num_inputs": "1", 
        "num_outputs": "1"
      }, 
      "inputs": [[97, 0, 1]]
    }, 
    {
      "op": "tvm_op", 
      "name": "batch_norm5_sqrt", 
      "attrs": {
        "flatten_data": "1", 
        "func_name": "fuse_sqrt_1", 
        "num_inputs": "1", 
        "num_outputs": "1"
      }, 
      "inputs": [[98, 0, 0]]
    }, 
    {
      "op": "tvm_op", 
      "name": "batch_norm5_div", 
      "attrs": {
        "flatten_data": "1", 
        "func_name": "fuse___rdiv_scalar___1", 
        "num_inputs": "1", 
        "num_outputs": "1"
      }, 
      "inputs": [[99, 0, 0]]
    }, 
    {
      "op": "null", 
      "name": "33", 
      "inputs": []
    }, 
    {
      "op": "tvm_op", 
      "name": "batch_norm5_gamma_mul_div", 
      "attrs": {
        "flatten_data": "1", 
        "func_name": "fuse_elemwise_mul_1", 
        "num_inputs": "2", 
        "num_outputs": "1"
      }, 
      "inputs": [[100, 0, 0], [101, 0, 0]]
    }, 
    {
      "op": "tvm_op", 
      "name": "batch_norm5_gamma_mul_div_expand", 
      "attrs": {
        "flatten_data": "0", 
        "func_name": "fuse_expand_dims_1", 
        "num_inputs": "1", 
        "num_outputs": "1"
      }, 
      "inputs": [[102, 0, 0]]
    }, 
    {
      "op": "tvm_op", 
      "name": "batch_norm5_a_mul_data", 
      "attrs": {
        "flatten_data": "0", 
        "func_name": "fuse_broadcast_mul_1", 
        "num_inputs": "2", 
        "num_outputs": "1"
      }, 
      "inputs": [[96, 0, 0], [103, 0, 0]]
    }, 
    {
      "op": "null", 
      "name": "35", 
      "inputs": []
    }, 
    {
      "op": "tvm_op", 
      "name": "batch_norm5_neg_mean", 
      "attrs": {
        "flatten_data": "1", 
        "func_name": "fuse_negative_1", 
        "num_inputs": "1", 
        "num_outputs": "1"
      }, 
      "inputs": [[105, 0, 1]]
    }, 
    {
      "op": "tvm_op", 
      "name": "batch_norm5_neg_mean_mul_a", 
      "attrs": {
        "flatten_data": "1", 
        "func_name": "fuse_elemwise_mul_1", 
        "num_inputs": "2", 
        "num_outputs": "1"
      }, 
      "inputs": [[106, 0, 0], [102, 0, 0]]
    }, 
    {
      "op": "null", 
      "name": "34", 
      "inputs": []
    }, 
    {
      "op": "tvm_op", 
      "name": "batch_norm5_add_beta", 
      "attrs": {
        "flatten_data": "1", 
        "func_name": "fuse_elemwise_add_1", 
        "num_inputs": "2", 
        "num_outputs": "1"
      }, 
      "inputs": [[107, 0, 0], [108, 0, 0]]
    }, 
    {
      "op": "tvm_op", 
      "name": "batch_norm5_add_beta_expand", 
      "attrs": {
        "flatten_data": "0", 
        "func_name": "fuse_expand_dims_1", 
        "num_inputs": "1", 
        "num_outputs": "1"
      }, 
      "inputs": [[109, 0, 0]]
    }, 
    {
      "op": "tvm_op", 
      "name": "batch_norm5_out", 
      "attrs": {
        "flatten_data": "0", 
        "func_name": "fuse_broadcast_add_1", 
        "num_inputs": "2", 
        "num_outputs": "1"
      }, 
      "inputs": [[104, 0, 0], [110, 0, 0]]
    }, 
    {
      "op": "tvm_op", 
      "name": "relu5", 
      "attrs": {
        "flatten_data": "1", 
        "func_name": "fuse_relu_1", 
        "num_inputs": "1", 
        "num_outputs": "1"
      }, 
      "inputs": [[111, 0, 0]]
    }, 
    {
      "op": "null", 
      "name": "38", 
      "inputs": []
    }, 
    {
      "op": "tvm_op", 
      "name": "conv2d7", 
      "attrs": {
        "flatten_data": "0", 
        "func_name": "fuse_conv2d_2", 
        "num_inputs": "2", 
        "num_outputs": "1"
      }, 
      "inputs": [[112, 0, 0], [113, 0, 0]]
    }, 
    {
      "op": "tvm_op", 
      "name": "elemwise_add2", 
      "attrs": {
        "flatten_data": "1", 
        "func_name": "fuse_elemwise_add_2", 
        "num_inputs": "2", 
        "num_outputs": "1"
      }, 
      "inputs": [[114, 0, 0], [78, 0, 0]]
    }, 
    {
      "op": "null", 
      "name": "42", 
      "inputs": []
    }, 
    {
      "op": "tvm_op", 
      "name": "batch_norm6_add_eps", 
      "attrs": {
        "flatten_data": "1", 
        "func_name": "fuse___add_scalar___1", 
        "num_inputs": "1", 
        "num_outputs": "1"
      }, 
      "inputs": [[116, 0, 1]]
    }, 
    {
      "op": "tvm_op", 
      "name": "batch_norm6_sqrt", 
      "attrs": {
        "flatten_data": "1", 
        "func_name": "fuse_sqrt_1", 
        "num_inputs": "1", 
        "num_outputs": "1"
      }, 
      "inputs": [[117, 0, 0]]
    }, 
    {
      "op": "tvm_op", 
      "name": "batch_norm6_div", 
      "attrs": {
        "flatten_data": "1", 
        "func_name": "fuse___rdiv_scalar___1", 
        "num_inputs": "1", 
        "num_outputs": "1"
      }, 
      "inputs": [[118, 0, 0]]
    }, 
    {
      "op": "null", 
      "name": "39", 
      "inputs": []
    }, 
    {
      "op": "tvm_op", 
      "name": "batch_norm6_gamma_mul_div", 
      "attrs": {
        "flatten_data": "1", 
        "func_name": "fuse_elemwise_mul_1", 
        "num_inputs": "2", 
        "num_outputs": "1"
      }, 
      "inputs": [[119, 0, 0], [120, 0, 0]]
    }, 
    {
      "op": "tvm_op", 
      "name": "batch_norm6_gamma_mul_div_expand", 
      "attrs": {
        "flatten_data": "0", 
        "func_name": "fuse_expand_dims_1", 
        "num_inputs": "1", 
        "num_outputs": "1"
      }, 
      "inputs": [[121, 0, 0]]
    }, 
    {
      "op": "tvm_op", 
      "name": "batch_norm6_a_mul_data", 
      "attrs": {
        "flatten_data": "0", 
        "func_name": "fuse_broadcast_mul_1", 
        "num_inputs": "2", 
        "num_outputs": "1"
      }, 
      "inputs": [[115, 0, 0], [122, 0, 0]]
    }, 
    {
      "op": "null", 
      "name": "41", 
      "inputs": []
    }, 
    {
      "op": "tvm_op", 
      "name": "batch_norm6_neg_mean", 
      "attrs": {
        "flatten_data": "1", 
        "func_name": "fuse_negative_1", 
        "num_inputs": "1", 
        "num_outputs": "1"
      }, 
      "inputs": [[124, 0, 1]]
    }, 
    {
      "op": "tvm_op", 
      "name": "batch_norm6_neg_mean_mul_a", 
      "attrs": {
        "flatten_data": "1", 
        "func_name": "fuse_elemwise_mul_1", 
        "num_inputs": "2", 
        "num_outputs": "1"
      }, 
      "inputs": [[125, 0, 0], [121, 0, 0]]
    }, 
    {
      "op": "null", 
      "name": "40", 
      "inputs": []
    }, 
    {
      "op": "tvm_op", 
      "name": "batch_norm6_add_beta", 
      "attrs": {
        "flatten_data": "1", 
        "func_name": "fuse_elemwise_add_1", 
        "num_inputs": "2", 
        "num_outputs": "1"
      }, 
      "inputs": [[126, 0, 0], [127, 0, 0]]
    }, 
    {
      "op": "tvm_op", 
      "name": "batch_norm6_add_beta_expand", 
      "attrs": {
        "flatten_data": "0", 
        "func_name": "fuse_expand_dims_1", 
        "num_inputs": "1", 
        "num_outputs": "1"
      }, 
      "inputs": [[128, 0, 0]]
    }, 
    {
      "op": "tvm_op", 
      "name": "batch_norm6_out", 
      "attrs": {
        "flatten_data": "0", 
        "func_name": "fuse_broadcast_add_1", 
        "num_inputs": "2", 
        "num_outputs": "1"
      }, 
      "inputs": [[123, 0, 0], [129, 0, 0]]
    }, 
    {
      "op": "tvm_op", 
      "name": "relu6", 
      "attrs": {
        "flatten_data": "1", 
        "func_name": "fuse_relu_1", 
        "num_inputs": "1", 
        "num_outputs": "1"
      }, 
      "inputs": [[130, 0, 0]]
    }, 
    {
      "op": "null", 
      "name": "44", 
      "inputs": []
    }, 
    {
      "op": "tvm_op", 
      "name": "conv2d8", 
      "attrs": {
        "flatten_data": "0", 
        "func_name": "fuse_conv2d_2", 
        "num_inputs": "2", 
        "num_outputs": "1"
      }, 
      "inputs": [[131, 0, 0], [132, 0, 0]]
    }, 
    {
      "op": "null", 
      "name": "48", 
      "inputs": []
    }, 
    {
      "op": "tvm_op", 
      "name": "batch_norm7_add_eps", 
      "attrs": {
        "flatten_data": "1", 
        "func_name": "fuse___add_scalar___1", 
        "num_inputs": "1", 
        "num_outputs": "1"
      }, 
      "inputs": [[134, 0, 1]]
    }, 
    {
      "op": "tvm_op", 
      "name": "batch_norm7_sqrt", 
      "attrs": {
        "flatten_data": "1", 
        "func_name": "fuse_sqrt_1", 
        "num_inputs": "1", 
        "num_outputs": "1"
      }, 
      "inputs": [[135, 0, 0]]
    }, 
    {
      "op": "tvm_op", 
      "name": "batch_norm7_div", 
      "attrs": {
        "flatten_data": "1", 
        "func_name": "fuse___rdiv_scalar___1", 
        "num_inputs": "1", 
        "num_outputs": "1"
      }, 
      "inputs": [[136, 0, 0]]
    }, 
    {
      "op": "null", 
      "name": "45", 
      "inputs": []
    }, 
    {
      "op": "tvm_op", 
      "name": "batch_norm7_gamma_mul_div", 
      "attrs": {
        "flatten_data": "1", 
        "func_name": "fuse_elemwise_mul_1", 
        "num_inputs": "2", 
        "num_outputs": "1"
      }, 
      "inputs": [[137, 0, 0], [138, 0, 0]]
    }, 
    {
      "op": "tvm_op", 
      "name": "batch_norm7_gamma_mul_div_expand", 
      "attrs": {
        "flatten_data": "0", 
        "func_name": "fuse_expand_dims_1", 
        "num_inputs": "1", 
        "num_outputs": "1"
      }, 
      "inputs": [[139, 0, 0]]
    }, 
    {
      "op": "tvm_op", 
      "name": "batch_norm7_a_mul_data", 
      "attrs": {
        "flatten_data": "0", 
        "func_name": "fuse_broadcast_mul_1", 
        "num_inputs": "2", 
        "num_outputs": "1"
      }, 
      "inputs": [[133, 0, 0], [140, 0, 0]]
    }, 
    {
      "op": "null", 
      "name": "47", 
      "inputs": []
    }, 
    {
      "op": "tvm_op", 
      "name": "batch_norm7_neg_mean", 
      "attrs": {
        "flatten_data": "1", 
        "func_name": "fuse_negative_1", 
        "num_inputs": "1", 
        "num_outputs": "1"
      }, 
      "inputs": [[142, 0, 1]]
    }, 
    {
      "op": "tvm_op", 
      "name": "batch_norm7_neg_mean_mul_a", 
      "attrs": {
        "flatten_data": "1", 
        "func_name": "fuse_elemwise_mul_1", 
        "num_inputs": "2", 
        "num_outputs": "1"
      }, 
      "inputs": [[143, 0, 0], [139, 0, 0]]
    }, 
    {
      "op": "null", 
      "name": "46", 
      "inputs": []
    }, 
    {
      "op": "tvm_op", 
      "name": "batch_norm7_add_beta", 
      "attrs": {
        "flatten_data": "1", 
        "func_name": "fuse_elemwise_add_1", 
        "num_inputs": "2", 
        "num_outputs": "1"
      }, 
      "inputs": [[144, 0, 0], [145, 0, 0]]
    }, 
    {
      "op": "tvm_op", 
      "name": "batch_norm7_add_beta_expand", 
      "attrs": {
        "flatten_data": "0", 
        "func_name": "fuse_expand_dims_1", 
        "num_inputs": "1", 
        "num_outputs": "1"
      }, 
      "inputs": [[146, 0, 0]]
    }, 
    {
      "op": "tvm_op", 
      "name": "batch_norm7_out", 
      "attrs": {
        "flatten_data": "0", 
        "func_name": "fuse_broadcast_add_1", 
        "num_inputs": "2", 
        "num_outputs": "1"
      }, 
      "inputs": [[141, 0, 0], [147, 0, 0]]
    }, 
    {
      "op": "tvm_op", 
      "name": "relu7", 
      "attrs": {
        "flatten_data": "1", 
        "func_name": "fuse_relu_1", 
        "num_inputs": "1", 
        "num_outputs": "1"
      }, 
      "inputs": [[148, 0, 0]]
    }, 
    {
      "op": "null", 
      "name": "50", 
      "inputs": []
    }, 
    {
      "op": "tvm_op", 
      "name": "conv2d9", 
      "attrs": {
        "flatten_data": "0", 
        "func_name": "fuse_conv2d_2", 
        "num_inputs": "2", 
        "num_outputs": "1"
      }, 
      "inputs": [[149, 0, 0], [150, 0, 0]]
    }, 
    {
      "op": "tvm_op", 
      "name": "elemwise_add3", 
      "attrs": {
        "flatten_data": "1", 
        "func_name": "fuse_elemwise_add_2", 
        "num_inputs": "2", 
        "num_outputs": "1"
      }, 
      "inputs": [[151, 0, 0], [115, 0, 0]]
    }, 
    {
      "op": "null", 
      "name": "54", 
      "inputs": []
    }, 
    {
      "op": "tvm_op", 
      "name": "batch_norm8_add_eps", 
      "attrs": {
        "flatten_data": "1", 
        "func_name": "fuse___add_scalar___1", 
        "num_inputs": "1", 
        "num_outputs": "1"
      }, 
      "inputs": [[153, 0, 1]]
    }, 
    {
      "op": "tvm_op", 
      "name": "batch_norm8_sqrt", 
      "attrs": {
        "flatten_data": "1", 
        "func_name": "fuse_sqrt_1", 
        "num_inputs": "1", 
        "num_outputs": "1"
      }, 
      "inputs": [[154, 0, 0]]
    }, 
    {
      "op": "tvm_op", 
      "name": "batch_norm8_div", 
      "attrs": {
        "flatten_data": "1", 
        "func_name": "fuse___rdiv_scalar___1", 
        "num_inputs": "1", 
        "num_outputs": "1"
      }, 
      "inputs": [[155, 0, 0]]
    }, 
    {
      "op": "null", 
      "name": "51", 
      "inputs": []
    }, 
    {
      "op": "tvm_op", 
      "name": "batch_norm8_gamma_mul_div", 
      "attrs": {
        "flatten_data": "1", 
        "func_name": "fuse_elemwise_mul_1", 
        "num_inputs": "2", 
        "num_outputs": "1"
      }, 
      "inputs": [[156, 0, 0], [157, 0, 0]]
    }, 
    {
      "op": "tvm_op", 
      "name": "batch_norm8_gamma_mul_div_expand", 
      "attrs": {
        "flatten_data": "0", 
        "func_name": "fuse_expand_dims_1", 
        "num_inputs": "1", 
        "num_outputs": "1"
      }, 
      "inputs": [[158, 0, 0]]
    }, 
    {
      "op": "tvm_op", 
      "name": "batch_norm8_a_mul_data", 
      "attrs": {
        "flatten_data": "0", 
        "func_name": "fuse_broadcast_mul_1", 
        "num_inputs": "2", 
        "num_outputs": "1"
      }, 
      "inputs": [[152, 0, 0], [159, 0, 0]]
    }, 
    {
      "op": "null", 
      "name": "53", 
      "inputs": []
    }, 
    {
      "op": "tvm_op", 
      "name": "batch_norm8_neg_mean", 
      "attrs": {
        "flatten_data": "1", 
        "func_name": "fuse_negative_1", 
        "num_inputs": "1", 
        "num_outputs": "1"
      }, 
      "inputs": [[161, 0, 1]]
    }, 
    {
      "op": "tvm_op", 
      "name": "batch_norm8_neg_mean_mul_a", 
      "attrs": {
        "flatten_data": "1", 
        "func_name": "fuse_elemwise_mul_1", 
        "num_inputs": "2", 
        "num_outputs": "1"
      }, 
      "inputs": [[162, 0, 0], [158, 0, 0]]
    }, 
    {
      "op": "null", 
      "name": "52", 
      "inputs": []
    }, 
    {
      "op": "tvm_op", 
      "name": "batch_norm8_add_beta", 
      "attrs": {
        "flatten_data": "1", 
        "func_name": "fuse_elemwise_add_1", 
        "num_inputs": "2", 
        "num_outputs": "1"
      }, 
      "inputs": [[163, 0, 0], [164, 0, 0]]
    }, 
    {
      "op": "tvm_op", 
      "name": "batch_norm8_add_beta_expand", 
      "attrs": {
        "flatten_data": "0", 
        "func_name": "fuse_expand_dims_1", 
        "num_inputs": "1", 
        "num_outputs": "1"
      }, 
      "inputs": [[165, 0, 0]]
    }, 
    {
      "op": "tvm_op", 
      "name": "batch_norm8_out", 
      "attrs": {
        "flatten_data": "0", 
        "func_name": "fuse_broadcast_add_1", 
        "num_inputs": "2", 
        "num_outputs": "1"
      }, 
      "inputs": [[160, 0, 0], [166, 0, 0]]
    }, 
    {
      "op": "tvm_op", 
      "name": "relu8", 
      "attrs": {
        "flatten_data": "1", 
        "func_name": "fuse_relu_1", 
        "num_inputs": "1", 
        "num_outputs": "1"
      }, 
      "inputs": [[167, 0, 0]]
    }, 
    {
      "op": "null", 
      "name": "56", 
      "inputs": []
    }, 
    {
      "op": "tvm_op", 
      "name": "conv2d10", 
      "attrs": {
        "flatten_data": "0", 
        "func_name": "fuse_conv2d_2", 
        "num_inputs": "2", 
        "num_outputs": "1"
      }, 
      "inputs": [[168, 0, 0], [169, 0, 0]]
    }, 
    {
      "op": "null", 
      "name": "60", 
      "inputs": []
    }, 
    {
      "op": "tvm_op", 
      "name": "batch_norm9_add_eps", 
      "attrs": {
        "flatten_data": "1", 
        "func_name": "fuse___add_scalar___1", 
        "num_inputs": "1", 
        "num_outputs": "1"
      }, 
      "inputs": [[171, 0, 1]]
    }, 
    {
      "op": "tvm_op", 
      "name": "batch_norm9_sqrt", 
      "attrs": {
        "flatten_data": "1", 
        "func_name": "fuse_sqrt_1", 
        "num_inputs": "1", 
        "num_outputs": "1"
      }, 
      "inputs": [[172, 0, 0]]
    }, 
    {
      "op": "tvm_op", 
      "name": "batch_norm9_div", 
      "attrs": {
        "flatten_data": "1", 
        "func_name": "fuse___rdiv_scalar___1", 
        "num_inputs": "1", 
        "num_outputs": "1"
      }, 
      "inputs": [[173, 0, 0]]
    }, 
    {
      "op": "null", 
      "name": "57", 
      "inputs": []
    }, 
    {
      "op": "tvm_op", 
      "name": "batch_norm9_gamma_mul_div", 
      "attrs": {
        "flatten_data": "1", 
        "func_name": "fuse_elemwise_mul_1", 
        "num_inputs": "2", 
        "num_outputs": "1"
      }, 
      "inputs": [[174, 0, 0], [175, 0, 0]]
    }, 
    {
      "op": "tvm_op", 
      "name": "batch_norm9_gamma_mul_div_expand", 
      "attrs": {
        "flatten_data": "0", 
        "func_name": "fuse_expand_dims_1", 
        "num_inputs": "1", 
        "num_outputs": "1"
      }, 
      "inputs": [[176, 0, 0]]
    }, 
    {
      "op": "tvm_op", 
      "name": "batch_norm9_a_mul_data", 
      "attrs": {
        "flatten_data": "0", 
        "func_name": "fuse_broadcast_mul_1", 
        "num_inputs": "2", 
        "num_outputs": "1"
      }, 
      "inputs": [[170, 0, 0], [177, 0, 0]]
    }, 
    {
      "op": "null", 
      "name": "59", 
      "inputs": []
    }, 
    {
      "op": "tvm_op", 
      "name": "batch_norm9_neg_mean", 
      "attrs": {
        "flatten_data": "1", 
        "func_name": "fuse_negative_1", 
        "num_inputs": "1", 
        "num_outputs": "1"
      }, 
      "inputs": [[179, 0, 1]]
    }, 
    {
      "op": "tvm_op", 
      "name": "batch_norm9_neg_mean_mul_a", 
      "attrs": {
        "flatten_data": "1", 
        "func_name": "fuse_elemwise_mul_1", 
        "num_inputs": "2", 
        "num_outputs": "1"
      }, 
      "inputs": [[180, 0, 0], [176, 0, 0]]
    }, 
    {
      "op": "null", 
      "name": "58", 
      "inputs": []
    }, 
    {
      "op": "tvm_op", 
      "name": "batch_norm9_add_beta", 
      "attrs": {
        "flatten_data": "1", 
        "func_name": "fuse_elemwise_add_1", 
        "num_inputs": "2", 
        "num_outputs": "1"
      }, 
      "inputs": [[181, 0, 0], [182, 0, 0]]
    }, 
    {
      "op": "tvm_op", 
      "name": "batch_norm9_add_beta_expand", 
      "attrs": {
        "flatten_data": "0", 
        "func_name": "fuse_expand_dims_1", 
        "num_inputs": "1", 
        "num_outputs": "1"
      }, 
      "inputs": [[183, 0, 0]]
    }, 
    {
      "op": "tvm_op", 
      "name": "batch_norm9_out", 
      "attrs": {
        "flatten_data": "0", 
        "func_name": "fuse_broadcast_add_1", 
        "num_inputs": "2", 
        "num_outputs": "1"
      }, 
      "inputs": [[178, 0, 0], [184, 0, 0]]
    }, 
    {
      "op": "tvm_op", 
      "name": "relu9", 
      "attrs": {
        "flatten_data": "1", 
        "func_name": "fuse_relu_1", 
        "num_inputs": "1", 
        "num_outputs": "1"
      }, 
      "inputs": [[185, 0, 0]]
    }, 
    {
      "op": "null", 
      "name": "62", 
      "inputs": []
    }, 
    {
      "op": "tvm_op", 
      "name": "conv2d11", 
      "attrs": {
        "flatten_data": "0", 
        "func_name": "fuse_conv2d_2", 
        "num_inputs": "2", 
        "num_outputs": "1"
      }, 
      "inputs": [[186, 0, 0], [187, 0, 0]]
    }, 
    {
      "op": "tvm_op", 
      "name": "elemwise_add4", 
      "attrs": {
        "flatten_data": "1", 
        "func_name": "fuse_elemwise_add_2", 
        "num_inputs": "2", 
        "num_outputs": "1"
      }, 
      "inputs": [[188, 0, 0], [152, 0, 0]]
    }, 
    {
      "op": "null", 
      "name": "66", 
      "inputs": []
    }, 
    {
      "op": "tvm_op", 
      "name": "batch_norm10_add_eps", 
      "attrs": {
        "flatten_data": "1", 
        "func_name": "fuse___add_scalar___1", 
        "num_inputs": "1", 
        "num_outputs": "1"
      }, 
      "inputs": [[190, 0, 1]]
    }, 
    {
      "op": "tvm_op", 
      "name": "batch_norm10_sqrt", 
      "attrs": {
        "flatten_data": "1", 
        "func_name": "fuse_sqrt_1", 
        "num_inputs": "1", 
        "num_outputs": "1"
      }, 
      "inputs": [[191, 0, 0]]
    }, 
    {
      "op": "tvm_op", 
      "name": "batch_norm10_div", 
      "attrs": {
        "flatten_data": "1", 
        "func_name": "fuse___rdiv_scalar___1", 
        "num_inputs": "1", 
        "num_outputs": "1"
      }, 
      "inputs": [[192, 0, 0]]
    }, 
    {
      "op": "null", 
      "name": "63", 
      "inputs": []
    }, 
    {
      "op": "tvm_op", 
      "name": "batch_norm10_gamma_mul_div", 
      "attrs": {
        "flatten_data": "1", 
        "func_name": "fuse_elemwise_mul_1", 
        "num_inputs": "2", 
        "num_outputs": "1"
      }, 
      "inputs": [[193, 0, 0], [194, 0, 0]]
    }, 
    {
      "op": "tvm_op", 
      "name": "batch_norm10_gamma_mul_div_expand", 
      "attrs": {
        "flatten_data": "0", 
        "func_name": "fuse_expand_dims_1", 
        "num_inputs": "1", 
        "num_outputs": "1"
      }, 
      "inputs": [[195, 0, 0]]
    }, 
    {
      "op": "tvm_op", 
      "name": "batch_norm10_a_mul_data", 
      "attrs": {
        "flatten_data": "0", 
        "func_name": "fuse_broadcast_mul_1", 
        "num_inputs": "2", 
        "num_outputs": "1"
      }, 
      "inputs": [[189, 0, 0], [196, 0, 0]]
    }, 
    {
      "op": "null", 
      "name": "65", 
      "inputs": []
    }, 
    {
      "op": "tvm_op", 
      "name": "batch_norm10_neg_mean", 
      "attrs": {
        "flatten_data": "1", 
        "func_name": "fuse_negative_1", 
        "num_inputs": "1", 
        "num_outputs": "1"
      }, 
      "inputs": [[198, 0, 1]]
    }, 
    {
      "op": "tvm_op", 
      "name": "batch_norm10_neg_mean_mul_a", 
      "attrs": {
        "flatten_data": "1", 
        "func_name": "fuse_elemwise_mul_1", 
        "num_inputs": "2", 
        "num_outputs": "1"
      }, 
      "inputs": [[199, 0, 0], [195, 0, 0]]
    }, 
    {
      "op": "null", 
      "name": "64", 
      "inputs": []
    }, 
    {
      "op": "tvm_op", 
      "name": "batch_norm10_add_beta", 
      "attrs": {
        "flatten_data": "1", 
        "func_name": "fuse_elemwise_add_1", 
        "num_inputs": "2", 
        "num_outputs": "1"
      }, 
      "inputs": [[200, 0, 0], [201, 0, 0]]
    }, 
    {
      "op": "tvm_op", 
      "name": "batch_norm10_add_beta_expand", 
      "attrs": {
        "flatten_data": "0", 
        "func_name": "fuse_expand_dims_1", 
        "num_inputs": "1", 
        "num_outputs": "1"
      }, 
      "inputs": [[202, 0, 0]]
    }, 
    {
      "op": "tvm_op", 
      "name": "batch_norm10_out", 
      "attrs": {
        "flatten_data": "0", 
        "func_name": "fuse_broadcast_add_1", 
        "num_inputs": "2", 
        "num_outputs": "1"
      }, 
      "inputs": [[197, 0, 0], [203, 0, 0]]
    }, 
    {
      "op": "tvm_op", 
      "name": "relu10", 
      "attrs": {
        "flatten_data": "1", 
        "func_name": "fuse_relu_1", 
        "num_inputs": "1", 
        "num_outputs": "1"
      }, 
      "inputs": [[204, 0, 0]]
    }, 
    {
      "op": "null", 
      "name": "68", 
      "inputs": []
    }, 
    {
      "op": "tvm_op", 
      "name": "conv2d12", 
      "attrs": {
        "flatten_data": "0", 
        "func_name": "fuse_conv2d_2", 
        "num_inputs": "2", 
        "num_outputs": "1"
      }, 
      "inputs": [[205, 0, 0], [206, 0, 0]]
    }, 
    {
      "op": "null", 
      "name": "72", 
      "inputs": []
    }, 
    {
      "op": "tvm_op", 
      "name": "batch_norm11_add_eps", 
      "attrs": {
        "flatten_data": "1", 
        "func_name": "fuse___add_scalar___1", 
        "num_inputs": "1", 
        "num_outputs": "1"
      }, 
      "inputs": [[208, 0, 1]]
    }, 
    {
      "op": "tvm_op", 
      "name": "batch_norm11_sqrt", 
      "attrs": {
        "flatten_data": "1", 
        "func_name": "fuse_sqrt_1", 
        "num_inputs": "1", 
        "num_outputs": "1"
      }, 
      "inputs": [[209, 0, 0]]
    }, 
    {
      "op": "tvm_op", 
      "name": "batch_norm11_div", 
      "attrs": {
        "flatten_data": "1", 
        "func_name": "fuse___rdiv_scalar___1", 
        "num_inputs": "1", 
        "num_outputs": "1"
      }, 
      "inputs": [[210, 0, 0]]
    }, 
    {
      "op": "null", 
      "name": "69", 
      "inputs": []
    }, 
    {
      "op": "tvm_op", 
      "name": "batch_norm11_gamma_mul_div", 
      "attrs": {
        "flatten_data": "1", 
        "func_name": "fuse_elemwise_mul_1", 
        "num_inputs": "2", 
        "num_outputs": "1"
      }, 
      "inputs": [[211, 0, 0], [212, 0, 0]]
    }, 
    {
      "op": "tvm_op", 
      "name": "batch_norm11_gamma_mul_div_expand", 
      "attrs": {
        "flatten_data": "0", 
        "func_name": "fuse_expand_dims_1", 
        "num_inputs": "1", 
        "num_outputs": "1"
      }, 
      "inputs": [[213, 0, 0]]
    }, 
    {
      "op": "tvm_op", 
      "name": "batch_norm11_a_mul_data", 
      "attrs": {
        "flatten_data": "0", 
        "func_name": "fuse_broadcast_mul_1", 
        "num_inputs": "2", 
        "num_outputs": "1"
      }, 
      "inputs": [[207, 0, 0], [214, 0, 0]]
    }, 
    {
      "op": "null", 
      "name": "71", 
      "inputs": []
    }, 
    {
      "op": "tvm_op", 
      "name": "batch_norm11_neg_mean", 
      "attrs": {
        "flatten_data": "1", 
        "func_name": "fuse_negative_1", 
        "num_inputs": "1", 
        "num_outputs": "1"
      }, 
      "inputs": [[216, 0, 1]]
    }, 
    {
      "op": "tvm_op", 
      "name": "batch_norm11_neg_mean_mul_a", 
      "attrs": {
        "flatten_data": "1", 
        "func_name": "fuse_elemwise_mul_1", 
        "num_inputs": "2", 
        "num_outputs": "1"
      }, 
      "inputs": [[217, 0, 0], [213, 0, 0]]
    }, 
    {
      "op": "null", 
      "name": "70", 
      "inputs": []
    }, 
    {
      "op": "tvm_op", 
      "name": "batch_norm11_add_beta", 
      "attrs": {
        "flatten_data": "1", 
        "func_name": "fuse_elemwise_add_1", 
        "num_inputs": "2", 
        "num_outputs": "1"
      }, 
      "inputs": [[218, 0, 0], [219, 0, 0]]
    }, 
    {
      "op": "tvm_op", 
      "name": "batch_norm11_add_beta_expand", 
      "attrs": {
        "flatten_data": "0", 
        "func_name": "fuse_expand_dims_1", 
        "num_inputs": "1", 
        "num_outputs": "1"
      }, 
      "inputs": [[220, 0, 0]]
    }, 
    {
      "op": "tvm_op", 
      "name": "batch_norm11_out", 
      "attrs": {
        "flatten_data": "0", 
        "func_name": "fuse_broadcast_add_1", 
        "num_inputs": "2", 
        "num_outputs": "1"
      }, 
      "inputs": [[215, 0, 0], [221, 0, 0]]
    }, 
    {
      "op": "tvm_op", 
      "name": "relu11", 
      "attrs": {
        "flatten_data": "1", 
        "func_name": "fuse_relu_1", 
        "num_inputs": "1", 
        "num_outputs": "1"
      }, 
      "inputs": [[222, 0, 0]]
    }, 
    {
      "op": "null", 
      "name": "74", 
      "inputs": []
    }, 
    {
      "op": "tvm_op", 
      "name": "conv2d13", 
      "attrs": {
        "flatten_data": "0", 
        "func_name": "fuse_conv2d_2", 
        "num_inputs": "2", 
        "num_outputs": "1"
      }, 
      "inputs": [[223, 0, 0], [224, 0, 0]]
    }, 
    {
      "op": "tvm_op", 
      "name": "elemwise_add5", 
      "attrs": {
        "flatten_data": "1", 
        "func_name": "fuse_elemwise_add_2", 
        "num_inputs": "2", 
        "num_outputs": "1"
      }, 
      "inputs": [[225, 0, 0], [189, 0, 0]]
    }, 
    {
      "op": "null", 
      "name": "78", 
      "inputs": []
    }, 
    {
      "op": "tvm_op", 
      "name": "batch_norm12_add_eps", 
      "attrs": {
        "flatten_data": "1", 
        "func_name": "fuse___add_scalar___1", 
        "num_inputs": "1", 
        "num_outputs": "1"
      }, 
      "inputs": [[227, 0, 1]]
    }, 
    {
      "op": "tvm_op", 
      "name": "batch_norm12_sqrt", 
      "attrs": {
        "flatten_data": "1", 
        "func_name": "fuse_sqrt_1", 
        "num_inputs": "1", 
        "num_outputs": "1"
      }, 
      "inputs": [[228, 0, 0]]
    }, 
    {
      "op": "tvm_op", 
      "name": "batch_norm12_div", 
      "attrs": {
        "flatten_data": "1", 
        "func_name": "fuse___rdiv_scalar___1", 
        "num_inputs": "1", 
        "num_outputs": "1"
      }, 
      "inputs": [[229, 0, 0]]
    }, 
    {
      "op": "null", 
      "name": "75", 
      "inputs": []
    }, 
    {
      "op": "tvm_op", 
      "name": "batch_norm12_gamma_mul_div", 
      "attrs": {
        "flatten_data": "1", 
        "func_name": "fuse_elemwise_mul_1", 
        "num_inputs": "2", 
        "num_outputs": "1"
      }, 
      "inputs": [[230, 0, 0], [231, 0, 0]]
    }, 
    {
      "op": "tvm_op", 
      "name": "batch_norm12_gamma_mul_div_expand", 
      "attrs": {
        "flatten_data": "0", 
        "func_name": "fuse_expand_dims_1", 
        "num_inputs": "1", 
        "num_outputs": "1"
      }, 
      "inputs": [[232, 0, 0]]
    }, 
    {
      "op": "tvm_op", 
      "name": "batch_norm12_a_mul_data", 
      "attrs": {
        "flatten_data": "0", 
        "func_name": "fuse_broadcast_mul_1", 
        "num_inputs": "2", 
        "num_outputs": "1"
      }, 
      "inputs": [[226, 0, 0], [233, 0, 0]]
    }, 
    {
      "op": "null", 
      "name": "77", 
      "inputs": []
    }, 
    {
      "op": "tvm_op", 
      "name": "batch_norm12_neg_mean", 
      "attrs": {
        "flatten_data": "1", 
        "func_name": "fuse_negative_1", 
        "num_inputs": "1", 
        "num_outputs": "1"
      }, 
      "inputs": [[235, 0, 1]]
    }, 
    {
      "op": "tvm_op", 
      "name": "batch_norm12_neg_mean_mul_a", 
      "attrs": {
        "flatten_data": "1", 
        "func_name": "fuse_elemwise_mul_1", 
        "num_inputs": "2", 
        "num_outputs": "1"
      }, 
      "inputs": [[236, 0, 0], [232, 0, 0]]
    }, 
    {
      "op": "null", 
      "name": "76", 
      "inputs": []
    }, 
    {
      "op": "tvm_op", 
      "name": "batch_norm12_add_beta", 
      "attrs": {
        "flatten_data": "1", 
        "func_name": "fuse_elemwise_add_1", 
        "num_inputs": "2", 
        "num_outputs": "1"
      }, 
      "inputs": [[237, 0, 0], [238, 0, 0]]
    }, 
    {
      "op": "tvm_op", 
      "name": "batch_norm12_add_beta_expand", 
      "attrs": {
        "flatten_data": "0", 
        "func_name": "fuse_expand_dims_1", 
        "num_inputs": "1", 
        "num_outputs": "1"
      }, 
      "inputs": [[239, 0, 0]]
    }, 
    {
      "op": "tvm_op", 
      "name": "batch_norm12_out", 
      "attrs": {
        "flatten_data": "0", 
        "func_name": "fuse_broadcast_add_1", 
        "num_inputs": "2", 
        "num_outputs": "1"
      }, 
      "inputs": [[234, 0, 0], [240, 0, 0]]
    }, 
    {
      "op": "tvm_op", 
      "name": "relu12", 
      "attrs": {
        "flatten_data": "1", 
        "func_name": "fuse_relu_1", 
        "num_inputs": "1", 
        "num_outputs": "1"
      }, 
      "inputs": [[241, 0, 0]]
    }, 
    {
      "op": "null", 
      "name": "80", 
      "inputs": []
    }, 
    {
      "op": "tvm_op", 
      "name": "conv2d14", 
      "attrs": {
        "flatten_data": "0", 
        "func_name": "fuse_conv2d_4", 
        "num_inputs": "2", 
        "num_outputs": "1"
      }, 
      "inputs": [[242, 0, 0], [243, 0, 0]]
    }, 
    {
      "op": "null", 
      "name": "84", 
      "inputs": []
    }, 
    {
      "op": "tvm_op", 
      "name": "batch_norm13_add_eps", 
      "attrs": {
        "flatten_data": "1", 
        "func_name": "fuse___add_scalar___2", 
        "num_inputs": "1", 
        "num_outputs": "1"
      }, 
      "inputs": [[245, 0, 1]]
    }, 
    {
      "op": "tvm_op", 
      "name": "batch_norm13_sqrt", 
      "attrs": {
        "flatten_data": "1", 
        "func_name": "fuse_sqrt_2", 
        "num_inputs": "1", 
        "num_outputs": "1"
      }, 
      "inputs": [[246, 0, 0]]
    }, 
    {
      "op": "tvm_op", 
      "name": "batch_norm13_div", 
      "attrs": {
        "flatten_data": "1", 
        "func_name": "fuse___rdiv_scalar___2", 
        "num_inputs": "1", 
        "num_outputs": "1"
      }, 
      "inputs": [[247, 0, 0]]
    }, 
    {
      "op": "null", 
      "name": "81", 
      "inputs": []
    }, 
    {
      "op": "tvm_op", 
      "name": "batch_norm13_gamma_mul_div", 
      "attrs": {
        "flatten_data": "1", 
        "func_name": "fuse_elemwise_mul_2", 
        "num_inputs": "2", 
        "num_outputs": "1"
      }, 
      "inputs": [[248, 0, 0], [249, 0, 0]]
    }, 
    {
      "op": "tvm_op", 
      "name": "batch_norm13_gamma_mul_div_expand", 
      "attrs": {
        "flatten_data": "0", 
        "func_name": "fuse_expand_dims_2", 
        "num_inputs": "1", 
        "num_outputs": "1"
      }, 
      "inputs": [[250, 0, 0]]
    }, 
    {
      "op": "tvm_op", 
      "name": "batch_norm13_a_mul_data", 
      "attrs": {
        "flatten_data": "0", 
        "func_name": "fuse_broadcast_mul_2", 
        "num_inputs": "2", 
        "num_outputs": "1"
      }, 
      "inputs": [[244, 0, 0], [251, 0, 0]]
    }, 
    {
      "op": "null", 
      "name": "83", 
      "inputs": []
    }, 
    {
      "op": "tvm_op", 
      "name": "batch_norm13_neg_mean", 
      "attrs": {
        "flatten_data": "1", 
        "func_name": "fuse_negative_2", 
        "num_inputs": "1", 
        "num_outputs": "1"
      }, 
      "inputs": [[253, 0, 1]]
    }, 
    {
      "op": "tvm_op", 
      "name": "batch_norm13_neg_mean_mul_a", 
      "attrs": {
        "flatten_data": "1", 
        "func_name": "fuse_elemwise_mul_2", 
        "num_inputs": "2", 
        "num_outputs": "1"
      }, 
      "inputs": [[254, 0, 0], [250, 0, 0]]
    }, 
    {
      "op": "null", 
      "name": "82", 
      "inputs": []
    }, 
    {
      "op": "tvm_op", 
      "name": "batch_norm13_add_beta", 
      "attrs": {
        "flatten_data": "1", 
        "func_name": "fuse_elemwise_add_3", 
        "num_inputs": "2", 
        "num_outputs": "1"
      }, 
      "inputs": [[255, 0, 0], [256, 0, 0]]
    }, 
    {
      "op": "tvm_op", 
      "name": "batch_norm13_add_beta_expand", 
      "attrs": {
        "flatten_data": "0", 
        "func_name": "fuse_expand_dims_2", 
        "num_inputs": "1", 
        "num_outputs": "1"
      }, 
      "inputs": [[257, 0, 0]]
    }, 
    {
      "op": "tvm_op", 
      "name": "batch_norm13_out", 
      "attrs": {
        "flatten_data": "0", 
        "func_name": "fuse_broadcast_add_2", 
        "num_inputs": "2", 
        "num_outputs": "1"
      }, 
      "inputs": [[252, 0, 0], [258, 0, 0]]
    }, 
    {
      "op": "tvm_op", 
      "name": "relu13", 
      "attrs": {
        "flatten_data": "1", 
        "func_name": "fuse_relu_2", 
        "num_inputs": "1", 
        "num_outputs": "1"
      }, 
      "inputs": [[259, 0, 0]]
    }, 
    {
      "op": "null", 
      "name": "86", 
      "inputs": []
    }, 
    {
      "op": "tvm_op", 
      "name": "conv2d15", 
      "attrs": {
        "flatten_data": "0", 
        "func_name": "fuse_conv2d_5", 
        "num_inputs": "2", 
        "num_outputs": "1"
      }, 
      "inputs": [[260, 0, 0], [261, 0, 0]]
    }, 
    {
      "op": "null", 
      "name": "87", 
      "inputs": []
    }, 
    {
      "op": "tvm_op", 
      "name": "conv2d16", 
      "attrs": {
        "flatten_data": "0", 
        "func_name": "fuse_conv2d_6", 
        "num_inputs": "2", 
        "num_outputs": "1"
      }, 
      "inputs": [[242, 0, 0], [263, 0, 0]]
    }, 
    {
      "op": "tvm_op", 
      "name": "elemwise_add6", 
      "attrs": {
        "flatten_data": "1", 
        "func_name": "fuse_elemwise_add_4", 
        "num_inputs": "2", 
        "num_outputs": "1"
      }, 
      "inputs": [[262, 0, 0], [264, 0, 0]]
    }, 
    {
      "op": "null", 
      "name": "91", 
      "inputs": []
    }, 
    {
      "op": "tvm_op", 
      "name": "batch_norm14_add_eps", 
      "attrs": {
        "flatten_data": "1", 
        "func_name": "fuse___add_scalar___2", 
        "num_inputs": "1", 
        "num_outputs": "1"
      }, 
      "inputs": [[266, 0, 1]]
    }, 
    {
      "op": "tvm_op", 
      "name": "batch_norm14_sqrt", 
      "attrs": {
        "flatten_data": "1", 
        "func_name": "fuse_sqrt_2", 
        "num_inputs": "1", 
        "num_outputs": "1"
      }, 
      "inputs": [[267, 0, 0]]
    }, 
    {
      "op": "tvm_op", 
      "name": "batch_norm14_div", 
      "attrs": {
        "flatten_data": "1", 
        "func_name": "fuse___rdiv_scalar___2", 
        "num_inputs": "1", 
        "num_outputs": "1"
      }, 
      "inputs": [[268, 0, 0]]
    }, 
    {
      "op": "null", 
      "name": "88", 
      "inputs": []
    }, 
    {
      "op": "tvm_op", 
      "name": "batch_norm14_gamma_mul_div", 
      "attrs": {
        "flatten_data": "1", 
        "func_name": "fuse_elemwise_mul_2", 
        "num_inputs": "2", 
        "num_outputs": "1"
      }, 
      "inputs": [[269, 0, 0], [270, 0, 0]]
    }, 
    {
      "op": "tvm_op", 
      "name": "batch_norm14_gamma_mul_div_expand", 
      "attrs": {
        "flatten_data": "0", 
        "func_name": "fuse_expand_dims_2", 
        "num_inputs": "1", 
        "num_outputs": "1"
      }, 
      "inputs": [[271, 0, 0]]
    }, 
    {
      "op": "tvm_op", 
      "name": "batch_norm14_a_mul_data", 
      "attrs": {
        "flatten_data": "0", 
        "func_name": "fuse_broadcast_mul_2", 
        "num_inputs": "2", 
        "num_outputs": "1"
      }, 
      "inputs": [[265, 0, 0], [272, 0, 0]]
    }, 
    {
      "op": "null", 
      "name": "90", 
      "inputs": []
    }, 
    {
      "op": "tvm_op", 
      "name": "batch_norm14_neg_mean", 
      "attrs": {
        "flatten_data": "1", 
        "func_name": "fuse_negative_2", 
        "num_inputs": "1", 
        "num_outputs": "1"
      }, 
      "inputs": [[274, 0, 1]]
    }, 
    {
      "op": "tvm_op", 
      "name": "batch_norm14_neg_mean_mul_a", 
      "attrs": {
        "flatten_data": "1", 
        "func_name": "fuse_elemwise_mul_2", 
        "num_inputs": "2", 
        "num_outputs": "1"
      }, 
      "inputs": [[275, 0, 0], [271, 0, 0]]
    }, 
    {
      "op": "null", 
      "name": "89", 
      "inputs": []
    }, 
    {
      "op": "tvm_op", 
      "name": "batch_norm14_add_beta", 
      "attrs": {
        "flatten_data": "1", 
        "func_name": "fuse_elemwise_add_3", 
        "num_inputs": "2", 
        "num_outputs": "1"
      }, 
      "inputs": [[276, 0, 0], [277, 0, 0]]
    }, 
    {
      "op": "tvm_op", 
      "name": "batch_norm14_add_beta_expand", 
      "attrs": {
        "flatten_data": "0", 
        "func_name": "fuse_expand_dims_2", 
        "num_inputs": "1", 
        "num_outputs": "1"
      }, 
      "inputs": [[278, 0, 0]]
    }, 
    {
      "op": "tvm_op", 
      "name": "batch_norm14_out", 
      "attrs": {
        "flatten_data": "0", 
        "func_name": "fuse_broadcast_add_2", 
        "num_inputs": "2", 
        "num_outputs": "1"
      }, 
      "inputs": [[273, 0, 0], [279, 0, 0]]
    }, 
    {
      "op": "tvm_op", 
      "name": "relu14", 
      "attrs": {
        "flatten_data": "1", 
        "func_name": "fuse_relu_2", 
        "num_inputs": "1", 
        "num_outputs": "1"
      }, 
      "inputs": [[280, 0, 0]]
    }, 
    {
      "op": "null", 
      "name": "93", 
      "inputs": []
    }, 
    {
      "op": "tvm_op", 
      "name": "conv2d17", 
      "attrs": {
        "flatten_data": "0", 
        "func_name": "fuse_conv2d_5", 
        "num_inputs": "2", 
        "num_outputs": "1"
      }, 
      "inputs": [[281, 0, 0], [282, 0, 0]]
    }, 
    {
      "op": "null", 
      "name": "97", 
      "inputs": []
    }, 
    {
      "op": "tvm_op", 
      "name": "batch_norm15_add_eps", 
      "attrs": {
        "flatten_data": "1", 
        "func_name": "fuse___add_scalar___2", 
        "num_inputs": "1", 
        "num_outputs": "1"
      }, 
      "inputs": [[284, 0, 1]]
    }, 
    {
      "op": "tvm_op", 
      "name": "batch_norm15_sqrt", 
      "attrs": {
        "flatten_data": "1", 
        "func_name": "fuse_sqrt_2", 
        "num_inputs": "1", 
        "num_outputs": "1"
      }, 
      "inputs": [[285, 0, 0]]
    }, 
    {
      "op": "tvm_op", 
      "name": "batch_norm15_div", 
      "attrs": {
        "flatten_data": "1", 
        "func_name": "fuse___rdiv_scalar___2", 
        "num_inputs": "1", 
        "num_outputs": "1"
      }, 
      "inputs": [[286, 0, 0]]
    }, 
    {
      "op": "null", 
      "name": "94", 
      "inputs": []
    }, 
    {
      "op": "tvm_op", 
      "name": "batch_norm15_gamma_mul_div", 
      "attrs": {
        "flatten_data": "1", 
        "func_name": "fuse_elemwise_mul_2", 
        "num_inputs": "2", 
        "num_outputs": "1"
      }, 
      "inputs": [[287, 0, 0], [288, 0, 0]]
    }, 
    {
      "op": "tvm_op", 
      "name": "batch_norm15_gamma_mul_div_expand", 
      "attrs": {
        "flatten_data": "0", 
        "func_name": "fuse_expand_dims_2", 
        "num_inputs": "1", 
        "num_outputs": "1"
      }, 
      "inputs": [[289, 0, 0]]
    }, 
    {
      "op": "tvm_op", 
      "name": "batch_norm15_a_mul_data", 
      "attrs": {
        "flatten_data": "0", 
        "func_name": "fuse_broadcast_mul_2", 
        "num_inputs": "2", 
        "num_outputs": "1"
      }, 
      "inputs": [[283, 0, 0], [290, 0, 0]]
    }, 
    {
      "op": "null", 
      "name": "96", 
      "inputs": []
    }, 
    {
      "op": "tvm_op", 
      "name": "batch_norm15_neg_mean", 
      "attrs": {
        "flatten_data": "1", 
        "func_name": "fuse_negative_2", 
        "num_inputs": "1", 
        "num_outputs": "1"
      }, 
      "inputs": [[292, 0, 1]]
    }, 
    {
      "op": "tvm_op", 
      "name": "batch_norm15_neg_mean_mul_a", 
      "attrs": {
        "flatten_data": "1", 
        "func_name": "fuse_elemwise_mul_2", 
        "num_inputs": "2", 
        "num_outputs": "1"
      }, 
      "inputs": [[293, 0, 0], [289, 0, 0]]
    }, 
    {
      "op": "null", 
      "name": "95", 
      "inputs": []
    }, 
    {
      "op": "tvm_op", 
      "name": "batch_norm15_add_beta", 
      "attrs": {
        "flatten_data": "1", 
        "func_name": "fuse_elemwise_add_3", 
        "num_inputs": "2", 
        "num_outputs": "1"
      }, 
      "inputs": [[294, 0, 0], [295, 0, 0]]
    }, 
    {
      "op": "tvm_op", 
      "name": "batch_norm15_add_beta_expand", 
      "attrs": {
        "flatten_data": "0", 
        "func_name": "fuse_expand_dims_2", 
        "num_inputs": "1", 
        "num_outputs": "1"
      }, 
      "inputs": [[296, 0, 0]]
    }, 
    {
      "op": "tvm_op", 
      "name": "batch_norm15_out", 
      "attrs": {
        "flatten_data": "0", 
        "func_name": "fuse_broadcast_add_2", 
        "num_inputs": "2", 
        "num_outputs": "1"
      }, 
      "inputs": [[291, 0, 0], [297, 0, 0]]
    }, 
    {
      "op": "tvm_op", 
      "name": "relu15", 
      "attrs": {
        "flatten_data": "1", 
        "func_name": "fuse_relu_2", 
        "num_inputs": "1", 
        "num_outputs": "1"
      }, 
      "inputs": [[298, 0, 0]]
    }, 
    {
      "op": "null", 
      "name": "99", 
      "inputs": []
    }, 
    {
      "op": "tvm_op", 
      "name": "conv2d18", 
      "attrs": {
        "flatten_data": "0", 
        "func_name": "fuse_conv2d_5", 
        "num_inputs": "2", 
        "num_outputs": "1"
      }, 
      "inputs": [[299, 0, 0], [300, 0, 0]]
    }, 
    {
      "op": "tvm_op", 
      "name": "elemwise_add7", 
      "attrs": {
        "flatten_data": "1", 
        "func_name": "fuse_elemwise_add_4", 
        "num_inputs": "2", 
        "num_outputs": "1"
      }, 
      "inputs": [[301, 0, 0], [265, 0, 0]]
    }, 
    {
      "op": "null", 
      "name": "103", 
      "inputs": []
    }, 
    {
      "op": "tvm_op", 
      "name": "batch_norm16_add_eps", 
      "attrs": {
        "flatten_data": "1", 
        "func_name": "fuse___add_scalar___2", 
        "num_inputs": "1", 
        "num_outputs": "1"
      }, 
      "inputs": [[303, 0, 1]]
    }, 
    {
      "op": "tvm_op", 
      "name": "batch_norm16_sqrt", 
      "attrs": {
        "flatten_data": "1", 
        "func_name": "fuse_sqrt_2", 
        "num_inputs": "1", 
        "num_outputs": "1"
      }, 
      "inputs": [[304, 0, 0]]
    }, 
    {
      "op": "tvm_op", 
      "name": "batch_norm16_div", 
      "attrs": {
        "flatten_data": "1", 
        "func_name": "fuse___rdiv_scalar___2", 
        "num_inputs": "1", 
        "num_outputs": "1"
      }, 
      "inputs": [[305, 0, 0]]
    }, 
    {
      "op": "null", 
      "name": "100", 
      "inputs": []
    }, 
    {
      "op": "tvm_op", 
      "name": "batch_norm16_gamma_mul_div", 
      "attrs": {
        "flatten_data": "1", 
        "func_name": "fuse_elemwise_mul_2", 
        "num_inputs": "2", 
        "num_outputs": "1"
      }, 
      "inputs": [[306, 0, 0], [307, 0, 0]]
    }, 
    {
      "op": "tvm_op", 
      "name": "batch_norm16_gamma_mul_div_expand", 
      "attrs": {
        "flatten_data": "0", 
        "func_name": "fuse_expand_dims_2", 
        "num_inputs": "1", 
        "num_outputs": "1"
      }, 
      "inputs": [[308, 0, 0]]
    }, 
    {
      "op": "tvm_op", 
      "name": "batch_norm16_a_mul_data", 
      "attrs": {
        "flatten_data": "0", 
        "func_name": "fuse_broadcast_mul_2", 
        "num_inputs": "2", 
        "num_outputs": "1"
      }, 
      "inputs": [[302, 0, 0], [309, 0, 0]]
    }, 
    {
      "op": "null", 
      "name": "102", 
      "inputs": []
    }, 
    {
      "op": "tvm_op", 
      "name": "batch_norm16_neg_mean", 
      "attrs": {
        "flatten_data": "1", 
        "func_name": "fuse_negative_2", 
        "num_inputs": "1", 
        "num_outputs": "1"
      }, 
      "inputs": [[311, 0, 1]]
    }, 
    {
      "op": "tvm_op", 
      "name": "batch_norm16_neg_mean_mul_a", 
      "attrs": {
        "flatten_data": "1", 
        "func_name": "fuse_elemwise_mul_2", 
        "num_inputs": "2", 
        "num_outputs": "1"
      }, 
      "inputs": [[312, 0, 0], [308, 0, 0]]
    }, 
    {
      "op": "null", 
      "name": "101", 
      "inputs": []
    }, 
    {
      "op": "tvm_op", 
      "name": "batch_norm16_add_beta", 
      "attrs": {
        "flatten_data": "1", 
        "func_name": "fuse_elemwise_add_3", 
        "num_inputs": "2", 
        "num_outputs": "1"
      }, 
      "inputs": [[313, 0, 0], [314, 0, 0]]
    }, 
    {
      "op": "tvm_op", 
      "name": "batch_norm16_add_beta_expand", 
      "attrs": {
        "flatten_data": "0", 
        "func_name": "fuse_expand_dims_2", 
        "num_inputs": "1", 
        "num_outputs": "1"
      }, 
      "inputs": [[315, 0, 0]]
    }, 
    {
      "op": "tvm_op", 
      "name": "batch_norm16_out", 
      "attrs": {
        "flatten_data": "0", 
        "func_name": "fuse_broadcast_add_2", 
        "num_inputs": "2", 
        "num_outputs": "1"
      }, 
      "inputs": [[310, 0, 0], [316, 0, 0]]
    }, 
    {
      "op": "tvm_op", 
      "name": "relu16", 
      "attrs": {
        "flatten_data": "1", 
        "func_name": "fuse_relu_2", 
        "num_inputs": "1", 
        "num_outputs": "1"
      }, 
      "inputs": [[317, 0, 0]]
    }, 
    {
      "op": "null", 
      "name": "105", 
      "inputs": []
    }, 
    {
      "op": "tvm_op", 
      "name": "conv2d19", 
      "attrs": {
        "flatten_data": "0", 
        "func_name": "fuse_conv2d_5", 
        "num_inputs": "2", 
        "num_outputs": "1"
      }, 
      "inputs": [[318, 0, 0], [319, 0, 0]]
    }, 
    {
      "op": "null", 
      "name": "109", 
      "inputs": []
    }, 
    {
      "op": "tvm_op", 
      "name": "batch_norm17_add_eps", 
      "attrs": {
        "flatten_data": "1", 
        "func_name": "fuse___add_scalar___2", 
        "num_inputs": "1", 
        "num_outputs": "1"
      }, 
      "inputs": [[321, 0, 1]]
    }, 
    {
      "op": "tvm_op", 
      "name": "batch_norm17_sqrt", 
      "attrs": {
        "flatten_data": "1", 
        "func_name": "fuse_sqrt_2", 
        "num_inputs": "1", 
        "num_outputs": "1"
      }, 
      "inputs": [[322, 0, 0]]
    }, 
    {
      "op": "tvm_op", 
      "name": "batch_norm17_div", 
      "attrs": {
        "flatten_data": "1", 
        "func_name": "fuse___rdiv_scalar___2", 
        "num_inputs": "1", 
        "num_outputs": "1"
      }, 
      "inputs": [[323, 0, 0]]
    }, 
    {
      "op": "null", 
      "name": "106", 
      "inputs": []
    }, 
    {
      "op": "tvm_op", 
      "name": "batch_norm17_gamma_mul_div", 
      "attrs": {
        "flatten_data": "1", 
        "func_name": "fuse_elemwise_mul_2", 
        "num_inputs": "2", 
        "num_outputs": "1"
      }, 
      "inputs": [[324, 0, 0], [325, 0, 0]]
    }, 
    {
      "op": "tvm_op", 
      "name": "batch_norm17_gamma_mul_div_expand", 
      "attrs": {
        "flatten_data": "0", 
        "func_name": "fuse_expand_dims_2", 
        "num_inputs": "1", 
        "num_outputs": "1"
      }, 
      "inputs": [[326, 0, 0]]
    }, 
    {
      "op": "tvm_op", 
      "name": "batch_norm17_a_mul_data", 
      "attrs": {
        "flatten_data": "0", 
        "func_name": "fuse_broadcast_mul_2", 
        "num_inputs": "2", 
        "num_outputs": "1"
      }, 
      "inputs": [[320, 0, 0], [327, 0, 0]]
    }, 
    {
      "op": "null", 
      "name": "108", 
      "inputs": []
    }, 
    {
      "op": "tvm_op", 
      "name": "batch_norm17_neg_mean", 
      "attrs": {
        "flatten_data": "1", 
        "func_name": "fuse_negative_2", 
        "num_inputs": "1", 
        "num_outputs": "1"
      }, 
      "inputs": [[329, 0, 1]]
    }, 
    {
      "op": "tvm_op", 
      "name": "batch_norm17_neg_mean_mul_a", 
      "attrs": {
        "flatten_data": "1", 
        "func_name": "fuse_elemwise_mul_2", 
        "num_inputs": "2", 
        "num_outputs": "1"
      }, 
      "inputs": [[330, 0, 0], [326, 0, 0]]
    }, 
    {
      "op": "null", 
      "name": "107", 
      "inputs": []
    }, 
    {
      "op": "tvm_op", 
      "name": "batch_norm17_add_beta", 
      "attrs": {
        "flatten_data": "1", 
        "func_name": "fuse_elemwise_add_3", 
        "num_inputs": "2", 
        "num_outputs": "1"
      }, 
      "inputs": [[331, 0, 0], [332, 0, 0]]
    }, 
    {
      "op": "tvm_op", 
      "name": "batch_norm17_add_beta_expand", 
      "attrs": {
        "flatten_data": "0", 
        "func_name": "fuse_expand_dims_2", 
        "num_inputs": "1", 
        "num_outputs": "1"
      }, 
      "inputs": [[333, 0, 0]]
    }, 
    {
      "op": "tvm_op", 
      "name": "batch_norm17_out", 
      "attrs": {
        "flatten_data": "0", 
        "func_name": "fuse_broadcast_add_2", 
        "num_inputs": "2", 
        "num_outputs": "1"
      }, 
      "inputs": [[328, 0, 0], [334, 0, 0]]
    }, 
    {
      "op": "tvm_op", 
      "name": "relu17", 
      "attrs": {
        "flatten_data": "1", 
        "func_name": "fuse_relu_2", 
        "num_inputs": "1", 
        "num_outputs": "1"
      }, 
      "inputs": [[335, 0, 0]]
    }, 
    {
      "op": "null", 
      "name": "111", 
      "inputs": []
    }, 
    {
      "op": "tvm_op", 
      "name": "conv2d20", 
      "attrs": {
        "flatten_data": "0", 
        "func_name": "fuse_conv2d_5", 
        "num_inputs": "2", 
        "num_outputs": "1"
      }, 
      "inputs": [[336, 0, 0], [337, 0, 0]]
    }, 
    {
      "op": "tvm_op", 
      "name": "elemwise_add8", 
      "attrs": {
        "flatten_data": "1", 
        "func_name": "fuse_elemwise_add_4", 
        "num_inputs": "2", 
        "num_outputs": "1"
      }, 
      "inputs": [[338, 0, 0], [302, 0, 0]]
    }, 
    {
      "op": "null", 
      "name": "115", 
      "inputs": []
    }, 
    {
      "op": "tvm_op", 
      "name": "batch_norm18_add_eps", 
      "attrs": {
        "flatten_data": "1", 
        "func_name": "fuse___add_scalar___2", 
        "num_inputs": "1", 
        "num_outputs": "1"
      }, 
      "inputs": [[340, 0, 1]]
    }, 
    {
      "op": "tvm_op", 
      "name": "batch_norm18_sqrt", 
      "attrs": {
        "flatten_data": "1", 
        "func_name": "fuse_sqrt_2", 
        "num_inputs": "1", 
        "num_outputs": "1"
      }, 
      "inputs": [[341, 0, 0]]
    }, 
    {
      "op": "tvm_op", 
      "name": "batch_norm18_div", 
      "attrs": {
        "flatten_data": "1", 
        "func_name": "fuse___rdiv_scalar___2", 
        "num_inputs": "1", 
        "num_outputs": "1"
      }, 
      "inputs": [[342, 0, 0]]
    }, 
    {
      "op": "null", 
      "name": "112", 
      "inputs": []
    }, 
    {
      "op": "tvm_op", 
      "name": "batch_norm18_gamma_mul_div", 
      "attrs": {
        "flatten_data": "1", 
        "func_name": "fuse_elemwise_mul_2", 
        "num_inputs": "2", 
        "num_outputs": "1"
      }, 
      "inputs": [[343, 0, 0], [344, 0, 0]]
    }, 
    {
      "op": "tvm_op", 
      "name": "batch_norm18_gamma_mul_div_expand", 
      "attrs": {
        "flatten_data": "0", 
        "func_name": "fuse_expand_dims_2", 
        "num_inputs": "1", 
        "num_outputs": "1"
      }, 
      "inputs": [[345, 0, 0]]
    }, 
    {
      "op": "tvm_op", 
      "name": "batch_norm18_a_mul_data", 
      "attrs": {
        "flatten_data": "0", 
        "func_name": "fuse_broadcast_mul_2", 
        "num_inputs": "2", 
        "num_outputs": "1"
      }, 
      "inputs": [[339, 0, 0], [346, 0, 0]]
    }, 
    {
      "op": "null", 
      "name": "114", 
      "inputs": []
    }, 
    {
      "op": "tvm_op", 
      "name": "batch_norm18_neg_mean", 
      "attrs": {
        "flatten_data": "1", 
        "func_name": "fuse_negative_2", 
        "num_inputs": "1", 
        "num_outputs": "1"
      }, 
      "inputs": [[348, 0, 1]]
    }, 
    {
      "op": "tvm_op", 
      "name": "batch_norm18_neg_mean_mul_a", 
      "attrs": {
        "flatten_data": "1", 
        "func_name": "fuse_elemwise_mul_2", 
        "num_inputs": "2", 
        "num_outputs": "1"
      }, 
      "inputs": [[349, 0, 0], [345, 0, 0]]
    }, 
    {
      "op": "null", 
      "name": "113", 
      "inputs": []
    }, 
    {
      "op": "tvm_op", 
      "name": "batch_norm18_add_beta", 
      "attrs": {
        "flatten_data": "1", 
        "func_name": "fuse_elemwise_add_3", 
        "num_inputs": "2", 
        "num_outputs": "1"
      }, 
      "inputs": [[350, 0, 0], [351, 0, 0]]
    }, 
    {
      "op": "tvm_op", 
      "name": "batch_norm18_add_beta_expand", 
      "attrs": {
        "flatten_data": "0", 
        "func_name": "fuse_expand_dims_2", 
        "num_inputs": "1", 
        "num_outputs": "1"
      }, 
      "inputs": [[352, 0, 0]]
    }, 
    {
      "op": "tvm_op", 
      "name": "batch_norm18_out", 
      "attrs": {
        "flatten_data": "0", 
        "func_name": "fuse_broadcast_add_2", 
        "num_inputs": "2", 
        "num_outputs": "1"
      }, 
      "inputs": [[347, 0, 0], [353, 0, 0]]
    }, 
    {
      "op": "tvm_op", 
      "name": "relu18", 
      "attrs": {
        "flatten_data": "1", 
        "func_name": "fuse_relu_2", 
        "num_inputs": "1", 
        "num_outputs": "1"
      }, 
      "inputs": [[354, 0, 0]]
    }, 
    {
      "op": "null", 
      "name": "117", 
      "inputs": []
    }, 
    {
      "op": "tvm_op", 
      "name": "conv2d21", 
      "attrs": {
        "flatten_data": "0", 
        "func_name": "fuse_conv2d_5", 
        "num_inputs": "2", 
        "num_outputs": "1"
      }, 
      "inputs": [[355, 0, 0], [356, 0, 0]]
    }, 
    {
      "op": "null", 
      "name": "121", 
      "inputs": []
    }, 
    {
      "op": "tvm_op", 
      "name": "batch_norm19_add_eps", 
      "attrs": {
        "flatten_data": "1", 
        "func_name": "fuse___add_scalar___2", 
        "num_inputs": "1", 
        "num_outputs": "1"
      }, 
      "inputs": [[358, 0, 1]]
    }, 
    {
      "op": "tvm_op", 
      "name": "batch_norm19_sqrt", 
      "attrs": {
        "flatten_data": "1", 
        "func_name": "fuse_sqrt_2", 
        "num_inputs": "1", 
        "num_outputs": "1"
      }, 
      "inputs": [[359, 0, 0]]
    }, 
    {
      "op": "tvm_op", 
      "name": "batch_norm19_div", 
      "attrs": {
        "flatten_data": "1", 
        "func_name": "fuse___rdiv_scalar___2", 
        "num_inputs": "1", 
        "num_outputs": "1"
      }, 
      "inputs": [[360, 0, 0]]
    }, 
    {
      "op": "null", 
      "name": "118", 
      "inputs": []
    }, 
    {
      "op": "tvm_op", 
      "name": "batch_norm19_gamma_mul_div", 
      "attrs": {
        "flatten_data": "1", 
        "func_name": "fuse_elemwise_mul_2", 
        "num_inputs": "2", 
        "num_outputs": "1"
      }, 
      "inputs": [[361, 0, 0], [362, 0, 0]]
    }, 
    {
      "op": "tvm_op", 
      "name": "batch_norm19_gamma_mul_div_expand", 
      "attrs": {
        "flatten_data": "0", 
        "func_name": "fuse_expand_dims_2", 
        "num_inputs": "1", 
        "num_outputs": "1"
      }, 
      "inputs": [[363, 0, 0]]
    }, 
    {
      "op": "tvm_op", 
      "name": "batch_norm19_a_mul_data", 
      "attrs": {
        "flatten_data": "0", 
        "func_name": "fuse_broadcast_mul_2", 
        "num_inputs": "2", 
        "num_outputs": "1"
      }, 
      "inputs": [[357, 0, 0], [364, 0, 0]]
    }, 
    {
      "op": "null", 
      "name": "120", 
      "inputs": []
    }, 
    {
      "op": "tvm_op", 
      "name": "batch_norm19_neg_mean", 
      "attrs": {
        "flatten_data": "1", 
        "func_name": "fuse_negative_2", 
        "num_inputs": "1", 
        "num_outputs": "1"
      }, 
      "inputs": [[366, 0, 1]]
    }, 
    {
      "op": "tvm_op", 
      "name": "batch_norm19_neg_mean_mul_a", 
      "attrs": {
        "flatten_data": "1", 
        "func_name": "fuse_elemwise_mul_2", 
        "num_inputs": "2", 
        "num_outputs": "1"
      }, 
      "inputs": [[367, 0, 0], [363, 0, 0]]
    }, 
    {
      "op": "null", 
      "name": "119", 
      "inputs": []
    }, 
    {
      "op": "tvm_op", 
      "name": "batch_norm19_add_beta", 
      "attrs": {
        "flatten_data": "1", 
        "func_name": "fuse_elemwise_add_3", 
        "num_inputs": "2", 
        "num_outputs": "1"
      }, 
      "inputs": [[368, 0, 0], [369, 0, 0]]
    }, 
    {
      "op": "tvm_op", 
      "name": "batch_norm19_add_beta_expand", 
      "attrs": {
        "flatten_data": "0", 
        "func_name": "fuse_expand_dims_2", 
        "num_inputs": "1", 
        "num_outputs": "1"
      }, 
      "inputs": [[370, 0, 0]]
    }, 
    {
      "op": "tvm_op", 
      "name": "batch_norm19_out", 
      "attrs": {
        "flatten_data": "0", 
        "func_name": "fuse_broadcast_add_2", 
        "num_inputs": "2", 
        "num_outputs": "1"
      }, 
      "inputs": [[365, 0, 0], [371, 0, 0]]
    }, 
    {
      "op": "tvm_op", 
      "name": "relu19", 
      "attrs": {
        "flatten_data": "1", 
        "func_name": "fuse_relu_2", 
        "num_inputs": "1", 
        "num_outputs": "1"
      }, 
      "inputs": [[372, 0, 0]]
    }, 
    {
      "op": "null", 
      "name": "123", 
      "inputs": []
    }, 
    {
      "op": "tvm_op", 
      "name": "conv2d22", 
      "attrs": {
        "flatten_data": "0", 
        "func_name": "fuse_conv2d_5", 
        "num_inputs": "2", 
        "num_outputs": "1"
      }, 
      "inputs": [[373, 0, 0], [374, 0, 0]]
    }, 
    {
      "op": "tvm_op", 
      "name": "elemwise_add9", 
      "attrs": {
        "flatten_data": "1", 
        "func_name": "fuse_elemwise_add_4", 
        "num_inputs": "2", 
        "num_outputs": "1"
      }, 
      "inputs": [[375, 0, 0], [339, 0, 0]]
    }, 
    {
      "op": "null", 
      "name": "127", 
      "inputs": []
    }, 
    {
      "op": "tvm_op", 
      "name": "batch_norm20_add_eps", 
      "attrs": {
        "flatten_data": "1", 
        "func_name": "fuse___add_scalar___2", 
        "num_inputs": "1", 
        "num_outputs": "1"
      }, 
      "inputs": [[377, 0, 1]]
    }, 
    {
      "op": "tvm_op", 
      "name": "batch_norm20_sqrt", 
      "attrs": {
        "flatten_data": "1", 
        "func_name": "fuse_sqrt_2", 
        "num_inputs": "1", 
        "num_outputs": "1"
      }, 
      "inputs": [[378, 0, 0]]
    }, 
    {
      "op": "tvm_op", 
      "name": "batch_norm20_div", 
      "attrs": {
        "flatten_data": "1", 
        "func_name": "fuse___rdiv_scalar___2", 
        "num_inputs": "1", 
        "num_outputs": "1"
      }, 
      "inputs": [[379, 0, 0]]
    }, 
    {
      "op": "null", 
      "name": "124", 
      "inputs": []
    }, 
    {
      "op": "tvm_op", 
      "name": "batch_norm20_gamma_mul_div", 
      "attrs": {
        "flatten_data": "1", 
        "func_name": "fuse_elemwise_mul_2", 
        "num_inputs": "2", 
        "num_outputs": "1"
      }, 
      "inputs": [[380, 0, 0], [381, 0, 0]]
    }, 
    {
      "op": "tvm_op", 
      "name": "batch_norm20_gamma_mul_div_expand", 
      "attrs": {
        "flatten_data": "0", 
        "func_name": "fuse_expand_dims_2", 
        "num_inputs": "1", 
        "num_outputs": "1"
      }, 
      "inputs": [[382, 0, 0]]
    }, 
    {
      "op": "tvm_op", 
      "name": "batch_norm20_a_mul_data", 
      "attrs": {
        "flatten_data": "0", 
        "func_name": "fuse_broadcast_mul_2", 
        "num_inputs": "2", 
        "num_outputs": "1"
      }, 
      "inputs": [[376, 0, 0], [383, 0, 0]]
    }, 
    {
      "op": "null", 
      "name": "126", 
      "inputs": []
    }, 
    {
      "op": "tvm_op", 
      "name": "batch_norm20_neg_mean", 
      "attrs": {
        "flatten_data": "1", 
        "func_name": "fuse_negative_2", 
        "num_inputs": "1", 
        "num_outputs": "1"
      }, 
      "inputs": [[385, 0, 1]]
    }, 
    {
      "op": "tvm_op", 
      "name": "batch_norm20_neg_mean_mul_a", 
      "attrs": {
        "flatten_data": "1", 
        "func_name": "fuse_elemwise_mul_2", 
        "num_inputs": "2", 
        "num_outputs": "1"
      }, 
      "inputs": [[386, 0, 0], [382, 0, 0]]
    }, 
    {
      "op": "null", 
      "name": "125", 
      "inputs": []
    }, 
    {
      "op": "tvm_op", 
      "name": "batch_norm20_add_beta", 
      "attrs": {
        "flatten_data": "1", 
        "func_name": "fuse_elemwise_add_3", 
        "num_inputs": "2", 
        "num_outputs": "1"
      }, 
      "inputs": [[387, 0, 0], [388, 0, 0]]
    }, 
    {
      "op": "tvm_op", 
      "name": "batch_norm20_add_beta_expand", 
      "attrs": {
        "flatten_data": "0", 
        "func_name": "fuse_expand_dims_2", 
        "num_inputs": "1", 
        "num_outputs": "1"
      }, 
      "inputs": [[389, 0, 0]]
    }, 
    {
      "op": "tvm_op", 
      "name": "batch_norm20_out", 
      "attrs": {
        "flatten_data": "0", 
        "func_name": "fuse_broadcast_add_2", 
        "num_inputs": "2", 
        "num_outputs": "1"
      }, 
      "inputs": [[384, 0, 0], [390, 0, 0]]
    }, 
    {
      "op": "tvm_op", 
      "name": "relu20", 
      "attrs": {
        "flatten_data": "1", 
        "func_name": "fuse_relu_2", 
        "num_inputs": "1", 
        "num_outputs": "1"
      }, 
      "inputs": [[391, 0, 0]]
    }, 
    {
      "op": "null", 
      "name": "129", 
      "inputs": []
    }, 
    {
      "op": "tvm_op", 
      "name": "conv2d23", 
      "attrs": {
        "flatten_data": "0", 
        "func_name": "fuse_conv2d_5", 
        "num_inputs": "2", 
        "num_outputs": "1"
      }, 
      "inputs": [[392, 0, 0], [393, 0, 0]]
    }, 
    {
      "op": "null", 
      "name": "133", 
      "inputs": []
    }, 
    {
      "op": "tvm_op", 
      "name": "batch_norm21_add_eps", 
      "attrs": {
        "flatten_data": "1", 
        "func_name": "fuse___add_scalar___2", 
        "num_inputs": "1", 
        "num_outputs": "1"
      }, 
      "inputs": [[395, 0, 1]]
    }, 
    {
      "op": "tvm_op", 
      "name": "batch_norm21_sqrt", 
      "attrs": {
        "flatten_data": "1", 
        "func_name": "fuse_sqrt_2", 
        "num_inputs": "1", 
        "num_outputs": "1"
      }, 
      "inputs": [[396, 0, 0]]
    }, 
    {
      "op": "tvm_op", 
      "name": "batch_norm21_div", 
      "attrs": {
        "flatten_data": "1", 
        "func_name": "fuse___rdiv_scalar___2", 
        "num_inputs": "1", 
        "num_outputs": "1"
      }, 
      "inputs": [[397, 0, 0]]
    }, 
    {
      "op": "null", 
      "name": "130", 
      "inputs": []
    }, 
    {
      "op": "tvm_op", 
      "name": "batch_norm21_gamma_mul_div", 
      "attrs": {
        "flatten_data": "1", 
        "func_name": "fuse_elemwise_mul_2", 
        "num_inputs": "2", 
        "num_outputs": "1"
      }, 
      "inputs": [[398, 0, 0], [399, 0, 0]]
    }, 
    {
      "op": "tvm_op", 
      "name": "batch_norm21_gamma_mul_div_expand", 
      "attrs": {
        "flatten_data": "0", 
        "func_name": "fuse_expand_dims_2", 
        "num_inputs": "1", 
        "num_outputs": "1"
      }, 
      "inputs": [[400, 0, 0]]
    }, 
    {
      "op": "tvm_op", 
      "name": "batch_norm21_a_mul_data", 
      "attrs": {
        "flatten_data": "0", 
        "func_name": "fuse_broadcast_mul_2", 
        "num_inputs": "2", 
        "num_outputs": "1"
      }, 
      "inputs": [[394, 0, 0], [401, 0, 0]]
    }, 
    {
      "op": "null", 
      "name": "132", 
      "inputs": []
    }, 
    {
      "op": "tvm_op", 
      "name": "batch_norm21_neg_mean", 
      "attrs": {
        "flatten_data": "1", 
        "func_name": "fuse_negative_2", 
        "num_inputs": "1", 
        "num_outputs": "1"
      }, 
      "inputs": [[403, 0, 1]]
    }, 
    {
      "op": "tvm_op", 
      "name": "batch_norm21_neg_mean_mul_a", 
      "attrs": {
        "flatten_data": "1", 
        "func_name": "fuse_elemwise_mul_2", 
        "num_inputs": "2", 
        "num_outputs": "1"
      }, 
      "inputs": [[404, 0, 0], [400, 0, 0]]
    }, 
    {
      "op": "null", 
      "name": "131", 
      "inputs": []
    }, 
    {
      "op": "tvm_op", 
      "name": "batch_norm21_add_beta", 
      "attrs": {
        "flatten_data": "1", 
        "func_name": "fuse_elemwise_add_3", 
        "num_inputs": "2", 
        "num_outputs": "1"
      }, 
      "inputs": [[405, 0, 0], [406, 0, 0]]
    }, 
    {
      "op": "tvm_op", 
      "name": "batch_norm21_add_beta_expand", 
      "attrs": {
        "flatten_data": "0", 
        "func_name": "fuse_expand_dims_2", 
        "num_inputs": "1", 
        "num_outputs": "1"
      }, 
      "inputs": [[407, 0, 0]]
    }, 
    {
      "op": "tvm_op", 
      "name": "batch_norm21_out", 
      "attrs": {
        "flatten_data": "0", 
        "func_name": "fuse_broadcast_add_2", 
        "num_inputs": "2", 
        "num_outputs": "1"
      }, 
      "inputs": [[402, 0, 0], [408, 0, 0]]
    }, 
    {
      "op": "tvm_op", 
      "name": "relu21", 
      "attrs": {
        "flatten_data": "1", 
        "func_name": "fuse_relu_2", 
        "num_inputs": "1", 
        "num_outputs": "1"
      }, 
      "inputs": [[409, 0, 0]]
    }, 
    {
      "op": "null", 
      "name": "135", 
      "inputs": []
    }, 
    {
      "op": "tvm_op", 
      "name": "conv2d24", 
      "attrs": {
        "flatten_data": "0", 
        "func_name": "fuse_conv2d_5", 
        "num_inputs": "2", 
        "num_outputs": "1"
      }, 
      "inputs": [[410, 0, 0], [411, 0, 0]]
    }, 
    {
      "op": "tvm_op", 
      "name": "elemwise_add10", 
      "attrs": {
        "flatten_data": "1", 
        "func_name": "fuse_elemwise_add_4", 
        "num_inputs": "2", 
        "num_outputs": "1"
      }, 
      "inputs": [[412, 0, 0], [376, 0, 0]]
    }, 
    {
      "op": "null", 
      "name": "139", 
      "inputs": []
    }, 
    {
      "op": "tvm_op", 
      "name": "batch_norm22_add_eps", 
      "attrs": {
        "flatten_data": "1", 
        "func_name": "fuse___add_scalar___2", 
        "num_inputs": "1", 
        "num_outputs": "1"
      }, 
      "inputs": [[414, 0, 1]]
    }, 
    {
      "op": "tvm_op", 
      "name": "batch_norm22_sqrt", 
      "attrs": {
        "flatten_data": "1", 
        "func_name": "fuse_sqrt_2", 
        "num_inputs": "1", 
        "num_outputs": "1"
      }, 
      "inputs": [[415, 0, 0]]
    }, 
    {
      "op": "tvm_op", 
      "name": "batch_norm22_div", 
      "attrs": {
        "flatten_data": "1", 
        "func_name": "fuse___rdiv_scalar___2", 
        "num_inputs": "1", 
        "num_outputs": "1"
      }, 
      "inputs": [[416, 0, 0]]
    }, 
    {
      "op": "null", 
      "name": "136", 
      "inputs": []
    }, 
    {
      "op": "tvm_op", 
      "name": "batch_norm22_gamma_mul_div", 
      "attrs": {
        "flatten_data": "1", 
        "func_name": "fuse_elemwise_mul_2", 
        "num_inputs": "2", 
        "num_outputs": "1"
      }, 
      "inputs": [[417, 0, 0], [418, 0, 0]]
    }, 
    {
      "op": "tvm_op", 
      "name": "batch_norm22_gamma_mul_div_expand", 
      "attrs": {
        "flatten_data": "0", 
        "func_name": "fuse_expand_dims_2", 
        "num_inputs": "1", 
        "num_outputs": "1"
      }, 
      "inputs": [[419, 0, 0]]
    }, 
    {
      "op": "tvm_op", 
      "name": "batch_norm22_a_mul_data", 
      "attrs": {
        "flatten_data": "0", 
        "func_name": "fuse_broadcast_mul_2", 
        "num_inputs": "2", 
        "num_outputs": "1"
      }, 
      "inputs": [[413, 0, 0], [420, 0, 0]]
    }, 
    {
      "op": "null", 
      "name": "138", 
      "inputs": []
    }, 
    {
      "op": "tvm_op", 
      "name": "batch_norm22_neg_mean", 
      "attrs": {
        "flatten_data": "1", 
        "func_name": "fuse_negative_2", 
        "num_inputs": "1", 
        "num_outputs": "1"
      }, 
      "inputs": [[422, 0, 1]]
    }, 
    {
      "op": "tvm_op", 
      "name": "batch_norm22_neg_mean_mul_a", 
      "attrs": {
        "flatten_data": "1", 
        "func_name": "fuse_elemwise_mul_2", 
        "num_inputs": "2", 
        "num_outputs": "1"
      }, 
      "inputs": [[423, 0, 0], [419, 0, 0]]
    }, 
    {
      "op": "null", 
      "name": "137", 
      "inputs": []
    }, 
    {
      "op": "tvm_op", 
      "name": "batch_norm22_add_beta", 
      "attrs": {
        "flatten_data": "1", 
        "func_name": "fuse_elemwise_add_3", 
        "num_inputs": "2", 
        "num_outputs": "1"
      }, 
      "inputs": [[424, 0, 0], [425, 0, 0]]
    }, 
    {
      "op": "tvm_op", 
      "name": "batch_norm22_add_beta_expand", 
      "attrs": {
        "flatten_data": "0", 
        "func_name": "fuse_expand_dims_2", 
        "num_inputs": "1", 
        "num_outputs": "1"
      }, 
      "inputs": [[426, 0, 0]]
    }, 
    {
      "op": "tvm_op", 
      "name": "batch_norm22_out", 
      "attrs": {
        "flatten_data": "0", 
        "func_name": "fuse_broadcast_add_2", 
        "num_inputs": "2", 
        "num_outputs": "1"
      }, 
      "inputs": [[421, 0, 0], [427, 0, 0]]
    }, 
    {
      "op": "tvm_op", 
      "name": "relu22", 
      "attrs": {
        "flatten_data": "1", 
        "func_name": "fuse_relu_2", 
        "num_inputs": "1", 
        "num_outputs": "1"
      }, 
      "inputs": [[428, 0, 0]]
    }, 
    {
      "op": "null", 
      "name": "141", 
      "inputs": []
    }, 
    {
      "op": "tvm_op", 
      "name": "conv2d25", 
      "attrs": {
        "flatten_data": "0", 
        "func_name": "fuse_conv2d_5", 
        "num_inputs": "2", 
        "num_outputs": "1"
      }, 
      "inputs": [[429, 0, 0], [430, 0, 0]]
    }, 
    {
      "op": "null", 
      "name": "145", 
      "inputs": []
    }, 
    {
      "op": "tvm_op", 
      "name": "batch_norm23_add_eps", 
      "attrs": {
        "flatten_data": "1", 
        "func_name": "fuse___add_scalar___2", 
        "num_inputs": "1", 
        "num_outputs": "1"
      }, 
      "inputs": [[432, 0, 1]]
    }, 
    {
      "op": "tvm_op", 
      "name": "batch_norm23_sqrt", 
      "attrs": {
        "flatten_data": "1", 
        "func_name": "fuse_sqrt_2", 
        "num_inputs": "1", 
        "num_outputs": "1"
      }, 
      "inputs": [[433, 0, 0]]
    }, 
    {
      "op": "tvm_op", 
      "name": "batch_norm23_div", 
      "attrs": {
        "flatten_data": "1", 
        "func_name": "fuse___rdiv_scalar___2", 
        "num_inputs": "1", 
        "num_outputs": "1"
      }, 
      "inputs": [[434, 0, 0]]
    }, 
    {
      "op": "null", 
      "name": "142", 
      "inputs": []
    }, 
    {
      "op": "tvm_op", 
      "name": "batch_norm23_gamma_mul_div", 
      "attrs": {
        "flatten_data": "1", 
        "func_name": "fuse_elemwise_mul_2", 
        "num_inputs": "2", 
        "num_outputs": "1"
      }, 
      "inputs": [[435, 0, 0], [436, 0, 0]]
    }, 
    {
      "op": "tvm_op", 
      "name": "batch_norm23_gamma_mul_div_expand", 
      "attrs": {
        "flatten_data": "0", 
        "func_name": "fuse_expand_dims_2", 
        "num_inputs": "1", 
        "num_outputs": "1"
      }, 
      "inputs": [[437, 0, 0]]
    }, 
    {
      "op": "tvm_op", 
      "name": "batch_norm23_a_mul_data", 
      "attrs": {
        "flatten_data": "0", 
        "func_name": "fuse_broadcast_mul_2", 
        "num_inputs": "2", 
        "num_outputs": "1"
      }, 
      "inputs": [[431, 0, 0], [438, 0, 0]]
    }, 
    {
      "op": "null", 
      "name": "144", 
      "inputs": []
    }, 
    {
      "op": "tvm_op", 
      "name": "batch_norm23_neg_mean", 
      "attrs": {
        "flatten_data": "1", 
        "func_name": "fuse_negative_2", 
        "num_inputs": "1", 
        "num_outputs": "1"
      }, 
      "inputs": [[440, 0, 1]]
    }, 
    {
      "op": "tvm_op", 
      "name": "batch_norm23_neg_mean_mul_a", 
      "attrs": {
        "flatten_data": "1", 
        "func_name": "fuse_elemwise_mul_2", 
        "num_inputs": "2", 
        "num_outputs": "1"
      }, 
      "inputs": [[441, 0, 0], [437, 0, 0]]
    }, 
    {
      "op": "null", 
      "name": "143", 
      "inputs": []
    }, 
    {
      "op": "tvm_op", 
      "name": "batch_norm23_add_beta", 
      "attrs": {
        "flatten_data": "1", 
        "func_name": "fuse_elemwise_add_3", 
        "num_inputs": "2", 
        "num_outputs": "1"
      }, 
      "inputs": [[442, 0, 0], [443, 0, 0]]
    }, 
    {
      "op": "tvm_op", 
      "name": "batch_norm23_add_beta_expand", 
      "attrs": {
        "flatten_data": "0", 
        "func_name": "fuse_expand_dims_2", 
        "num_inputs": "1", 
        "num_outputs": "1"
      }, 
      "inputs": [[444, 0, 0]]
    }, 
    {
      "op": "tvm_op", 
      "name": "batch_norm23_out", 
      "attrs": {
        "flatten_data": "0", 
        "func_name": "fuse_broadcast_add_2", 
        "num_inputs": "2", 
        "num_outputs": "1"
      }, 
      "inputs": [[439, 0, 0], [445, 0, 0]]
    }, 
    {
      "op": "tvm_op", 
      "name": "relu23", 
      "attrs": {
        "flatten_data": "1", 
        "func_name": "fuse_relu_2", 
        "num_inputs": "1", 
        "num_outputs": "1"
      }, 
      "inputs": [[446, 0, 0]]
    }, 
    {
      "op": "null", 
      "name": "147", 
      "inputs": []
    }, 
    {
      "op": "tvm_op", 
      "name": "conv2d26", 
      "attrs": {
        "flatten_data": "0", 
        "func_name": "fuse_conv2d_5", 
        "num_inputs": "2", 
        "num_outputs": "1"
      }, 
      "inputs": [[447, 0, 0], [448, 0, 0]]
    }, 
    {
      "op": "tvm_op", 
      "name": "elemwise_add11", 
      "attrs": {
        "flatten_data": "1", 
        "func_name": "fuse_elemwise_add_4", 
        "num_inputs": "2", 
        "num_outputs": "1"
      }, 
      "inputs": [[449, 0, 0], [413, 0, 0]]
    }, 
    {
      "op": "null", 
      "name": "151", 
      "inputs": []
    }, 
    {
      "op": "tvm_op", 
      "name": "batch_norm24_add_eps", 
      "attrs": {
        "flatten_data": "1", 
        "func_name": "fuse___add_scalar___2", 
        "num_inputs": "1", 
        "num_outputs": "1"
      }, 
      "inputs": [[451, 0, 1]]
    }, 
    {
      "op": "tvm_op", 
      "name": "batch_norm24_sqrt", 
      "attrs": {
        "flatten_data": "1", 
        "func_name": "fuse_sqrt_2", 
        "num_inputs": "1", 
        "num_outputs": "1"
      }, 
      "inputs": [[452, 0, 0]]
    }, 
    {
      "op": "tvm_op", 
      "name": "batch_norm24_div", 
      "attrs": {
        "flatten_data": "1", 
        "func_name": "fuse___rdiv_scalar___2", 
        "num_inputs": "1", 
        "num_outputs": "1"
      }, 
      "inputs": [[453, 0, 0]]
    }, 
    {
      "op": "null", 
      "name": "148", 
      "inputs": []
    }, 
    {
      "op": "tvm_op", 
      "name": "batch_norm24_gamma_mul_div", 
      "attrs": {
        "flatten_data": "1", 
        "func_name": "fuse_elemwise_mul_2", 
        "num_inputs": "2", 
        "num_outputs": "1"
      }, 
      "inputs": [[454, 0, 0], [455, 0, 0]]
    }, 
    {
      "op": "tvm_op", 
      "name": "batch_norm24_gamma_mul_div_expand", 
      "attrs": {
        "flatten_data": "0", 
        "func_name": "fuse_expand_dims_2", 
        "num_inputs": "1", 
        "num_outputs": "1"
      }, 
      "inputs": [[456, 0, 0]]
    }, 
    {
      "op": "tvm_op", 
      "name": "batch_norm24_a_mul_data", 
      "attrs": {
        "flatten_data": "0", 
        "func_name": "fuse_broadcast_mul_2", 
        "num_inputs": "2", 
        "num_outputs": "1"
      }, 
      "inputs": [[450, 0, 0], [457, 0, 0]]
    }, 
    {
      "op": "null", 
      "name": "150", 
      "inputs": []
    }, 
    {
      "op": "tvm_op", 
      "name": "batch_norm24_neg_mean", 
      "attrs": {
        "flatten_data": "1", 
        "func_name": "fuse_negative_2", 
        "num_inputs": "1", 
        "num_outputs": "1"
      }, 
      "inputs": [[459, 0, 1]]
    }, 
    {
      "op": "tvm_op", 
      "name": "batch_norm24_neg_mean_mul_a", 
      "attrs": {
        "flatten_data": "1", 
        "func_name": "fuse_elemwise_mul_2", 
        "num_inputs": "2", 
        "num_outputs": "1"
      }, 
      "inputs": [[460, 0, 0], [456, 0, 0]]
    }, 
    {
      "op": "null", 
      "name": "149", 
      "inputs": []
    }, 
    {
      "op": "tvm_op", 
      "name": "batch_norm24_add_beta", 
      "attrs": {
        "flatten_data": "1", 
        "func_name": "fuse_elemwise_add_3", 
        "num_inputs": "2", 
        "num_outputs": "1"
      }, 
      "inputs": [[461, 0, 0], [462, 0, 0]]
    }, 
    {
      "op": "tvm_op", 
      "name": "batch_norm24_add_beta_expand", 
      "attrs": {
        "flatten_data": "0", 
        "func_name": "fuse_expand_dims_2", 
        "num_inputs": "1", 
        "num_outputs": "1"
      }, 
      "inputs": [[463, 0, 0]]
    }, 
    {
      "op": "tvm_op", 
      "name": "batch_norm24_out", 
      "attrs": {
        "flatten_data": "0", 
        "func_name": "fuse_broadcast_add_2", 
        "num_inputs": "2", 
        "num_outputs": "1"
      }, 
      "inputs": [[458, 0, 0], [464, 0, 0]]
    }, 
    {
      "op": "tvm_op", 
      "name": "relu24", 
      "attrs": {
        "flatten_data": "1", 
        "func_name": "fuse_relu_2", 
        "num_inputs": "1", 
        "num_outputs": "1"
      }, 
      "inputs": [[465, 0, 0]]
    }, 
    {
      "op": "null", 
      "name": "153", 
      "inputs": []
    }, 
    {
      "op": "tvm_op", 
      "name": "conv2d27", 
      "attrs": {
        "flatten_data": "0", 
        "func_name": "fuse_conv2d_7", 
        "num_inputs": "2", 
        "num_outputs": "1"
      }, 
      "inputs": [[466, 0, 0], [467, 0, 0]]
    }, 
    {
      "op": "null", 
      "name": "157", 
      "inputs": []
    }, 
    {
      "op": "tvm_op", 
      "name": "batch_norm25_add_eps", 
      "attrs": {
        "flatten_data": "1", 
        "func_name": "fuse___add_scalar___3", 
        "num_inputs": "1", 
        "num_outputs": "1"
      }, 
      "inputs": [[469, 0, 1]]
    }, 
    {
      "op": "tvm_op", 
      "name": "batch_norm25_sqrt", 
      "attrs": {
        "flatten_data": "1", 
        "func_name": "fuse_sqrt_3", 
        "num_inputs": "1", 
        "num_outputs": "1"
      }, 
      "inputs": [[470, 0, 0]]
    }, 
    {
      "op": "tvm_op", 
      "name": "batch_norm25_div", 
      "attrs": {
        "flatten_data": "1", 
        "func_name": "fuse___rdiv_scalar___3", 
        "num_inputs": "1", 
        "num_outputs": "1"
      }, 
      "inputs": [[471, 0, 0]]
    }, 
    {
      "op": "null", 
      "name": "154", 
      "inputs": []
    }, 
    {
      "op": "tvm_op", 
      "name": "batch_norm25_gamma_mul_div", 
      "attrs": {
        "flatten_data": "1", 
        "func_name": "fuse_elemwise_mul_3", 
        "num_inputs": "2", 
        "num_outputs": "1"
      }, 
      "inputs": [[472, 0, 0], [473, 0, 0]]
    }, 
    {
      "op": "tvm_op", 
      "name": "batch_norm25_gamma_mul_div_expand", 
      "attrs": {
        "flatten_data": "0", 
        "func_name": "fuse_expand_dims_3", 
        "num_inputs": "1", 
        "num_outputs": "1"
      }, 
      "inputs": [[474, 0, 0]]
    }, 
    {
      "op": "tvm_op", 
      "name": "batch_norm25_a_mul_data", 
      "attrs": {
        "flatten_data": "0", 
        "func_name": "fuse_broadcast_mul_3", 
        "num_inputs": "2", 
        "num_outputs": "1"
      }, 
      "inputs": [[468, 0, 0], [475, 0, 0]]
    }, 
    {
      "op": "null", 
      "name": "156", 
      "inputs": []
    }, 
    {
      "op": "tvm_op", 
      "name": "batch_norm25_neg_mean", 
      "attrs": {
        "flatten_data": "1", 
        "func_name": "fuse_negative_3", 
        "num_inputs": "1", 
        "num_outputs": "1"
      }, 
      "inputs": [[477, 0, 1]]
    }, 
    {
      "op": "tvm_op", 
      "name": "batch_norm25_neg_mean_mul_a", 
      "attrs": {
        "flatten_data": "1", 
        "func_name": "fuse_elemwise_mul_3", 
        "num_inputs": "2", 
        "num_outputs": "1"
      }, 
      "inputs": [[478, 0, 0], [474, 0, 0]]
    }, 
    {
      "op": "null", 
      "name": "155", 
      "inputs": []
    }, 
    {
      "op": "tvm_op", 
      "name": "batch_norm25_add_beta", 
      "attrs": {
        "flatten_data": "1", 
        "func_name": "fuse_elemwise_add_5", 
        "num_inputs": "2", 
        "num_outputs": "1"
      }, 
      "inputs": [[479, 0, 0], [480, 0, 0]]
    }, 
    {
      "op": "tvm_op", 
      "name": "batch_norm25_add_beta_expand", 
      "attrs": {
        "flatten_data": "0", 
        "func_name": "fuse_expand_dims_3", 
        "num_inputs": "1", 
        "num_outputs": "1"
      }, 
      "inputs": [[481, 0, 0]]
    }, 
    {
      "op": "tvm_op", 
      "name": "batch_norm25_out", 
      "attrs": {
        "flatten_data": "0", 
        "func_name": "fuse_broadcast_add_3", 
        "num_inputs": "2", 
        "num_outputs": "1"
      }, 
      "inputs": [[476, 0, 0], [482, 0, 0]]
    }, 
    {
      "op": "tvm_op", 
      "name": "relu25", 
      "attrs": {
        "flatten_data": "1", 
        "func_name": "fuse_relu", 
        "num_inputs": "1", 
        "num_outputs": "1"
      }, 
      "inputs": [[483, 0, 0]]
    }, 
    {
      "op": "null", 
      "name": "159", 
      "inputs": []
    }, 
    {
      "op": "tvm_op", 
      "name": "conv2d28", 
      "attrs": {
        "flatten_data": "0", 
        "func_name": "fuse_conv2d_8", 
        "num_inputs": "2", 
        "num_outputs": "1"
      }, 
      "inputs": [[484, 0, 0], [485, 0, 0]]
    }, 
    {
      "op": "null", 
      "name": "160", 
      "inputs": []
    }, 
    {
      "op": "tvm_op", 
      "name": "conv2d29", 
      "attrs": {
        "flatten_data": "0", 
        "func_name": "fuse_conv2d_9", 
        "num_inputs": "2", 
        "num_outputs": "1"
      }, 
      "inputs": [[466, 0, 0], [487, 0, 0]]
    }, 
    {
      "op": "tvm_op", 
      "name": "elemwise_add12", 
      "attrs": {
        "flatten_data": "1", 
        "func_name": "fuse_elemwise_add_6", 
        "num_inputs": "2", 
        "num_outputs": "1"
      }, 
      "inputs": [[486, 0, 0], [488, 0, 0]]
    }, 
    {
      "op": "null", 
      "name": "164", 
      "inputs": []
    }, 
    {
      "op": "tvm_op", 
      "name": "batch_norm26_add_eps", 
      "attrs": {
        "flatten_data": "1", 
        "func_name": "fuse___add_scalar___3", 
        "num_inputs": "1", 
        "num_outputs": "1"
      }, 
      "inputs": [[490, 0, 1]]
    }, 
    {
      "op": "tvm_op", 
      "name": "batch_norm26_sqrt", 
      "attrs": {
        "flatten_data": "1", 
        "func_name": "fuse_sqrt_3", 
        "num_inputs": "1", 
        "num_outputs": "1"
      }, 
      "inputs": [[491, 0, 0]]
    }, 
    {
      "op": "tvm_op", 
      "name": "batch_norm26_div", 
      "attrs": {
        "flatten_data": "1", 
        "func_name": "fuse___rdiv_scalar___3", 
        "num_inputs": "1", 
        "num_outputs": "1"
      }, 
      "inputs": [[492, 0, 0]]
    }, 
    {
      "op": "null", 
      "name": "161", 
      "inputs": []
    }, 
    {
      "op": "tvm_op", 
      "name": "batch_norm26_gamma_mul_div", 
      "attrs": {
        "flatten_data": "1", 
        "func_name": "fuse_elemwise_mul_3", 
        "num_inputs": "2", 
        "num_outputs": "1"
      }, 
      "inputs": [[493, 0, 0], [494, 0, 0]]
    }, 
    {
      "op": "tvm_op", 
      "name": "batch_norm26_gamma_mul_div_expand", 
      "attrs": {
        "flatten_data": "0", 
        "func_name": "fuse_expand_dims_3", 
        "num_inputs": "1", 
        "num_outputs": "1"
      }, 
      "inputs": [[495, 0, 0]]
    }, 
    {
      "op": "tvm_op", 
      "name": "batch_norm26_a_mul_data", 
      "attrs": {
        "flatten_data": "0", 
        "func_name": "fuse_broadcast_mul_3", 
        "num_inputs": "2", 
        "num_outputs": "1"
      }, 
      "inputs": [[489, 0, 0], [496, 0, 0]]
    }, 
    {
      "op": "null", 
      "name": "163", 
      "inputs": []
    }, 
    {
      "op": "tvm_op", 
      "name": "batch_norm26_neg_mean", 
      "attrs": {
        "flatten_data": "1", 
        "func_name": "fuse_negative_3", 
        "num_inputs": "1", 
        "num_outputs": "1"
      }, 
      "inputs": [[498, 0, 1]]
    }, 
    {
      "op": "tvm_op", 
      "name": "batch_norm26_neg_mean_mul_a", 
      "attrs": {
        "flatten_data": "1", 
        "func_name": "fuse_elemwise_mul_3", 
        "num_inputs": "2", 
        "num_outputs": "1"
      }, 
      "inputs": [[499, 0, 0], [495, 0, 0]]
    }, 
    {
      "op": "null", 
      "name": "162", 
      "inputs": []
    }, 
    {
      "op": "tvm_op", 
      "name": "batch_norm26_add_beta", 
      "attrs": {
        "flatten_data": "1", 
        "func_name": "fuse_elemwise_add_5", 
        "num_inputs": "2", 
        "num_outputs": "1"
      }, 
      "inputs": [[500, 0, 0], [501, 0, 0]]
    }, 
    {
      "op": "tvm_op", 
      "name": "batch_norm26_add_beta_expand", 
      "attrs": {
        "flatten_data": "0", 
        "func_name": "fuse_expand_dims_3", 
        "num_inputs": "1", 
        "num_outputs": "1"
      }, 
      "inputs": [[502, 0, 0]]
    }, 
    {
      "op": "tvm_op", 
      "name": "batch_norm26_out", 
      "attrs": {
        "flatten_data": "0", 
        "func_name": "fuse_broadcast_add_3", 
        "num_inputs": "2", 
        "num_outputs": "1"
      }, 
      "inputs": [[497, 0, 0], [503, 0, 0]]
    }, 
    {
      "op": "tvm_op", 
      "name": "relu26", 
      "attrs": {
        "flatten_data": "1", 
        "func_name": "fuse_relu", 
        "num_inputs": "1", 
        "num_outputs": "1"
      }, 
      "inputs": [[504, 0, 0]]
    }, 
    {
      "op": "null", 
      "name": "166", 
      "inputs": []
    }, 
    {
      "op": "tvm_op", 
      "name": "conv2d30", 
      "attrs": {
        "flatten_data": "0", 
        "func_name": "fuse_conv2d_8", 
        "num_inputs": "2", 
        "num_outputs": "1"
      }, 
      "inputs": [[505, 0, 0], [506, 0, 0]]
    }, 
    {
      "op": "null", 
      "name": "170", 
      "inputs": []
    }, 
    {
      "op": "tvm_op", 
      "name": "batch_norm27_add_eps", 
      "attrs": {
        "flatten_data": "1", 
        "func_name": "fuse___add_scalar___3", 
        "num_inputs": "1", 
        "num_outputs": "1"
      }, 
      "inputs": [[508, 0, 1]]
    }, 
    {
      "op": "tvm_op", 
      "name": "batch_norm27_sqrt", 
      "attrs": {
        "flatten_data": "1", 
        "func_name": "fuse_sqrt_3", 
        "num_inputs": "1", 
        "num_outputs": "1"
      }, 
      "inputs": [[509, 0, 0]]
    }, 
    {
      "op": "tvm_op", 
      "name": "batch_norm27_div", 
      "attrs": {
        "flatten_data": "1", 
        "func_name": "fuse___rdiv_scalar___3", 
        "num_inputs": "1", 
        "num_outputs": "1"
      }, 
      "inputs": [[510, 0, 0]]
    }, 
    {
      "op": "null", 
      "name": "167", 
      "inputs": []
    }, 
    {
      "op": "tvm_op", 
      "name": "batch_norm27_gamma_mul_div", 
      "attrs": {
        "flatten_data": "1", 
        "func_name": "fuse_elemwise_mul_3", 
        "num_inputs": "2", 
        "num_outputs": "1"
      }, 
      "inputs": [[511, 0, 0], [512, 0, 0]]
    }, 
    {
      "op": "tvm_op", 
      "name": "batch_norm27_gamma_mul_div_expand", 
      "attrs": {
        "flatten_data": "0", 
        "func_name": "fuse_expand_dims_3", 
        "num_inputs": "1", 
        "num_outputs": "1"
      }, 
      "inputs": [[513, 0, 0]]
    }, 
    {
      "op": "tvm_op", 
      "name": "batch_norm27_a_mul_data", 
      "attrs": {
        "flatten_data": "0", 
        "func_name": "fuse_broadcast_mul_3", 
        "num_inputs": "2", 
        "num_outputs": "1"
      }, 
      "inputs": [[507, 0, 0], [514, 0, 0]]
    }, 
    {
      "op": "null", 
      "name": "169", 
      "inputs": []
    }, 
    {
      "op": "tvm_op", 
      "name": "batch_norm27_neg_mean", 
      "attrs": {
        "flatten_data": "1", 
        "func_name": "fuse_negative_3", 
        "num_inputs": "1", 
        "num_outputs": "1"
      }, 
      "inputs": [[516, 0, 1]]
    }, 
    {
      "op": "tvm_op", 
      "name": "batch_norm27_neg_mean_mul_a", 
      "attrs": {
        "flatten_data": "1", 
        "func_name": "fuse_elemwise_mul_3", 
        "num_inputs": "2", 
        "num_outputs": "1"
      }, 
      "inputs": [[517, 0, 0], [513, 0, 0]]
    }, 
    {
      "op": "null", 
      "name": "168", 
      "inputs": []
    }, 
    {
      "op": "tvm_op", 
      "name": "batch_norm27_add_beta", 
      "attrs": {
        "flatten_data": "1", 
        "func_name": "fuse_elemwise_add_5", 
        "num_inputs": "2", 
        "num_outputs": "1"
      }, 
      "inputs": [[518, 0, 0], [519, 0, 0]]
    }, 
    {
      "op": "tvm_op", 
      "name": "batch_norm27_add_beta_expand", 
      "attrs": {
        "flatten_data": "0", 
        "func_name": "fuse_expand_dims_3", 
        "num_inputs": "1", 
        "num_outputs": "1"
      }, 
      "inputs": [[520, 0, 0]]
    }, 
    {
      "op": "tvm_op", 
      "name": "batch_norm27_out", 
      "attrs": {
        "flatten_data": "0", 
        "func_name": "fuse_broadcast_add_3", 
        "num_inputs": "2", 
        "num_outputs": "1"
      }, 
      "inputs": [[515, 0, 0], [521, 0, 0]]
    }, 
    {
      "op": "tvm_op", 
      "name": "relu27", 
      "attrs": {
        "flatten_data": "1", 
        "func_name": "fuse_relu", 
        "num_inputs": "1", 
        "num_outputs": "1"
      }, 
      "inputs": [[522, 0, 0]]
    }, 
    {
      "op": "null", 
      "name": "172", 
      "inputs": []
    }, 
    {
      "op": "tvm_op", 
      "name": "conv2d31", 
      "attrs": {
        "flatten_data": "0", 
        "func_name": "fuse_conv2d_8", 
        "num_inputs": "2", 
        "num_outputs": "1"
      }, 
      "inputs": [[523, 0, 0], [524, 0, 0]]
    }, 
    {
      "op": "tvm_op", 
      "name": "elemwise_add13", 
      "attrs": {
        "flatten_data": "1", 
        "func_name": "fuse_elemwise_add_6", 
        "num_inputs": "2", 
        "num_outputs": "1"
      }, 
      "inputs": [[525, 0, 0], [489, 0, 0]]
    }, 
    {
      "op": "null", 
      "name": "176", 
      "inputs": []
    }, 
    {
      "op": "tvm_op", 
      "name": "batch_norm28_add_eps", 
      "attrs": {
        "flatten_data": "1", 
        "func_name": "fuse___add_scalar___3", 
        "num_inputs": "1", 
        "num_outputs": "1"
      }, 
      "inputs": [[527, 0, 1]]
    }, 
    {
      "op": "tvm_op", 
      "name": "batch_norm28_sqrt", 
      "attrs": {
        "flatten_data": "1", 
        "func_name": "fuse_sqrt_3", 
        "num_inputs": "1", 
        "num_outputs": "1"
      }, 
      "inputs": [[528, 0, 0]]
    }, 
    {
      "op": "tvm_op", 
      "name": "batch_norm28_div", 
      "attrs": {
        "flatten_data": "1", 
        "func_name": "fuse___rdiv_scalar___3", 
        "num_inputs": "1", 
        "num_outputs": "1"
      }, 
      "inputs": [[529, 0, 0]]
    }, 
    {
      "op": "null", 
      "name": "173", 
      "inputs": []
    }, 
    {
      "op": "tvm_op", 
      "name": "batch_norm28_gamma_mul_div", 
      "attrs": {
        "flatten_data": "1", 
        "func_name": "fuse_elemwise_mul_3", 
        "num_inputs": "2", 
        "num_outputs": "1"
      }, 
      "inputs": [[530, 0, 0], [531, 0, 0]]
    }, 
    {
      "op": "tvm_op", 
      "name": "batch_norm28_gamma_mul_div_expand", 
      "attrs": {
        "flatten_data": "0", 
        "func_name": "fuse_expand_dims_3", 
        "num_inputs": "1", 
        "num_outputs": "1"
      }, 
      "inputs": [[532, 0, 0]]
    }, 
    {
      "op": "tvm_op", 
      "name": "batch_norm28_a_mul_data", 
      "attrs": {
        "flatten_data": "0", 
        "func_name": "fuse_broadcast_mul_3", 
        "num_inputs": "2", 
        "num_outputs": "1"
      }, 
      "inputs": [[526, 0, 0], [533, 0, 0]]
    }, 
    {
      "op": "null", 
      "name": "175", 
      "inputs": []
    }, 
    {
      "op": "tvm_op", 
      "name": "batch_norm28_neg_mean", 
      "attrs": {
        "flatten_data": "1", 
        "func_name": "fuse_negative_3", 
        "num_inputs": "1", 
        "num_outputs": "1"
      }, 
      "inputs": [[535, 0, 1]]
    }, 
    {
      "op": "tvm_op", 
      "name": "batch_norm28_neg_mean_mul_a", 
      "attrs": {
        "flatten_data": "1", 
        "func_name": "fuse_elemwise_mul_3", 
        "num_inputs": "2", 
        "num_outputs": "1"
      }, 
      "inputs": [[536, 0, 0], [532, 0, 0]]
    }, 
    {
      "op": "null", 
      "name": "174", 
      "inputs": []
    }, 
    {
      "op": "tvm_op", 
      "name": "batch_norm28_add_beta", 
      "attrs": {
        "flatten_data": "1", 
        "func_name": "fuse_elemwise_add_5", 
        "num_inputs": "2", 
        "num_outputs": "1"
      }, 
      "inputs": [[537, 0, 0], [538, 0, 0]]
    }, 
    {
      "op": "tvm_op", 
      "name": "batch_norm28_add_beta_expand", 
      "attrs": {
        "flatten_data": "0", 
        "func_name": "fuse_expand_dims_3", 
        "num_inputs": "1", 
        "num_outputs": "1"
      }, 
      "inputs": [[539, 0, 0]]
    }, 
    {
      "op": "tvm_op", 
      "name": "batch_norm28_out", 
      "attrs": {
        "flatten_data": "0", 
        "func_name": "fuse_broadcast_add_3", 
        "num_inputs": "2", 
        "num_outputs": "1"
      }, 
      "inputs": [[534, 0, 0], [540, 0, 0]]
    }, 
    {
      "op": "tvm_op", 
      "name": "relu28", 
      "attrs": {
        "flatten_data": "1", 
        "func_name": "fuse_relu", 
        "num_inputs": "1", 
        "num_outputs": "1"
      }, 
      "inputs": [[541, 0, 0]]
    }, 
    {
      "op": "null", 
      "name": "178", 
      "inputs": []
    }, 
    {
      "op": "tvm_op", 
      "name": "conv2d32", 
      "attrs": {
        "flatten_data": "0", 
        "func_name": "fuse_conv2d_8", 
        "num_inputs": "2", 
        "num_outputs": "1"
      }, 
      "inputs": [[542, 0, 0], [543, 0, 0]]
    }, 
    {
      "op": "null", 
      "name": "182", 
      "inputs": []
    }, 
    {
      "op": "tvm_op", 
      "name": "batch_norm29_add_eps", 
      "attrs": {
        "flatten_data": "1", 
        "func_name": "fuse___add_scalar___3", 
        "num_inputs": "1", 
        "num_outputs": "1"
      }, 
      "inputs": [[545, 0, 1]]
    }, 
    {
      "op": "tvm_op", 
      "name": "batch_norm29_sqrt", 
      "attrs": {
        "flatten_data": "1", 
        "func_name": "fuse_sqrt_3", 
        "num_inputs": "1", 
        "num_outputs": "1"
      }, 
      "inputs": [[546, 0, 0]]
    }, 
    {
      "op": "tvm_op", 
      "name": "batch_norm29_div", 
      "attrs": {
        "flatten_data": "1", 
        "func_name": "fuse___rdiv_scalar___3", 
        "num_inputs": "1", 
        "num_outputs": "1"
      }, 
      "inputs": [[547, 0, 0]]
    }, 
    {
      "op": "null", 
      "name": "179", 
      "inputs": []
    }, 
    {
      "op": "tvm_op", 
      "name": "batch_norm29_gamma_mul_div", 
      "attrs": {
        "flatten_data": "1", 
        "func_name": "fuse_elemwise_mul_3", 
        "num_inputs": "2", 
        "num_outputs": "1"
      }, 
      "inputs": [[548, 0, 0], [549, 0, 0]]
    }, 
    {
      "op": "tvm_op", 
      "name": "batch_norm29_gamma_mul_div_expand", 
      "attrs": {
        "flatten_data": "0", 
        "func_name": "fuse_expand_dims_3", 
        "num_inputs": "1", 
        "num_outputs": "1"
      }, 
      "inputs": [[550, 0, 0]]
    }, 
    {
      "op": "tvm_op", 
      "name": "batch_norm29_a_mul_data", 
      "attrs": {
        "flatten_data": "0", 
        "func_name": "fuse_broadcast_mul_3", 
        "num_inputs": "2", 
        "num_outputs": "1"
      }, 
      "inputs": [[544, 0, 0], [551, 0, 0]]
    }, 
    {
      "op": "null", 
      "name": "181", 
      "inputs": []
    }, 
    {
      "op": "tvm_op", 
      "name": "batch_norm29_neg_mean", 
      "attrs": {
        "flatten_data": "1", 
        "func_name": "fuse_negative_3", 
        "num_inputs": "1", 
        "num_outputs": "1"
      }, 
      "inputs": [[553, 0, 1]]
    }, 
    {
      "op": "tvm_op", 
      "name": "batch_norm29_neg_mean_mul_a", 
      "attrs": {
        "flatten_data": "1", 
        "func_name": "fuse_elemwise_mul_3", 
        "num_inputs": "2", 
        "num_outputs": "1"
      }, 
      "inputs": [[554, 0, 0], [550, 0, 0]]
    }, 
    {
      "op": "null", 
      "name": "180", 
      "inputs": []
    }, 
    {
      "op": "tvm_op", 
      "name": "batch_norm29_add_beta", 
      "attrs": {
        "flatten_data": "1", 
        "func_name": "fuse_elemwise_add_5", 
        "num_inputs": "2", 
        "num_outputs": "1"
      }, 
      "inputs": [[555, 0, 0], [556, 0, 0]]
    }, 
    {
      "op": "tvm_op", 
      "name": "batch_norm29_add_beta_expand", 
      "attrs": {
        "flatten_data": "0", 
        "func_name": "fuse_expand_dims_3", 
        "num_inputs": "1", 
        "num_outputs": "1"
      }, 
      "inputs": [[557, 0, 0]]
    }, 
    {
      "op": "tvm_op", 
      "name": "batch_norm29_out", 
      "attrs": {
        "flatten_data": "0", 
        "func_name": "fuse_broadcast_add_3", 
        "num_inputs": "2", 
        "num_outputs": "1"
      }, 
      "inputs": [[552, 0, 0], [558, 0, 0]]
    }, 
    {
      "op": "tvm_op", 
      "name": "relu29", 
      "attrs": {
        "flatten_data": "1", 
        "func_name": "fuse_relu", 
        "num_inputs": "1", 
        "num_outputs": "1"
      }, 
      "inputs": [[559, 0, 0]]
    }, 
    {
      "op": "null", 
      "name": "184", 
      "inputs": []
    }, 
    {
      "op": "tvm_op", 
      "name": "conv2d33", 
      "attrs": {
        "flatten_data": "0", 
        "func_name": "fuse_conv2d_8", 
        "num_inputs": "2", 
        "num_outputs": "1"
      }, 
      "inputs": [[560, 0, 0], [561, 0, 0]]
    }, 
    {
      "op": "tvm_op", 
      "name": "elemwise_add14", 
      "attrs": {
        "flatten_data": "1", 
        "func_name": "fuse_elemwise_add_6", 
        "num_inputs": "2", 
        "num_outputs": "1"
      }, 
      "inputs": [[562, 0, 0], [526, 0, 0]]
    }, 
    {
      "op": "null", 
      "name": "188", 
      "inputs": []
    }, 
    {
      "op": "tvm_op", 
      "name": "batch_norm30_add_eps", 
      "attrs": {
        "flatten_data": "1", 
        "func_name": "fuse___add_scalar___3", 
        "num_inputs": "1", 
        "num_outputs": "1"
      }, 
      "inputs": [[564, 0, 1]]
    }, 
    {
      "op": "tvm_op", 
      "name": "batch_norm30_sqrt", 
      "attrs": {
        "flatten_data": "1", 
        "func_name": "fuse_sqrt_3", 
        "num_inputs": "1", 
        "num_outputs": "1"
      }, 
      "inputs": [[565, 0, 0]]
    }, 
    {
      "op": "tvm_op", 
      "name": "batch_norm30_div", 
      "attrs": {
        "flatten_data": "1", 
        "func_name": "fuse___rdiv_scalar___3", 
        "num_inputs": "1", 
        "num_outputs": "1"
      }, 
      "inputs": [[566, 0, 0]]
    }, 
    {
      "op": "null", 
      "name": "185", 
      "inputs": []
    }, 
    {
      "op": "tvm_op", 
      "name": "batch_norm30_gamma_mul_div", 
      "attrs": {
        "flatten_data": "1", 
        "func_name": "fuse_elemwise_mul_3", 
        "num_inputs": "2", 
        "num_outputs": "1"
      }, 
      "inputs": [[567, 0, 0], [568, 0, 0]]
    }, 
    {
      "op": "tvm_op", 
      "name": "batch_norm30_gamma_mul_div_expand", 
      "attrs": {
        "flatten_data": "0", 
        "func_name": "fuse_expand_dims_3", 
        "num_inputs": "1", 
        "num_outputs": "1"
      }, 
      "inputs": [[569, 0, 0]]
    }, 
    {
      "op": "tvm_op", 
      "name": "batch_norm30_a_mul_data", 
      "attrs": {
        "flatten_data": "0", 
        "func_name": "fuse_broadcast_mul_3", 
        "num_inputs": "2", 
        "num_outputs": "1"
      }, 
      "inputs": [[563, 0, 0], [570, 0, 0]]
    }, 
    {
      "op": "null", 
      "name": "187", 
      "inputs": []
    }, 
    {
      "op": "tvm_op", 
      "name": "batch_norm30_neg_mean", 
      "attrs": {
        "flatten_data": "1", 
        "func_name": "fuse_negative_3", 
        "num_inputs": "1", 
        "num_outputs": "1"
      }, 
      "inputs": [[572, 0, 1]]
    }, 
    {
      "op": "tvm_op", 
      "name": "batch_norm30_neg_mean_mul_a", 
      "attrs": {
        "flatten_data": "1", 
        "func_name": "fuse_elemwise_mul_3", 
        "num_inputs": "2", 
        "num_outputs": "1"
      }, 
      "inputs": [[573, 0, 0], [569, 0, 0]]
    }, 
    {
      "op": "null", 
      "name": "186", 
      "inputs": []
    }, 
    {
      "op": "tvm_op", 
      "name": "batch_norm30_add_beta", 
      "attrs": {
        "flatten_data": "1", 
        "func_name": "fuse_elemwise_add_5", 
        "num_inputs": "2", 
        "num_outputs": "1"
      }, 
      "inputs": [[574, 0, 0], [575, 0, 0]]
    }, 
    {
      "op": "tvm_op", 
      "name": "batch_norm30_add_beta_expand", 
      "attrs": {
        "flatten_data": "0", 
        "func_name": "fuse_expand_dims_3", 
        "num_inputs": "1", 
        "num_outputs": "1"
      }, 
      "inputs": [[576, 0, 0]]
    }, 
    {
      "op": "tvm_op", 
      "name": "batch_norm30_out", 
      "attrs": {
        "flatten_data": "0", 
        "func_name": "fuse_broadcast_add_3", 
        "num_inputs": "2", 
        "num_outputs": "1"
      }, 
      "inputs": [[571, 0, 0], [577, 0, 0]]
    }, 
    {
      "op": "tvm_op", 
      "name": "relu30", 
      "attrs": {
        "flatten_data": "1", 
        "func_name": "fuse_relu", 
        "num_inputs": "1", 
        "num_outputs": "1"
      }, 
      "inputs": [[578, 0, 0]]
    }, 
    {
      "op": "null", 
      "name": "190", 
      "inputs": []
    }, 
    {
      "op": "tvm_op", 
      "name": "conv2d34", 
      "attrs": {
        "flatten_data": "0", 
        "func_name": "fuse_conv2d_8", 
        "num_inputs": "2", 
        "num_outputs": "1"
      }, 
      "inputs": [[579, 0, 0], [580, 0, 0]]
    }, 
    {
      "op": "null", 
      "name": "194", 
      "inputs": []
    }, 
    {
      "op": "tvm_op", 
      "name": "batch_norm31_add_eps", 
      "attrs": {
        "flatten_data": "1", 
        "func_name": "fuse___add_scalar___3", 
        "num_inputs": "1", 
        "num_outputs": "1"
      }, 
      "inputs": [[582, 0, 1]]
    }, 
    {
      "op": "tvm_op", 
      "name": "batch_norm31_sqrt", 
      "attrs": {
        "flatten_data": "1", 
        "func_name": "fuse_sqrt_3", 
        "num_inputs": "1", 
        "num_outputs": "1"
      }, 
      "inputs": [[583, 0, 0]]
    }, 
    {
      "op": "tvm_op", 
      "name": "batch_norm31_div", 
      "attrs": {
        "flatten_data": "1", 
        "func_name": "fuse___rdiv_scalar___3", 
        "num_inputs": "1", 
        "num_outputs": "1"
      }, 
      "inputs": [[584, 0, 0]]
    }, 
    {
      "op": "null", 
      "name": "191", 
      "inputs": []
    }, 
    {
      "op": "tvm_op", 
      "name": "batch_norm31_gamma_mul_div", 
      "attrs": {
        "flatten_data": "1", 
        "func_name": "fuse_elemwise_mul_3", 
        "num_inputs": "2", 
        "num_outputs": "1"
      }, 
      "inputs": [[585, 0, 0], [586, 0, 0]]
    }, 
    {
      "op": "tvm_op", 
      "name": "batch_norm31_gamma_mul_div_expand", 
      "attrs": {
        "flatten_data": "0", 
        "func_name": "fuse_expand_dims_3", 
        "num_inputs": "1", 
        "num_outputs": "1"
      }, 
      "inputs": [[587, 0, 0]]
    }, 
    {
      "op": "tvm_op", 
      "name": "batch_norm31_a_mul_data", 
      "attrs": {
        "flatten_data": "0", 
        "func_name": "fuse_broadcast_mul_3", 
        "num_inputs": "2", 
        "num_outputs": "1"
      }, 
      "inputs": [[581, 0, 0], [588, 0, 0]]
    }, 
    {
      "op": "null", 
      "name": "193", 
      "inputs": []
    }, 
    {
      "op": "tvm_op", 
      "name": "batch_norm31_neg_mean", 
      "attrs": {
        "flatten_data": "1", 
        "func_name": "fuse_negative_3", 
        "num_inputs": "1", 
        "num_outputs": "1"
      }, 
      "inputs": [[590, 0, 1]]
    }, 
    {
      "op": "tvm_op", 
      "name": "batch_norm31_neg_mean_mul_a", 
      "attrs": {
        "flatten_data": "1", 
        "func_name": "fuse_elemwise_mul_3", 
        "num_inputs": "2", 
        "num_outputs": "1"
      }, 
      "inputs": [[591, 0, 0], [587, 0, 0]]
    }, 
    {
      "op": "null", 
      "name": "192", 
      "inputs": []
    }, 
    {
      "op": "tvm_op", 
      "name": "batch_norm31_add_beta", 
      "attrs": {
        "flatten_data": "1", 
        "func_name": "fuse_elemwise_add_5", 
        "num_inputs": "2", 
        "num_outputs": "1"
      }, 
      "inputs": [[592, 0, 0], [593, 0, 0]]
    }, 
    {
      "op": "tvm_op", 
      "name": "batch_norm31_add_beta_expand", 
      "attrs": {
        "flatten_data": "0", 
        "func_name": "fuse_expand_dims_3", 
        "num_inputs": "1", 
        "num_outputs": "1"
      }, 
      "inputs": [[594, 0, 0]]
    }, 
    {
      "op": "tvm_op", 
      "name": "batch_norm31_out", 
      "attrs": {
        "flatten_data": "0", 
        "func_name": "fuse_broadcast_add_3", 
        "num_inputs": "2", 
        "num_outputs": "1"
      }, 
      "inputs": [[589, 0, 0], [595, 0, 0]]
    }, 
    {
      "op": "tvm_op", 
      "name": "relu31", 
      "attrs": {
        "flatten_data": "1", 
        "func_name": "fuse_relu", 
        "num_inputs": "1", 
        "num_outputs": "1"
      }, 
      "inputs": [[596, 0, 0]]
    }, 
    {
      "op": "null", 
      "name": "196", 
      "inputs": []
    }, 
    {
      "op": "tvm_op", 
      "name": "conv2d35", 
      "attrs": {
        "flatten_data": "0", 
        "func_name": "fuse_conv2d_8", 
        "num_inputs": "2", 
        "num_outputs": "1"
      }, 
      "inputs": [[597, 0, 0], [598, 0, 0]]
    }, 
    {
      "op": "tvm_op", 
      "name": "elemwise_add15", 
      "attrs": {
        "flatten_data": "1", 
        "func_name": "fuse_elemwise_add_6", 
        "num_inputs": "2", 
        "num_outputs": "1"
      }, 
      "inputs": [[599, 0, 0], [563, 0, 0]]
    }, 
    {
      "op": "null", 
      "name": "200", 
      "inputs": []
    }, 
    {
      "op": "tvm_op", 
      "name": "batch_norm32_add_eps", 
      "attrs": {
        "flatten_data": "1", 
        "func_name": "fuse___add_scalar___3", 
        "num_inputs": "1", 
        "num_outputs": "1"
      }, 
      "inputs": [[601, 0, 1]]
    }, 
    {
      "op": "tvm_op", 
      "name": "batch_norm32_sqrt", 
      "attrs": {
        "flatten_data": "1", 
        "func_name": "fuse_sqrt_3", 
        "num_inputs": "1", 
        "num_outputs": "1"
      }, 
      "inputs": [[602, 0, 0]]
    }, 
    {
      "op": "tvm_op", 
      "name": "batch_norm32_div", 
      "attrs": {
        "flatten_data": "1", 
        "func_name": "fuse___rdiv_scalar___3", 
        "num_inputs": "1", 
        "num_outputs": "1"
      }, 
      "inputs": [[603, 0, 0]]
    }, 
    {
      "op": "null", 
      "name": "197", 
      "inputs": []
    }, 
    {
      "op": "tvm_op", 
      "name": "batch_norm32_gamma_mul_div", 
      "attrs": {
        "flatten_data": "1", 
        "func_name": "fuse_elemwise_mul_3", 
        "num_inputs": "2", 
        "num_outputs": "1"
      }, 
      "inputs": [[604, 0, 0], [605, 0, 0]]
    }, 
    {
      "op": "tvm_op", 
      "name": "batch_norm32_gamma_mul_div_expand", 
      "attrs": {
        "flatten_data": "0", 
        "func_name": "fuse_expand_dims_3", 
        "num_inputs": "1", 
        "num_outputs": "1"
      }, 
      "inputs": [[606, 0, 0]]
    }, 
    {
      "op": "tvm_op", 
      "name": "batch_norm32_a_mul_data", 
      "attrs": {
        "flatten_data": "0", 
        "func_name": "fuse_broadcast_mul_3", 
        "num_inputs": "2", 
        "num_outputs": "1"
      }, 
      "inputs": [[600, 0, 0], [607, 0, 0]]
    }, 
    {
      "op": "null", 
      "name": "199", 
      "inputs": []
    }, 
    {
      "op": "tvm_op", 
      "name": "batch_norm32_neg_mean", 
      "attrs": {
        "flatten_data": "1", 
        "func_name": "fuse_negative_3", 
        "num_inputs": "1", 
        "num_outputs": "1"
      }, 
      "inputs": [[609, 0, 1]]
    }, 
    {
      "op": "tvm_op", 
      "name": "batch_norm32_neg_mean_mul_a", 
      "attrs": {
        "flatten_data": "1", 
        "func_name": "fuse_elemwise_mul_3", 
        "num_inputs": "2", 
        "num_outputs": "1"
      }, 
      "inputs": [[610, 0, 0], [606, 0, 0]]
    }, 
    {
      "op": "null", 
      "name": "198", 
      "inputs": []
    }, 
    {
      "op": "tvm_op", 
      "name": "batch_norm32_add_beta", 
      "attrs": {
        "flatten_data": "1", 
        "func_name": "fuse_elemwise_add_5", 
        "num_inputs": "2", 
        "num_outputs": "1"
      }, 
      "inputs": [[611, 0, 0], [612, 0, 0]]
    }, 
    {
      "op": "tvm_op", 
      "name": "batch_norm32_add_beta_expand", 
      "attrs": {
        "flatten_data": "0", 
        "func_name": "fuse_expand_dims_3", 
        "num_inputs": "1", 
        "num_outputs": "1"
      }, 
      "inputs": [[613, 0, 0]]
    }, 
    {
      "op": "tvm_op", 
      "name": "batch_norm32_out", 
      "attrs": {
        "flatten_data": "0", 
        "func_name": "fuse_broadcast_add_3", 
        "num_inputs": "2", 
        "num_outputs": "1"
      }, 
      "inputs": [[608, 0, 0], [614, 0, 0]]
    }, 
    {
      "op": "tvm_op", 
      "name": "relu32", 
      "attrs": {
        "flatten_data": "1", 
        "func_name": "fuse_relu", 
        "num_inputs": "1", 
        "num_outputs": "1"
      }, 
      "inputs": [[615, 0, 0]]
    }, 
    {
      "op": "null", 
      "name": "202", 
      "inputs": []
    }, 
    {
      "op": "tvm_op", 
      "name": "conv2d36", 
      "attrs": {
        "flatten_data": "0", 
        "func_name": "fuse_conv2d_8", 
        "num_inputs": "2", 
        "num_outputs": "1"
      }, 
      "inputs": [[616, 0, 0], [617, 0, 0]]
    }, 
    {
      "op": "null", 
      "name": "206", 
      "inputs": []
    }, 
    {
      "op": "tvm_op", 
      "name": "batch_norm33_add_eps", 
      "attrs": {
        "flatten_data": "1", 
        "func_name": "fuse___add_scalar___3", 
        "num_inputs": "1", 
        "num_outputs": "1"
      }, 
      "inputs": [[619, 0, 1]]
    }, 
    {
      "op": "tvm_op", 
      "name": "batch_norm33_sqrt", 
      "attrs": {
        "flatten_data": "1", 
        "func_name": "fuse_sqrt_3", 
        "num_inputs": "1", 
        "num_outputs": "1"
      }, 
      "inputs": [[620, 0, 0]]
    }, 
    {
      "op": "tvm_op", 
      "name": "batch_norm33_div", 
      "attrs": {
        "flatten_data": "1", 
        "func_name": "fuse___rdiv_scalar___3", 
        "num_inputs": "1", 
        "num_outputs": "1"
      }, 
      "inputs": [[621, 0, 0]]
    }, 
    {
      "op": "null", 
      "name": "203", 
      "inputs": []
    }, 
    {
      "op": "tvm_op", 
      "name": "batch_norm33_gamma_mul_div", 
      "attrs": {
        "flatten_data": "1", 
        "func_name": "fuse_elemwise_mul_3", 
        "num_inputs": "2", 
        "num_outputs": "1"
      }, 
      "inputs": [[622, 0, 0], [623, 0, 0]]
    }, 
    {
      "op": "tvm_op", 
      "name": "batch_norm33_gamma_mul_div_expand", 
      "attrs": {
        "flatten_data": "0", 
        "func_name": "fuse_expand_dims_3", 
        "num_inputs": "1", 
        "num_outputs": "1"
      }, 
      "inputs": [[624, 0, 0]]
    }, 
    {
      "op": "tvm_op", 
      "name": "batch_norm33_a_mul_data", 
      "attrs": {
        "flatten_data": "0", 
        "func_name": "fuse_broadcast_mul_3", 
        "num_inputs": "2", 
        "num_outputs": "1"
      }, 
      "inputs": [[618, 0, 0], [625, 0, 0]]
    }, 
    {
      "op": "null", 
      "name": "205", 
      "inputs": []
    }, 
    {
      "op": "tvm_op", 
      "name": "batch_norm33_neg_mean", 
      "attrs": {
        "flatten_data": "1", 
        "func_name": "fuse_negative_3", 
        "num_inputs": "1", 
        "num_outputs": "1"
      }, 
      "inputs": [[627, 0, 1]]
    }, 
    {
      "op": "tvm_op", 
      "name": "batch_norm33_neg_mean_mul_a", 
      "attrs": {
        "flatten_data": "1", 
        "func_name": "fuse_elemwise_mul_3", 
        "num_inputs": "2", 
        "num_outputs": "1"
      }, 
      "inputs": [[628, 0, 0], [624, 0, 0]]
    }, 
    {
      "op": "null", 
      "name": "204", 
      "inputs": []
    }, 
    {
      "op": "tvm_op", 
      "name": "batch_norm33_add_beta", 
      "attrs": {
        "flatten_data": "1", 
        "func_name": "fuse_elemwise_add_5", 
        "num_inputs": "2", 
        "num_outputs": "1"
      }, 
      "inputs": [[629, 0, 0], [630, 0, 0]]
    }, 
    {
      "op": "tvm_op", 
      "name": "batch_norm33_add_beta_expand", 
      "attrs": {
        "flatten_data": "0", 
        "func_name": "fuse_expand_dims_3", 
        "num_inputs": "1", 
        "num_outputs": "1"
      }, 
      "inputs": [[631, 0, 0]]
    }, 
    {
      "op": "tvm_op", 
      "name": "batch_norm33_out", 
      "attrs": {
        "flatten_data": "0", 
        "func_name": "fuse_broadcast_add_3", 
        "num_inputs": "2", 
        "num_outputs": "1"
      }, 
      "inputs": [[626, 0, 0], [632, 0, 0]]
    }, 
    {
      "op": "tvm_op", 
      "name": "relu33", 
      "attrs": {
        "flatten_data": "1", 
        "func_name": "fuse_relu", 
        "num_inputs": "1", 
        "num_outputs": "1"
      }, 
      "inputs": [[633, 0, 0]]
    }, 
    {
      "op": "null", 
      "name": "208", 
      "inputs": []
    }, 
    {
      "op": "tvm_op", 
      "name": "conv2d37", 
      "attrs": {
        "flatten_data": "0", 
        "func_name": "fuse_conv2d_8", 
        "num_inputs": "2", 
        "num_outputs": "1"
      }, 
      "inputs": [[634, 0, 0], [635, 0, 0]]
    }, 
    {
      "op": "tvm_op", 
      "name": "elemwise_add16", 
      "attrs": {
        "flatten_data": "1", 
        "func_name": "fuse_elemwise_add_6", 
        "num_inputs": "2", 
        "num_outputs": "1"
      }, 
      "inputs": [[636, 0, 0], [600, 0, 0]]
    }, 
    {
      "op": "null", 
      "name": "212", 
      "inputs": []
    }, 
    {
      "op": "tvm_op", 
      "name": "batch_norm34_add_eps", 
      "attrs": {
        "flatten_data": "1", 
        "func_name": "fuse___add_scalar___3", 
        "num_inputs": "1", 
        "num_outputs": "1"
      }, 
      "inputs": [[638, 0, 1]]
    }, 
    {
      "op": "tvm_op", 
      "name": "batch_norm34_sqrt", 
      "attrs": {
        "flatten_data": "1", 
        "func_name": "fuse_sqrt_3", 
        "num_inputs": "1", 
        "num_outputs": "1"
      }, 
      "inputs": [[639, 0, 0]]
    }, 
    {
      "op": "tvm_op", 
      "name": "batch_norm34_div", 
      "attrs": {
        "flatten_data": "1", 
        "func_name": "fuse___rdiv_scalar___3", 
        "num_inputs": "1", 
        "num_outputs": "1"
      }, 
      "inputs": [[640, 0, 0]]
    }, 
    {
      "op": "null", 
      "name": "209", 
      "inputs": []
    }, 
    {
      "op": "tvm_op", 
      "name": "batch_norm34_gamma_mul_div", 
      "attrs": {
        "flatten_data": "1", 
        "func_name": "fuse_elemwise_mul_3", 
        "num_inputs": "2", 
        "num_outputs": "1"
      }, 
      "inputs": [[641, 0, 0], [642, 0, 0]]
    }, 
    {
      "op": "tvm_op", 
      "name": "batch_norm34_gamma_mul_div_expand", 
      "attrs": {
        "flatten_data": "0", 
        "func_name": "fuse_expand_dims_3", 
        "num_inputs": "1", 
        "num_outputs": "1"
      }, 
      "inputs": [[643, 0, 0]]
    }, 
    {
      "op": "tvm_op", 
      "name": "batch_norm34_a_mul_data", 
      "attrs": {
        "flatten_data": "0", 
        "func_name": "fuse_broadcast_mul_3", 
        "num_inputs": "2", 
        "num_outputs": "1"
      }, 
      "inputs": [[637, 0, 0], [644, 0, 0]]
    }, 
    {
      "op": "null", 
      "name": "211", 
      "inputs": []
    }, 
    {
      "op": "tvm_op", 
      "name": "batch_norm34_neg_mean", 
      "attrs": {
        "flatten_data": "1", 
        "func_name": "fuse_negative_3", 
        "num_inputs": "1", 
        "num_outputs": "1"
      }, 
      "inputs": [[646, 0, 1]]
    }, 
    {
      "op": "tvm_op", 
      "name": "batch_norm34_neg_mean_mul_a", 
      "attrs": {
        "flatten_data": "1", 
        "func_name": "fuse_elemwise_mul_3", 
        "num_inputs": "2", 
        "num_outputs": "1"
      }, 
      "inputs": [[647, 0, 0], [643, 0, 0]]
    }, 
    {
      "op": "null", 
      "name": "210", 
      "inputs": []
    }, 
    {
      "op": "tvm_op", 
      "name": "batch_norm34_add_beta", 
      "attrs": {
        "flatten_data": "1", 
        "func_name": "fuse_elemwise_add_5", 
        "num_inputs": "2", 
        "num_outputs": "1"
      }, 
      "inputs": [[648, 0, 0], [649, 0, 0]]
    }, 
    {
      "op": "tvm_op", 
      "name": "batch_norm34_add_beta_expand", 
      "attrs": {
        "flatten_data": "0", 
        "func_name": "fuse_expand_dims_3", 
        "num_inputs": "1", 
        "num_outputs": "1"
      }, 
      "inputs": [[650, 0, 0]]
    }, 
    {
      "op": "tvm_op", 
      "name": "batch_norm34_out", 
      "attrs": {
        "flatten_data": "0", 
        "func_name": "fuse_broadcast_add_3", 
        "num_inputs": "2", 
        "num_outputs": "1"
      }, 
      "inputs": [[645, 0, 0], [651, 0, 0]]
    }, 
    {
      "op": "tvm_op", 
      "name": "relu34", 
      "attrs": {
        "flatten_data": "1", 
        "func_name": "fuse_relu", 
        "num_inputs": "1", 
        "num_outputs": "1"
      }, 
      "inputs": [[652, 0, 0]]
    }, 
    {
      "op": "null", 
      "name": "214", 
      "inputs": []
    }, 
    {
      "op": "tvm_op", 
      "name": "conv2d38", 
      "attrs": {
        "flatten_data": "0", 
        "func_name": "fuse_conv2d_8", 
        "num_inputs": "2", 
        "num_outputs": "1"
      }, 
      "inputs": [[653, 0, 0], [654, 0, 0]]
    }, 
    {
      "op": "null", 
      "name": "218", 
      "inputs": []
    }, 
    {
      "op": "tvm_op", 
      "name": "batch_norm35_add_eps", 
      "attrs": {
        "flatten_data": "1", 
        "func_name": "fuse___add_scalar___3", 
        "num_inputs": "1", 
        "num_outputs": "1"
      }, 
      "inputs": [[656, 0, 1]]
    }, 
    {
      "op": "tvm_op", 
      "name": "batch_norm35_sqrt", 
      "attrs": {
        "flatten_data": "1", 
        "func_name": "fuse_sqrt_3", 
        "num_inputs": "1", 
        "num_outputs": "1"
      }, 
      "inputs": [[657, 0, 0]]
    }, 
    {
      "op": "tvm_op", 
      "name": "batch_norm35_div", 
      "attrs": {
        "flatten_data": "1", 
        "func_name": "fuse___rdiv_scalar___3", 
        "num_inputs": "1", 
        "num_outputs": "1"
      }, 
      "inputs": [[658, 0, 0]]
    }, 
    {
      "op": "null", 
      "name": "215", 
      "inputs": []
    }, 
    {
      "op": "tvm_op", 
      "name": "batch_norm35_gamma_mul_div", 
      "attrs": {
        "flatten_data": "1", 
        "func_name": "fuse_elemwise_mul_3", 
        "num_inputs": "2", 
        "num_outputs": "1"
      }, 
      "inputs": [[659, 0, 0], [660, 0, 0]]
    }, 
    {
      "op": "tvm_op", 
      "name": "batch_norm35_gamma_mul_div_expand", 
      "attrs": {
        "flatten_data": "0", 
        "func_name": "fuse_expand_dims_3", 
        "num_inputs": "1", 
        "num_outputs": "1"
      }, 
      "inputs": [[661, 0, 0]]
    }, 
    {
      "op": "tvm_op", 
      "name": "batch_norm35_a_mul_data", 
      "attrs": {
        "flatten_data": "0", 
        "func_name": "fuse_broadcast_mul_3", 
        "num_inputs": "2", 
        "num_outputs": "1"
      }, 
      "inputs": [[655, 0, 0], [662, 0, 0]]
    }, 
    {
      "op": "null", 
      "name": "217", 
      "inputs": []
    }, 
    {
      "op": "tvm_op", 
      "name": "batch_norm35_neg_mean", 
      "attrs": {
        "flatten_data": "1", 
        "func_name": "fuse_negative_3", 
        "num_inputs": "1", 
        "num_outputs": "1"
      }, 
      "inputs": [[664, 0, 1]]
    }, 
    {
      "op": "tvm_op", 
      "name": "batch_norm35_neg_mean_mul_a", 
      "attrs": {
        "flatten_data": "1", 
        "func_name": "fuse_elemwise_mul_3", 
        "num_inputs": "2", 
        "num_outputs": "1"
      }, 
      "inputs": [[665, 0, 0], [661, 0, 0]]
    }, 
    {
      "op": "null", 
      "name": "216", 
      "inputs": []
    }, 
    {
      "op": "tvm_op", 
      "name": "batch_norm35_add_beta", 
      "attrs": {
        "flatten_data": "1", 
        "func_name": "fuse_elemwise_add_5", 
        "num_inputs": "2", 
        "num_outputs": "1"
      }, 
      "inputs": [[666, 0, 0], [667, 0, 0]]
    }, 
    {
      "op": "tvm_op", 
      "name": "batch_norm35_add_beta_expand", 
      "attrs": {
        "flatten_data": "0", 
        "func_name": "fuse_expand_dims_3", 
        "num_inputs": "1", 
        "num_outputs": "1"
      }, 
      "inputs": [[668, 0, 0]]
    }, 
    {
      "op": "tvm_op", 
      "name": "batch_norm35_out", 
      "attrs": {
        "flatten_data": "0", 
        "func_name": "fuse_broadcast_add_3", 
        "num_inputs": "2", 
        "num_outputs": "1"
      }, 
      "inputs": [[663, 0, 0], [669, 0, 0]]
    }, 
    {
      "op": "tvm_op", 
      "name": "relu35", 
      "attrs": {
        "flatten_data": "1", 
        "func_name": "fuse_relu", 
        "num_inputs": "1", 
        "num_outputs": "1"
      }, 
      "inputs": [[670, 0, 0]]
    }, 
    {
      "op": "null", 
      "name": "220", 
      "inputs": []
    }, 
    {
      "op": "tvm_op", 
      "name": "conv2d39", 
      "attrs": {
        "flatten_data": "0", 
        "func_name": "fuse_conv2d_8", 
        "num_inputs": "2", 
        "num_outputs": "1"
      }, 
      "inputs": [[671, 0, 0], [672, 0, 0]]
    }, 
    {
      "op": "tvm_op", 
      "name": "elemwise_add17", 
      "attrs": {
        "flatten_data": "1", 
        "func_name": "fuse_elemwise_add_6", 
        "num_inputs": "2", 
        "num_outputs": "1"
      }, 
      "inputs": [[673, 0, 0], [637, 0, 0]]
    }, 
    {
      "op": "null", 
      "name": "224", 
      "inputs": []
    }, 
    {
      "op": "tvm_op", 
      "name": "batch_norm36_add_eps", 
      "attrs": {
        "flatten_data": "1", 
        "func_name": "fuse___add_scalar___3", 
        "num_inputs": "1", 
        "num_outputs": "1"
      }, 
      "inputs": [[675, 0, 1]]
    }, 
    {
      "op": "tvm_op", 
      "name": "batch_norm36_sqrt", 
      "attrs": {
        "flatten_data": "1", 
        "func_name": "fuse_sqrt_3", 
        "num_inputs": "1", 
        "num_outputs": "1"
      }, 
      "inputs": [[676, 0, 0]]
    }, 
    {
      "op": "tvm_op", 
      "name": "batch_norm36_div", 
      "attrs": {
        "flatten_data": "1", 
        "func_name": "fuse___rdiv_scalar___3", 
        "num_inputs": "1", 
        "num_outputs": "1"
      }, 
      "inputs": [[677, 0, 0]]
    }, 
    {
      "op": "null", 
      "name": "221", 
      "inputs": []
    }, 
    {
      "op": "tvm_op", 
      "name": "batch_norm36_gamma_mul_div", 
      "attrs": {
        "flatten_data": "1", 
        "func_name": "fuse_elemwise_mul_3", 
        "num_inputs": "2", 
        "num_outputs": "1"
      }, 
      "inputs": [[678, 0, 0], [679, 0, 0]]
    }, 
    {
      "op": "tvm_op", 
      "name": "batch_norm36_gamma_mul_div_expand", 
      "attrs": {
        "flatten_data": "0", 
        "func_name": "fuse_expand_dims_3", 
        "num_inputs": "1", 
        "num_outputs": "1"
      }, 
      "inputs": [[680, 0, 0]]
    }, 
    {
      "op": "tvm_op", 
      "name": "batch_norm36_a_mul_data", 
      "attrs": {
        "flatten_data": "0", 
        "func_name": "fuse_broadcast_mul_3", 
        "num_inputs": "2", 
        "num_outputs": "1"
      }, 
      "inputs": [[674, 0, 0], [681, 0, 0]]
    }, 
    {
      "op": "null", 
      "name": "223", 
      "inputs": []
    }, 
    {
      "op": "tvm_op", 
      "name": "batch_norm36_neg_mean", 
      "attrs": {
        "flatten_data": "1", 
        "func_name": "fuse_negative_3", 
        "num_inputs": "1", 
        "num_outputs": "1"
      }, 
      "inputs": [[683, 0, 1]]
    }, 
    {
      "op": "tvm_op", 
      "name": "batch_norm36_neg_mean_mul_a", 
      "attrs": {
        "flatten_data": "1", 
        "func_name": "fuse_elemwise_mul_3", 
        "num_inputs": "2", 
        "num_outputs": "1"
      }, 
      "inputs": [[684, 0, 0], [680, 0, 0]]
    }, 
    {
      "op": "null", 
      "name": "222", 
      "inputs": []
    }, 
    {
      "op": "tvm_op", 
      "name": "batch_norm36_add_beta", 
      "attrs": {
        "flatten_data": "1", 
        "func_name": "fuse_elemwise_add_5", 
        "num_inputs": "2", 
        "num_outputs": "1"
      }, 
      "inputs": [[685, 0, 0], [686, 0, 0]]
    }, 
    {
      "op": "tvm_op", 
      "name": "batch_norm36_add_beta_expand", 
      "attrs": {
        "flatten_data": "0", 
        "func_name": "fuse_expand_dims_3", 
        "num_inputs": "1", 
        "num_outputs": "1"
      }, 
      "inputs": [[687, 0, 0]]
    }, 
    {
      "op": "tvm_op", 
      "name": "batch_norm36_out", 
      "attrs": {
        "flatten_data": "0", 
        "func_name": "fuse_broadcast_add_3", 
        "num_inputs": "2", 
        "num_outputs": "1"
      }, 
      "inputs": [[682, 0, 0], [688, 0, 0]]
    }, 
    {
      "op": "tvm_op", 
      "name": "relu36", 
      "attrs": {
        "flatten_data": "1", 
        "func_name": "fuse_relu", 
        "num_inputs": "1", 
        "num_outputs": "1"
      }, 
      "inputs": [[689, 0, 0]]
    }, 
    {
      "op": "null", 
      "name": "226", 
      "inputs": []
    }, 
    {
      "op": "tvm_op", 
      "name": "conv2d40", 
      "attrs": {
        "flatten_data": "0", 
        "func_name": "fuse_conv2d_10", 
        "num_inputs": "2", 
        "num_outputs": "1"
      }, 
      "inputs": [[690, 0, 0], [691, 0, 0]]
    }, 
    {
      "op": "tvm_op", 
      "name": "flatten0", 
      "attrs": {
        "flatten_data": "0", 
        "func_name": "fuse_flatten", 
        "num_inputs": "1", 
        "num_outputs": "1"
      }, 
      "inputs": [[692, 0, 0]]
    }, 
    {
      "op": "tvm_op", 
      "name": "flatten1", 
      "attrs": {
        "flatten_data": "0", 
        "func_name": "fuse_flatten_1", 
        "num_inputs": "1", 
        "num_outputs": "1"
      }, 
      "inputs": [[693, 0, 0]]
    }, 
    {
      "op": "tvm_op", 
      "name": "__mul_scalar__0", 
      "attrs": {
        "flatten_data": "1", 
        "func_name": "fuse___mul_scalar__", 
        "num_inputs": "1", 
        "num_outputs": "1"
      }, 
      "inputs": [[694, 0, 0]]
    }, 
    {
      "op": "null", 
      "name": "227", 
      "inputs": []
    }, 
    {
      "op": "null", 
      "name": "228", 
      "inputs": []
    }, 
    {
      "op": "tvm_op", 
      "name": "__mul_scalar__1", 
      "attrs": {
        "flatten_data": "1", 
        "func_name": "fuse___mul_scalar___1", 
        "num_inputs": "1", 
        "num_outputs": "1"
      }, 
      "inputs": [[697, 0, 0]]
    }, 
    {
      "op": "tvm_op", 
      "name": "dense0", 
      "attrs": {
        "flatten_data": "0", 
        "func_name": "fuse_dense", 
        "num_inputs": "3", 
        "num_outputs": "1"
      }, 
…
    189, 
    190, 
    191, 
    192, 
    193, 
    194, 
    195, 
    196, 
    197, 
    198, 
    199, 
    200, 
    201, 
    202, 
    203, 
    204, 
    205, 
    206, 
    207, 
    208, 
    209, 
    210, 
    211, 
    212, 
    213, 
    214, 
    215, 
    216, 
    217, 
    218, 
    219, 
    220, 
    221, 
    222, 
    223, 
    224, 
    225, 
    226, 
    227, 
    228, 
    229, 
    230, 
    231, 
    232, 
    233, 
    234, 
    235, 
    236, 
    237, 
    238, 
    239, 
    240, 
    241, 
    242, 
    243, 
    244, 
    245, 
    246, 
    247, 
    248, 
    249, 
    250, 
    251, 
    252, 
    253, 
    254, 
    255, 
    256, 
    257, 
    258, 
    259, 
    260, 
    261, 
    262, 
    263, 
    264, 
    265, 
    266, 
    267, 
    268, 
    269, 
    270, 
    271, 
    272, 
    273, 
    274, 
    275, 
    276, 
    277, 
    278, 
    279, 
    280, 
    281, 
    282, 
    283, 
    284, 
    285, 
    286, 
    287, 
    288, 
    289, 
    290, 
    291, 
    292, 
    293, 
    294, 
    295, 
    296, 
    297, 
    298, 
    299, 
    300, 
    301, 
    302, 
    303, 
    304, 
    305, 
    306, 
    307, 
    308, 
    309, 
    310, 
    311, 
    312, 
    313, 
    314, 
    315, 
    316, 
    317, 
    318, 
    319, 
    320, 
    321, 
    322, 
    323, 
    324, 
    325, 
    326, 
    327, 
    328, 
    329, 
    330, 
    331, 
    332, 
    333, 
    334, 
    335, 
    336, 
    337, 
    338, 
    339, 
    340, 
    341, 
    342, 
    343, 
    344, 
    345, 
    346, 
    347, 
    348, 
    349, 
    350, 
    351, 
    352, 
    353, 
    354, 
    355, 
    356, 
    357, 
    358, 
    359, 
    360, 
    361, 
    362, 
    363, 
    364, 
    365, 
    366, 
    367, 
    368, 
    369, 
    370, 
    371, 
    372, 
    373, 
    374, 
    375, 
    376, 
    377, 
    378, 
    379, 
    380, 
    381, 
    382, 
    383, 
    384, 
    385, 
    386, 
    387, 
    388, 
    389, 
    390, 
    391, 
    392, 
    393, 
    394, 
    395, 
    396, 
    397, 
    398, 
    399, 
    400, 
    401, 
    402, 
    403, 
    404, 
    405, 
    406, 
    407, 
    408, 
    409, 
    410, 
    411, 
    412, 
    413, 
    414, 
    415, 
    416, 
    417, 
    418, 
    419, 
    420, 
    421, 
    422, 
    423, 
    424, 
    425, 
    426, 
    427, 
    428, 
    429, 
    430, 
    431, 
    432, 
    433, 
    434, 
    435, 
    436, 
    437, 
    438, 
    439, 
    440, 
    441, 
    442, 
    443, 
    444, 
    445, 
    446, 
    447, 
    448, 
    449, 
    450, 
    451, 
    452, 
    453, 
    454, 
    455, 
    456, 
    457, 
    458, 
    459, 
    460, 
    461, 
    462, 
    463, 
    464, 
    465, 
    466, 
    467, 
    468, 
    469, 
    470, 
    471, 
    472, 
    473, 
    474, 
    475, 
    476, 
    477, 
    478, 
    479, 
    480, 
    481, 
    482, 
    483, 
    484, 
    485, 
    486, 
    487, 
    488, 
    489, 
    490, 
    491, 
    492, 
    493, 
    494, 
    495, 
    496, 
    497, 
    498, 
    499, 
    500, 
    501, 
    502, 
    503, 
    504, 
    505, 
    506, 
    507, 
    508, 
    509, 
    510, 
    511, 
    512, 
    513, 
    514, 
    515, 
    516, 
    517, 
    518, 
    519, 
    520, 
    521, 
    522, 
    523, 
    524, 
    525, 
    526, 
    527, 
    528, 
    529, 
    530, 
    531, 
    532, 
    533, 
    534, 
    535, 
    536, 
    537, 
    538, 
    539, 
    540, 
    541, 
    542, 
    543, 
    544, 
    545, 
    546, 
    547, 
    548, 
    549, 
    550, 
    551, 
    552, 
    553, 
    554, 
    555, 
    556, 
    557, 
    558, 
    559, 
    560, 
    561, 
    562, 
    563, 
    564, 
    565, 
    566, 
    567, 
    568, 
    569, 
    570, 
    571, 
    572, 
    573, 
    574, 
    575, 
    576, 
    577, 
    578, 
    579, 
    580, 
    581, 
    582, 
    583, 
    584, 
    585, 
    586, 
    587, 
    588, 
    589, 
    590, 
    591, 
    592, 
    593, 
    594, 
    595, 
    596, 
    597, 
    598, 
    599, 
    600, 
    601, 
    602, 
    603, 
    604, 
    605, 
    606, 
    607, 
    608, 
    609, 
    610, 
    611, 
    612, 
    613, 
    614, 
    615, 
    616, 
    617, 
    618, 
    619, 
    620, 
    621, 
    622, 
    623, 
    624, 
    625, 
    626, 
    627, 
    628, 
    629, 
    630, 
    631, 
    632, 
    633, 
    634, 
    635, 
    636, 
    637, 
    638, 
    639, 
    640, 
    641, 
    642, 
    643, 
    644, 
    645, 
    646, 
    647, 
    648, 
    649, 
    650, 
    651, 
    652, 
    653, 
    654, 
    655, 
    656, 
    657, 
    658, 
    659, 
    660, 
    661, 
    662, 
    663, 
    664, 
    665, 
    666, 
    667, 
    668, 
    669, 
    670, 
    671, 
    672, 
    673, 
    674, 
    675, 
    676, 
    677, 
    678, 
    679, 
    680, 
    681, 
    682, 
    683, 
    684, 
    685, 
    686, 
    687, 
    688, 
    689, 
    690, 
    691, 
    692, 
    693, 
    694, 
    695, 
    696, 
    697, 
    698, 
    699, 
    700
  ], 
  "heads": [[699, 0, 0]], 
  "attrs": {
    "storage_id": ["list_int", [
        8, 
        9, 
        0, 
        10, 
        1, 
        2, 
        1, 
        11, 
        2, 
        1, 
        3, 
        12, 
        1, 
        4, 
        13, 
        1, 
        2, 
        0, 
        3, 
        14, 
        0, 
        15, 
        2, 
        1, 
        2, 
        16, 
        1, 
        2, 
        5, 
        17, 
        2, 
        4, 
        18, 
        2, 
        1, 
        0, 
        5, 
        19, 
        0, 
        20, 
        5, 
        3, 
        21, 
        4, 
        2, 
        1, 
        22, 
        4, 
        2, 
        0, 
        23, 
        1, 
        2, 
        24, 
        1, 
        4, 
        5, 
        0, 
        25, 
        5, 
        26, 
        2, 
        1, 
        4, 
        27, 
        2, 
        1, 
        0, 
        28, 
        4, 
        1, 
        29, 
        4, 
        2, 
        5, 
        0, 
        30, 
        5, 
        0, 
        31, 
        1, 
        4, 
        2, 
        32, 
        1, 
        4, 
        5, 
        33, 
        2, 
        4, 
        34, 
        2, 
        1, 
        3, 
        5, 
        35, 
        3, 
        36, 
        4, 
        2, 
        1, 
        37, 
        4, 
        2, 
        5, 
        38, 
        1, 
        2, 
        39, 
        1, 
        4, 
        3, 
        5, 
        40, 
        3, 
        5, 
        41, 
        2, 
        1, 
        4, 
        42, 
        2, 
        1, 
        3, 
        43, 
        4, 
        1, 
        44, 
        4, 
        2, 
        0, 
        3, 
        45, 
        0, 
        46, 
        1, 
        4, 
        2, 
        47, 
        1, 
        4, 
        3, 
        48, 
        2, 
        4, 
        49, 
        2, 
        1, 
        0, 
        3, 
        50, 
        0, 
        3, 
        51, 
        4, 
        2, 
        1, 
        52, 
        4, 
        2, 
        0, 
        53, 
        1, 
        2, 
        54, 
        1, 
        4, 
        5, 
        0, 
        55, 
        5, 
        56, 
        2, 
        1, 
        4, 
        57, 
        2, 
        1, 
        0, 
        58, 
        4, 
        1, 
        59, 
        4, 
        2, 
        5, 
        0, 
        60, 
        5, 
        0, 
        61, 
        1, 
        4, 
        2, 
        62, 
        1, 
        4, 
        5, 
        63, 
        2, 
        4, 
        64, 
        2, 
        1, 
        3, 
        5, 
        65, 
        3, 
        66, 
        4, 
        2, 
        1, 
        67, 
        4, 
        2, 
        5, 
        68, 
        1, 
        2, 
        69, 
        1, 
        4, 
        3, 
        5, 
        70, 
        3, 
        5, 
        71, 
        2, 
        1, 
        4, 
        72, 
        2, 
        1, 
        3, 
        73, 
        4, 
        1, 
        74, 
        4, 
        2, 
        0, 
        5, 
        75, 
        3, 
        76, 
        2, 
        4, 
        2, 
        77, 
        4, 
        2, 
        0, 
        78, 
        2, 
        1, 
        79, 
        2, 
        4, 
        3, 
        0, 
        80, 
        3, 
        81, 
        0, 
        5, 
        82, 
        1, 
        2, 
        4, 
        83, 
        1, 
        2, 
        3, 
        84, 
        4, 
        2, 
        85, 
        4, 
        1, 
        0, 
        3, 
        86, 
        0, 
        87, 
        2, 
        4, 
        1, 
        88, 
        2, 
        4, 
        3, 
        89, 
        1, 
        4, 
        90, 
        1, 
        2, 
        0, 
        3, 
        91, 
        0, 
        3, 
        92, 
        4, 
        1, 
        2, 
        93, 
        4, 
        1, 
        0, 
        94, 
        2, 
        1, 
        95, 
        2, 
        4, 
        5, 
        0, 
        96, 
        5, 
        97, 
        1, 
        2, 
        4, 
        98, 
        1, 
        2, 
        0, 
        99, 
        4, 
        2, 
        100, 
        4, 
        1, 
        5, 
        0, 
        101, 
        5, 
        0, 
        102, 
        2, 
        4, 
        1, 
        103, 
        2, 
        4, 
        5, 
        104, 
        1, 
        4, 
        105, 
        1, 
        2, 
        3, 
        5, 
        106, 
        3, 
        107, 
        4, 
        1, 
        2, 
        108, 
        4, 
        1, 
        5, 
        109, 
        2, 
        1, 
        110, 
        2, 
        4, 
        3, 
        5, 
        111, 
        3, 
        5, 
        112, 
        1, 
        2, 
        4, 
        113, 
        1, 
        2, 
        3, 
        114, 
        4, 
        2, 
        115, 
        4, 
        1, 
        0, 
        3, 
        116, 
        0, 
        117, 
        2, 
        4, 
        1, 
        118, 
        2, 
        4, 
        3, 
        119, 
        1, 
        4, 
        120, 
        1, 
        2, 
        0, 
        3, 
        121, 
        0, 
        3, 
        122, 
        4, 
        1, 
        2, 
        123, 
        4, 
        1, 
        0, 
        124, 
        2, 
        1, 
        125, 
        2, 
        4, 
        5, 
        0, 
        126, 
        5, 
        127, 
        1, 
        2, 
        4, 
        128, 
        1, 
        2, 
        0, 
        129, 
        4, 
        2, 
        130, 
        4, 
        1, 
        5, 
        0, 
        131, 
        5, 
        0, 
        132, 
        2, 
        4, 
        1, 
        133, 
        2, 
        4, 
        5, 
        134, 
        1, 
        4, 
        135, 
        1, 
        2, 
        3, 
        0, 
        136, 
        5, 
        137, 
        2, 
        1, 
        2, 
        138, 
        1, 
        2, 
        3, 
        139, 
        2, 
        4, 
        140, 
        2, 
        1, 
        5, 
        3, 
        141, 
        5, 
        142, 
        3, 
        0, 
        143, 
        4, 
        2, 
        1, 
        144, 
        4, 
        2, 
        5, 
        145, 
        1, 
        2, 
        146, 
        1, 
        4, 
        3, 
        5, 
        147, 
        3, 
        148, 
        2, 
        1, 
        4, 
        149, 
        2, 
        1, 
        5, 
        150, 
        4, 
        1, 
        151, 
        4, 
        2, 
        3, 
        5, 
        152, 
        3, 
        5, 
        153, 
        1, 
        4, 
        2, 
        154, 
        1, 
        4, 
        3, 
        155, 
        2, 
        4, 
        156, 
        2, 
        1, 
        0, 
        3, 
        157, 
        0, 
        158, 
        4, 
        2, 
        1, 
        159, 
        4, 
        2, 
        3, 
        160, 
        1, 
        2, 
        161, 
        1, 
        4, 
        0, 
        3, 
        162, 
        0, 
        3, 
        163, 
        2, 
        1, 
        4, 
        164, 
        2, 
        1, 
        0, 
        165, 
        4, 
        1, 
        166, 
        4, 
        2, 
        5, 
        0, 
        167, 
        5, 
        168, 
        1, 
        4, 
        2, 
        169, 
        1, 
        4, 
        0, 
        170, 
        2, 
        4, 
        171, 
        2, 
        1, 
        5, 
        0, 
        172, 
        5, 
        0, 
        173, 
        4, 
        2, 
        1, 
        174, 
        4, 
        2, 
        5, 
        175, 
        1, 
        2, 
        176, 
        1, 
        4, 
        3, 
        5, 
        177, 
        3, 
        178, 
        2, 
        1, 
        4, 
        179, 
        2, 
        1, 
        5, 
        180, 
        4, 
        1, 
        181, 
        4, 
        2, 
        3, 
        5, 
        182, 
        3, 
        5, 
        183, 
        1, 
        4, 
        2, 
        184, 
        1, 
        4, 
        3, 
        185, 
        2, 
        4, 
        186, 
        2, 
        1, 
        0, 
        3, 
        187, 
        0, 
        188, 
        4, 
        2, 
        1, 
        189, 
        4, 
        2, 
        3, 
        190, 
        1, 
        2, 
        191, 
        1, 
        4, 
        0, 
        3, 
        192, 
        0, 
        3, 
        193, 
        2, 
        1, 
        4, 
        194, 
        2, 
        1, 
        0, 
        195, 
        4, 
        1, 
        196, 
        4, 
        2, 
        5, 
        3, 
        197, 
        1, 
        4, 
        2, 
        1, 
        198, 
        199, 
        6, 
        7]], 
    "shape": ["list_shape", [
        [1, 3, 32, 32], 
        [16, 3, 3, 3], 
        [1, 16, 32, 32], 
        [16], 
        [16], 
        [16], 
        [16], 
        [16], 
        [16], 
        [16, 1, 1], 
        [1, 16, 32, 32], 
        [16], 
        [16], 
        [16], 
        [16], 
        [16], 
        [16, 1, 1], 
        [1, 16, 32, 32], 
        [1, 16, 32, 32], 
        [64, 16, 3, 3], 
        [1, 64, 32, 32], 
        [64], 
        [64], 
        [64], 
        [64], 
        [64], 
        [64], 
        [64, 1, 1], 
        [1, 64, 32, 32], 
        [64], 
        [64], 
        [64], 
        [64], 
        [64], 
        [64, 1, 1], 
        [1, 64, 32, 32], 
        [1, 64, 32, 32], 
        [64, 64, 3, 3], 
        [1, 64, 32, 32], 
        [64, 16, 1, 1], 
        [1, 64, 32, 32], 
        [1, 64, 32, 32], 
        [64], 
        [64], 
        [64], 
        [64], 
        [64], 
        [64], 
        [64, 1, 1], 
        [1, 64, 32, 32], 
        [64], 
        [64], 
        [64], 
        [64], 
        [64], 
        [64, 1, 1], 
        [1, 64, 32, 32], 
        [1, 64, 32, 32], 
        [64, 64, 3, 3], 
        [1, 64, 32, 32], 
        [64], 
        [64], 
        [64], 
        [64], 
        [64], 
        [64], 
        [64, 1, 1], 
        [1, 64, 32, 32], 
        [64], 
        [64], 
        [64], 
        [64], 
        [64], 
        [64, 1, 1], 
        [1, 64, 32, 32], 
        [1, 64, 32, 32], 
        [64, 64, 3, 3], 
        [1, 64, 32, 32], 
        [1, 64, 32, 32], 
        [64], 
        [64], 
        [64], 
        [64], 
        [64], 
        [64], 
        [64, 1, 1], 
        [1, 64, 32, 32], 
        [64], 
        [64], 
        [64], 
        [64], 
        [64], 
        [64, 1, 1], 
        [1, 64, 32, 32], 
        [1, 64, 32, 32], 
        [64, 64, 3, 3], 
        [1, 64, 32, 32], 
        [64], 
        [64], 
        [64], 
        [64], 
        [64], 
        [64], 
        [64, 1, 1], 
        [1, 64, 32, 32], 
        [64], 
        [64], 
        [64], 
        [64], 
        [64], 
        [64, 1, 1], 
        [1, 64, 32, 32], 
        [1, 64, 32, 32], 
        [64, 64, 3, 3], 
        [1, 64, 32, 32], 
        [1, 64, 32, 32], 
        [64], 
        [64], 
        [64], 
        [64], 
        [64], 
        [64], 
        [64, 1, 1], 
        [1, 64, 32, 32], 
        [64], 
        [64], 
        [64], 
        [64], 
        [64], 
        [64, 1, 1], 
        [1, 64, 32, 32], 
        [1, 64, 32, 32], 
        [64, 64, 3, 3], 
        [1, 64, 32, 32], 
        [64], 
        [64], 
        [64], 
        [64], 
        [64], 
        [64], 
        [64, 1, 1], 
        [1, 64, 32, 32], 
        [64], 
        [64], 
        [64], 
        [64], 
        [64], 
        [64, 1, 1], 
        [1, 64, 32, 32], 
        [1, 64, 32, 32], 
        [64, 64, 3, 3], 
        [1, 64, 32, 32], 
        [1, 64, 32, 32], 
        [64], 
        [64], 
        [64], 
        [64], 
        [64], 
        [64], 
        [64, 1, 1], 
        [1, 64, 32, 32], 
        [64], 
        [64], 
        [64], 
        [64], 
        [64], 
        [64, 1, 1], 
        [1, 64, 32, 32], 
        [1, 64, 32, 32], 
        [64, 64, 3, 3], 
        [1, 64, 32, 32], 
        [64], 
        [64], 
        [64], 
        [64], 
        [64], 
        [64], 
        [64, 1, 1], 
        [1, 64, 32, 32], 
        [64], 
        [64], 
        [64], 
        [64], 
        [64], 
        [64, 1, 1], 
        [1, 64, 32, 32], 
        [1, 64, 32, 32], 
        [64, 64, 3, 3], 
        [1, 64, 32, 32], 
        [1, 64, 32, 32], 
        [64], 
        [64], 
        [64], 
        [64], 
        [64], 
        [64], 
        [64, 1, 1], 
        [1, 64, 32, 32], 
        [64], 
        [64], 
        [64], 
        [64], 
        [64], 
        [64, 1, 1], 
        [1, 64, 32, 32], 
        [1, 64, 32, 32], 
        [64, 64, 3, 3], 
        [1, 64, 32, 32], 
        [64], 
        [64], 
        [64], 
        [64], 
        [64], 
        [64], 
        [64, 1, 1], 
        [1, 64, 32, 32], 
        [64], 
        [64], 
        [64], 
        [64], 
        [64], 
        [64, 1, 1], 
        [1, 64, 32, 32], 
        [1, 64, 32, 32], 
        [64, 64, 3, 3], 
        [1, 64, 32, 32], 
        [1, 64, 32, 32], 
        [64], 
        [64], 
        [64], 
        [64], 
        [64], 
        [64], 
        [64, 1, 1], 
        [1, 64, 32, 32], 
        [64], 
        [64], 
        [64], 
        [64], 
        [64], 
        [64, 1, 1], 
        [1, 64, 32, 32], 
        [1, 64, 32, 32], 
        [128, 64, 3, 3], 
        [1, 128, 16, 16], 
        [128], 
        [128], 
        [128], 
        [128], 
        [128], 
        [128], 
        [128, 1, 1], 
        [1, 128, 16, 16], 
        [128], 
        [128], 
        [128], 
        [128], 
        [128], 
        [128, 1, 1], 
        [1, 128, 16, 16], 
        [1, 128, 16, 16], 
        [128, 128, 3, 3], 
        [1, 128, 16, 16], 
        [128, 64, 1, 1], 
        [1, 128, 16, 16], 
        [1, 128, 16, 16], 
        [128], 
        [128], 
        [128], 
        [128], 
        [128], 
        [128], 
        [128, 1, 1], 
        [1, 128, 16, 16], 
        [128], 
        [128], 
        [128], 
        [128], 
        [128], 
        [128, 1, 1], 
        [1, 128, 16, 16], 
        [1, 128, 16, 16], 
        [128, 128, 3, 3], 
        [1, 128, 16, 16], 
        [128], 
        [128], 
        [128], 
        [128], 
        [128], 
        [128], 
        [128, 1, 1], 
        [1, 128, 16, 16], 
        [128], 
        [128], 
        [128], 
        [128], 
        [128], 
        [128, 1, 1], 
        [1, 128, 16, 16], 
        [1, 128, 16, 16], 
        [128, 128, 3, 3], 
        [1, 128, 16, 16], 
        [1, 128, 16, 16], 
        [128], 
        [128], 
        [128], 
        [128], 
        [128], 
        [128], 
        [128, 1, 1], 
        [1, 128, 16, 16], 
        [128], 
        [128], 
        [128], 
        [128], 
        [128], 
        [128, 1, 1], 
        [1, 128, 16, 16], 
        [1, 128, 16, 16], 
        [128, 128, 3, 3], 
        [1, 128, 16, 16], 
        [128], 
        [128], 
        [128], 
        [128], 
        [128], 
        [128], 
        [128, 1, 1], 
        [1, 128, 16, 16], 
        [128], 
        [128], 
        [128], 
        [128], 
        [128], 
        [128, 1, 1], 
        [1, 128, 16, 16], 
        [1, 128, 16, 16], 
        [128, 128, 3, 3], 
        [1, 128, 16, 16], 
        [1, 128, 16, 16], 
        [128], 
        [128], 
        [128], 
        [128], 
        [128], 
        [128], 
        [128, 1, 1], 
        [1, 128, 16, 16], 
        [128], 
        [128], 
        [128], 
        [128], 
        [128], 
        [128, 1, 1], 
        [1, 128, 16, 16], 
        [1, 128, 16, 16], 
        [128, 128, 3, 3], 
        [1, 128, 16, 16], 
        [128], 
        [128], 
        [128], 
        [128], 
        [128], 
        [128], 
        [128, 1, 1], 
        [1, 128, 16, 16], 
        [128], 
        [128], 
        [128], 
        [128], 
        [128], 
        [128, 1, 1], 
        [1, 128, 16, 16], 
        [1, 128, 16, 16], 
        [128, 128, 3, 3], 
        [1, 128, 16, 16], 
        [1, 128, 16, 16], 
        [128], 
        [128], 
        [128], 
        [128], 
        [128], 
        [128], 
        [128, 1, 1], 
        [1, 128, 16, 16], 
        [128], 
        [128], 
        [128], 
        [128], 
        [128], 
        [128, 1, 1], 
        [1, 128, 16, 16], 
        [1, 128, 16, 16], 
        [128, 128, 3, 3], 
        [1, 128, 16, 16], 
        [128], 
        [128], 
        [128], 
        [128], 
        [128], 
        [128], 
        [128, 1, 1], 
        [1, 128, 16, 16], 
        [128], 
        [128], 
        [128], 
        [128], 
        [128], 
        [128, 1, 1], 
        [1, 128, 16, 16], 
        [1, 128, 16, 16], 
        [128, 128, 3, 3], 
        [1, 128, 16, 16], 
        [1, 128, 16, 16], 
        [128], 
        [128], 
        [128], 
        [128], 
        [128], 
        [128], 
        [128, 1, 1], 
        [1, 128, 16, 16], 
        [128], 
        [128], 
        [128], 
        [128], 
        [128], 
        [128, 1, 1], 
        [1, 128, 16, 16], 
        [1, 128, 16, 16], 
        [128, 128, 3, 3], 
        [1, 128, 16, 16], 
        [128], 
        [128], 
        [128], 
        [128], 
        [128], 
        [128], 
        [128, 1, 1], 
        [1, 128, 16, 16], 
        [128], 
        [128], 
        [128], 
        [128], 
        [128], 
        [128, 1, 1], 
        [1, 128, 16, 16], 
        [1, 128, 16, 16], 
        [128, 128, 3, 3], 
        [1, 128, 16, 16], 
        [1, 128, 16, 16], 
        [128], 
        [128], 
        [128], 
        [128], 
        [128], 
        [128], 
        [128, 1, 1], 
        [1, 128, 16, 16], 
        [128], 
        [128], 
        [128], 
        [128], 
        [128], 
        [128, 1, 1], 
        [1, 128, 16, 16], 
        [1, 128, 16, 16], 
        [256, 128, 3, 3], 
        [1, 256, 8, 8], 
        [256], 
        [256], 
        [256], 
        [256], 
        [256], 
        [256], 
        [256, 1, 1], 
        [1, 256, 8, 8], 
        [256], 
        [256], 
        [256], 
        [256], 
        [256], 
        [256, 1, 1], 
        [1, 256, 8, 8], 
        [1, 256, 8, 8], 
        [256, 256, 3, 3], 
        [1, 256, 8, 8], 
        [256, 128, 1, 1], 
        [1, 256, 8, 8], 
        [1, 256, 8, 8], 
        [256], 
        [256], 
        [256], 
        [256], 
        [256], 
        [256], 
        [256, 1, 1], 
        [1, 256, 8, 8], 
        [256], 
        [256], 
        [256], 
        [256], 
        [256], 
        [256, 1, 1], 
        [1, 256, 8, 8], 
        [1, 256, 8, 8], 
        [256, 256, 3, 3], 
        [1, 256, 8, 8], 
        [256], 
        [256], 
        [256], 
        [256], 
        [256], 
        [256], 
        [256, 1, 1], 
        [1, 256, 8, 8], 
        [256], 
        [256], 
        [256], 
        [256], 
        [256], 
        [256, 1, 1], 
        [1, 256, 8, 8], 
        [1, 256, 8, 8], 
        [256, 256, 3, 3], 
        [1, 256, 8, 8], 
        [1, 256, 8, 8], 
        [256], 
        [256], 
        [256], 
        [256], 
        [256], 
        [256], 
        [256, 1, 1], 
        [1, 256, 8, 8], 
        [256], 
        [256], 
        [256], 
        [256], 
        [256], 
        [256, 1, 1], 
        [1, 256, 8, 8], 
        [1, 256, 8, 8], 
        [256, 256, 3, 3], 
        [1, 256, 8, 8], 
        [256], 
        [256], 
        [256], 
        [256], 
        [256], 
        [256], 
        [256, 1, 1], 
        [1, 256, 8, 8], 
        [256], 
        [256], 
        [256], 
        [256], 
        [256], 
        [256, 1, 1], 
        [1, 256, 8, 8], 
        [1, 256, 8, 8], 
        [256, 256, 3, 3], 
        [1, 256, 8, 8], 
        [1, 256, 8, 8], 
        [256], 
        [256], 
        [256], 
        [256], 
        [256], 
        [256], 
        [256, 1, 1], 
        [1, 256, 8, 8], 
        [256], 
        [256], 
        [256], 
        [256], 
        [256], 
        [256, 1, 1], 
        [1, 256, 8, 8], 
        [1, 256, 8, 8], 
        [256, 256, 3, 3], 
        [1, 256, 8, 8], 
        [256], 
        [256], 
        [256], 
        [256], 
        [256], 
        [256], 
        [256, 1, 1], 
        [1, 256, 8, 8], 
        [256], 
        [256], 
        [256], 
        [256], 
        [256], 
        [256, 1, 1], 
        [1, 256, 8, 8], 
        [1, 256, 8, 8], 
        [256, 256, 3, 3], 
        [1, 256, 8, 8], 
        [1, 256, 8, 8], 
        [256], 
        [256], 
        [256], 
        [256], 
        [256], 
        [256], 
        [256, 1, 1], 
        [1, 256, 8, 8], 
        [256], 
        [256], 
        [256], 
        [256], 
        [256], 
        [256, 1, 1], 
        [1, 256, 8, 8], 
        [1, 256, 8, 8], 
        [256, 256, 3, 3], 
        [1, 256, 8, 8], 
        [256], 
        [256], 
        [256], 
        [256], 
        [256], 
        [256], 
        [256, 1, 1], 
        [1, 256, 8, 8], 
        [256], 
        [256], 
        [256], 
        [256], 
        [256], 
        [256, 1, 1], 
        [1, 256, 8, 8], 
        [1, 256, 8, 8], 
        [256, 256, 3, 3], 
        [1, 256, 8, 8], 
        [1, 256, 8, 8], 
        [256], 
        [256], 
        [256], 
        [256], 
        [256], 
        [256], 
        [256, 1, 1], 
        [1, 256, 8, 8], 
        [256], 
        [256], 
        [256], 
        [256], 
        [256], 
        [256, 1, 1], 
        [1, 256, 8, 8], 
        [1, 256, 8, 8], 
        [256, 256, 3, 3], 
        [1, 256, 8, 8], 
        [256], 
        [256], 
        [256], 
        [256], 
        [256], 
        [256], 
        [256, 1, 1], 
        [1, 256, 8, 8], 
        [256], 
        [256], 
        [256], 
        [256], 
        [256], 
        [256, 1, 1], 
        [1, 256, 8, 8], 
        [1, 256, 8, 8], 
        [256, 256, 3, 3], 
        [1, 256, 8, 8], 
        [1, 256, 8, 8], 
        [256], 
        [256], 
        [256], 
        [256], 
        [256], 
        [256], 
        [256, 1, 1], 
        [1, 256, 8, 8], 
        [256], 
        [256], 
        [256], 
        [256], 
        [256], 
        [256, 1, 1], 
        [1, 256, 8, 8], 
        [1, 256, 8, 8], 
        [256, 256, 8, 8], 
        [1, 256, 1, 1], 
        [1, 256], 
        [1, 256], 
        [1, 256], 
        [10, 256], 
        [10], 
        [10], 
        [1, 10]]], 
    "dtype": ["list_int", [
        0, 
        0, 
        0, 
        0, 
        0, 
        0, 
        0, 
        0, 
        0, 
        0, 
        0, 
        0, 
        0, 
        0, 
        0, 
        0, 
        0, 
        0, 
        0, 
        0, 
        0, 
        0, 
        0, 
        0, 
        0, 
        0, 
        0, 
        0, 
        0, 
        0, 
        0, 
        0, 
        0, 
        0, 
        0, 
        0, 
        0, 
        0, 
        0, 
        0, 
        0, 
        0, 
        0, 
        0, 
        0, 
        0, 
        0, 
        0, 
        0, 
        0, 
        0, 
        0, 
        0, 
        0, 
        0, 
        0, 
        0, 
        0, 
        0, 
        0, 
        0, 
        0, 
        0, 
        0, 
        0, 
        0, 
        0, 
        0, 
        0, 
        0, 
        0, 
        0, 
        0, 
        0, 
        0, 
        0, 
        0, 
        0, 
        0, 
        0, 
        0, 
        0, 
        0, 
        0, 
        0, 
        0, 
        0, 
        0, 
        0, 
        0, 
        0, 
        0, 
        0, 
        0, 
        0, 
        0, 
        0, 
        0, 
        0, 
        0, 
        0, 
        0, 
        0, 
        0, 
        0, 
        0, 
        0, 
        0, 
        0, 
        0, 
        0, 
        0, 
        0, 
        0, 
        0, 
        0, 
        0, 
        0, 
        0, 
        0, 
        0, 
        0, 
        0, 
        0, 
        0, 
        0, 
        0, 
        0, 
        0, 
        0, 
        0, 
        0, 
        0, 
        0, 
        0, 
        0, 
        0, 
        0, 
        0, 
        0, 
        0, 
        0, 
        0, 
        0, 
        0, 
        0, 
        0, 
        0, 
        0, 
        0, 
        0, 
        0, 
        0, 
        0, 
        0, 
        0, 
        0, 
        0, 
        0, 
        0, 
        0, 
        0, 
        0, 
        0, 
        0, 
        0, 
        0, 
        0, 
        0, 
        0, 
        0, 
        0, 
        0, 
        0, 
        0, 
        0, 
        0, 
        0, 
        0, 
        0, 
        0, 
        0, 
        0, 
        0, 
        0, 
        0, 
        0, 
        0, 
        0, 
        0, 
        0, 
        0, 
        0, 
        0, 
        0, 
        0, 
        0, 
        0, 
        0, 
        0, 
        0, 
        0, 
        0, 
        0, 
        0, 
        0, 
        0, 
        0, 
        0, 
        0, 
        0, 
        0, 
        0, 
        0, 
        0, 
        0, 
        0, 
        0, 
        0, 
        0, 
        0, 
        0, 
        0, 
        0, 
        0, 
        0, 
        0, 
        0, 
        0, 
        0, 
        0, 
        0, 
        0, 
        0, 
        0, 
        0, 
        0, 
        0, 
        0, 
        0, 
        0, 
        0, 
        0, 
        0, 
        0, 
        0, 
        0, 
        0, 
        0, 
        0, 
        0, 
        0, 
        0, 
        0, 
        0, 
        0, 
        0, 
        0, 
        0, 
        0, 
        0, 
        0, 
        0, 
        0, 
        0, 
        0, 
        0, 
        0, 
        0, 
        0, 
        0, 
        0, 
        0, 
        0, 
        0, 
        0, 
        0, 
        0, 
        0, 
        0, 
        0, 
        0, 
        0, 
        0, 
        0, 
        0, 
        0, 
        0, 
        0, 
        0, 
        0, 
        0, 
        0, 
        0, 
        0, 
        0, 
        0, 
        0, 
        0, 
        0, 
        0, 
        0, 
        0, 
        0, 
        0, 
        0, 
        0, 
        0, 
        0, 
        0, 
        0, 
        0, 
        0, 
        0, 
        0, 
        0, 
        0, 
        0, 
        0, 
        0, 
        0, 
        0, 
        0, 
        0, 
        0, 
        0, 
        0, 
        0, 
        0, 
        0, 
        0, 
        0, 
        0, 
        0, 
        0, 
        0, 
        0, 
        0, 
        0, 
        0, 
        0, 
        0, 
        0, 
        0, 
        0, 
        0, 
        0, 
        0, 
        0, 
        0, 
        0, 
        0, 
        0, 
        0, 
        0, 
        0, 
        0, 
        0, 
        0, 
        0, 
        0, 
        0, 
        0, 
        0, 
        0, 
        0, 
        0, 
        0, 
        0, 
        0, 
        0, 
        0, 
        0, 
        0, 
        0, 
        0, 
        0, 
        0, 
        0, 
        0, 
        0, 
        0, 
        0, 
        0, 
        0, 
        0, 
        0, 
        0, 
        0, 
        0, 
        0, 
        0, 
        0, 
        0, 
        0, 
        0, 
        0, 
        0, 
        0, 
        0, 
        0, 
        0, 
        0, 
        0, 
        0, 
        0, 
        0, 
        0, 
        0, 
        0, 
        0, 
        0, 
        0, 
        0, 
        0, 
        0, 
        0, 
        0, 
        0, 
        0, 
        0, 
        0, 
        0, 
        0, 
        0, 
        0, 
        0, 
        0, 
        0, 
        0, 
        0, 
        0, 
        0, 
        0, 
        0, 
        0, 
        0, 
        0, 
        0, 
        0, 
        0, 
        0, 
        0, 
        0, 
        0, 
        0, 
        0, 
        0, 
        0, 
        0, 
        0, 
        0, 
        0, 
        0, 
        0, 
        0, 
        0, 
        0, 
        0, 
        0, 
        0, 
        0, 
        0, 
        0, 
        0, 
        0, 
        0, 
        0, 
        0, 
        0, 
        0, 
        0, 
        0, 
        0, 
        0, 
        0, 
        0, 
        0, 
        0, 
        0, 
        0, 
        0, 
        0, 
        0, 
        0, 
        0, 
        0, 
        0, 
        0, 
        0, 
        0, 
        0, 
        0, 
        0, 
        0, 
        0, 
        0, 
        0, 
        0, 
        0, 
        0, 
        0, 
        0, 
        0, 
        0, 
        0, 
        0, 
        0, 
        0, 
        0, 
        0, 
        0, 
        0, 
        0, 
        0, 
        0, 
        0, 
        0, 
        0, 
        0, 
        0, 
        0, 
        0, 
        0, 
        0, 
        0, 
        0, 
        0, 
        0, 
        0, 
        0, 
        0, 
        0, 
        0, 
        0, 
        0, 
        0, 
        0, 
        0, 
        0, 
        0, 
        0, 
        0, 
        0, 
        0, 
        0, 
        0, 
        0, 
        0, 
        0, 
        0, 
        0, 
        0, 
        0, 
        0, 
        0, 
        0, 
        0, 
        0, 
        0, 
        0, 
        0, 
        0, 
        0, 
        0, 
        0, 
        0, 
        0, 
        0, 
        0, 
        0, 
        0, 
        0, 
        0, 
        0, 
        0, 
        0, 
        0, 
        0, 
        0, 
        0, 
        0, 
        0, 
        0, 
        0, 
        0, 
        0, 
        0, 
        0, 
        0, 
        0, 
        0, 
        0, 
        0, 
        0, 
        0, 
        0, 
        0, 
        0, 
        0, 
        0, 
        0, 
        0, 
        0, 
        0, 
        0, 
        0, 
        0, 
        0, 
        0, 
        0, 
        0, 
        0, 
        0, 
        0, 
        0, 
        0, 
        0, 
        0, 
        0, 
        0, 
        0, 
        0, 
        0, 
        0, 
        0, 
        0, 
        0, 
        0, 
        0, 
        0, 
        0, 
        0, 
        0, 
        0, 
        0, 
        0, 
        0, 
        0, 
        0, 
        0, 
        0, 
        0, 
        0, 
        0, 
        0, 
        0, 
        0, 
        0, 
        0, 
        0, 
        0, 
        0, 
        0, 
        0, 
        0, 
        0, 
        0, 
        0, 
        0, 
        0, 
        0, 
        0, 
        0, 
        0, 
        0, 
        0, 
        0, 
        0, 
        0, 
        0, 
        0, 
        0, 
        0, 
        0, 
        0, 
        0, 
        0, 
        0, 
        0, 
        0, 
        0, 
        0, 
        0, 
        0, 
        0, 
        0, 
        0, 
        0, 
        0, 
        0, 
        0, 
        0, 
        0, 
        0, 
        0, 
        0, 
        0, 
        0, 
        0]], 
    "dltype": ["list_str", [
        "float32", 
        "float32", 
        "float32", 
        "float32", 
        "float32", 
        "float32", 
        "float32", 
        "float32", 
        "float32", 
        "float32", 
        "float32", 
        "float32", 
        "float32", 
        "float32", 
        "float32", 
        "float32", 
        "float32", 
        "float32", 
        "float32", 
        "float32", 
        "float32", 
        "float32", 
        "float32", 
        "float32", 
        "float32", 
        "float32", 
        "float32", 
        "float32", 
        "float32", 
        "float32", 
        "float32", 
        "float32", 
        "float32", 
        "float32", 
        "float32", 
        "float32", 
        "float32", 
        "float32", 
        "float32", 
        "float32", 
        "float32", 
        "float32", 
        "float32", 
        "float32", 
        "float32", 
        "float32", 
        "float32", 
        "float32", 
        "float32", 
        "float32", 
        "float32", 
        "float32", 
        "float32", 
        "float32", 
        "float32", 
        "float32", 
        "float32", 
        "float32", 
        "float32", 
        "float32", 
        "float32", 
        "float32", 
        "float32", 
        "float32", 
        "float32", 
        "float32", 
        "float32", 
        "float32", 
        "float32", 
        "float32", 
        "float32", 
        "float32", 
        "float32", 
        "float32", 
        "float32", 
        "float32", 
        "float32", 
        "float32", 
        "float32", 
        "float32", 
        "float32", 
        "float32", 
        "float32", 
        "float32", 
        "float32", 
        "float32", 
        "float32", 
        "float32", 
        "float32", 
        "float32", 
        "float32", 
        "float32", 
        "float32", 
        "float32", 
        "float32", 
        "float32", 
        "float32", 
        "float32", 
        "float32", 
        "float32", 
        "float32", 
        "float32", 
        "float32", 
        "float32", 
        "float32", 
        "float32", 
        "float32", 
        "float32", 
        "float32", 
        "float32", 
        "float32", 
        "float32", 
        "float32", 
        "float32", 
        "float32", 
        "float32", 
        "float32", 
        "float32", 
        "float32", 
        "float32", 
        "float32", 
        "float32", 
        "float32", 
        "float32", 
        "float32", 
        "float32", 
        "float32", 
        "float32", 
        "float32", 
        "float32", 
        "float32", 
        "float32", 
        "float32", 
        "float32", 
        "float32", 
        "float32", 
        "float32", 
        "float32", 
        "float32", 
        "float32", 
        "float32", 
        "float32", 
        "float32", 
        "float32", 
        "float32", 
        "float32", 
        "float32", 
        "float32", 
        "float32", 
        "float32", 
        "float32", 
        "float32", 
        "float32", 
        "float32", 
        "float32", 
        "float32", 
        "float32", 
        "float32", 
        "float32", 
        "float32", 
        "float32", 
        "float32", 
        "float32", 
        "float32", 
        "float32", 
        "float32", 
        "float32", 
        "float32", 
        "float32", 
        "float32", 
        "float32", 
        "float32", 
        "float32", 
        "float32", 
        "float32", 
        "float32", 
        "float32", 
        "float32", 
        "float32", 
        "float32", 
        "float32", 
        "float32", 
        "float32", 
        "float32", 
        "float32", 
        "float32", 
        "float32", 
        "float32", 
        "float32", 
        "float32", 
        "float32", 
        "float32", 
        "float32", 
        "float32", 
        "float32", 
        "float32", 
        "float32", 
        "float32", 
        "float32", 
        "float32", 
        "float32", 
        "float32", 
        "float32", 
        "float32", 
        "float32", 
        "float32", 
        "float32", 
        "float32", 
        "float32", 
        "float32", 
        "float32", 
        "float32", 
        "float32", 
        "float32", 
        "float32", 
        "float32", 
        "float32", 
        "float32", 
        "float32", 
        "float32", 
        "float32", 
        "float32", 
        "float32", 
        "float32", 
        "float32", 
        "float32", 
        "float32", 
        "float32", 
        "float32", 
        "float32", 
        "float32", 
        "float32", 
        "float32", 
        "float32", 
        "float32", 
        "float32", 
        "float32", 
        "float32", 
        "float32", 
        "float32", 
        "float32", 
        "float32", 
        "float32", 
        "float32", 
        "float32", 
        "float32", 
        "float32", 
        "float32", 
        "float32", 
        "float32", 
        "float32", 
        "float32", 
        "float32", 
        "float32", 
        "float32", 
        "float32", 
        "float32", 
        "float32", 
        "float32", 
        "float32", 
        "float32", 
        "float32", 
        "float32", 
        "float32", 
        "float32", 
        "float32", 
        "float32", 
        "float32", 
        "float32", 
        "float32", 
        "float32", 
        "float32", 
        "float32", 
        "float32", 
        "float32", 
        "float32", 
        "float32", 
        "float32", 
        "float32", 
        "float32", 
        "float32", 
        "float32", 
        "float32", 
        "float32", 
        "float32", 
        "float32", 
        "float32", 
        "float32", 
        "float32", 
        "float32", 
        "float32", 
        "float32", 
        "float32", 
        "float32", 
        "float32", 
        "float32", 
        "float32", 
        "float32", 
        "float32", 
        "float32", 
        "float32", 
        "float32", 
        "float32", 
        "float32", 
        "float32", 
        "float32", 
        "float32", 
        "float32", 
        "float32", 
        "float32", 
        "float32", 
        "float32", 
        "float32", 
        "float32", 
        "float32", 
        "float32", 
        "float32", 
        "float32", 
        "float32", 
        "float32", 
        "float32", 
        "float32", 
        "float32", 
        "float32", 
        "float32", 
        "float32", 
        "float32", 
        "float32", 
        "float32", 
        "float32", 
        "float32", 
        "float32", 
        "float32", 
        "float32", 
        "float32", 
        "float32", 
        "float32", 
        "float32", 
        "float32", 
        "float32", 
        "float32", 
        "float32", 
        "float32", 
        "float32", 
        "float32", 
        "float32", 
        "float32", 
        "float32", 
        "float32", 
        "float32", 
        "float32", 
        "float32", 
        "float32", 
        "float32", 
        "float32", 
        "float32", 
        "float32", 
        "float32", 
        "float32", 
        "float32", 
        "float32", 
        "float32", 
        "float32", 
        "float32", 
        "float32", 
        "float32", 
        "float32", 
        "float32", 
        "float32", 
        "float32", 
        "float32", 
        "float32", 
        "float32", 
        "float32", 
        "float32", 
        "float32", 
        "float32", 
        "float32", 
        "float32", 
        "float32", 
        "float32", 
        "float32", 
        "float32", 
        "float32", 
        "float32", 
        "float32", 
        "float32", 
        "float32", 
        "float32", 
        "float32", 
        "float32", 
        "float32", 
        "float32", 
        "float32", 
        "float32", 
        "float32", 
        "float32", 
        "float32", 
        "float32", 
        "float32", 
        "float32", 
        "float32", 
        "float32", 
        "float32", 
        "float32", 
        "float32", 
        "float32", 
        "float32", 
        "float32", 
        "float32", 
        "float32", 
        "float32", 
        "float32", 
        "float32", 
        "float32", 
        "float32", 
        "float32", 
        "float32", 
        "float32", 
        "float32", 
        "float32", 
        "float32", 
        "float32", 
        "float32", 
        "float32", 
        "float32", 
        "float32", 
        "float32", 
        "float32", 
        "float32", 
        "float32", 
        "float32", 
        "float32", 
        "float32", 
        "float32", 
        "float32", 
        "float32", 
        "float32", 
        "float32", 
        "float32", 
        "float32", 
        "float32", 
        "float32", 
        "float32", 
        "float32", 
        "float32", 
        "float32", 
        "float32", 
        "float32", 
        "float32", 
        "float32", 
        "float32", 
        "float32", 
        "float32", 
        "float32", 
        "float32", 
        "float32", 
        "float32", 
        "float32", 
        "float32", 
        "float32", 
        "float32", 
        "float32", 
        "float32", 
        "float32", 
        "float32", 
        "float32", 
        "float32", 
        "float32", 
        "float32", 
        "float32", 
        "float32", 
        "float32", 
        "float32", 
        "float32", 
        "float32", 
        "float32", 
        "float32", 
        "float32", 
        "float32", 
        "float32", 
        "float32", 
        "float32", 
        "float32", 
        "float32", 
        "float32", 
        "float32", 
        "float32", 
        "float32", 
        "float32", 
        "float32", 
        "float32", 
        "float32", 
        "float32", 
        "float32", 
        "float32", 
        "float32", 
        "float32", 
        "float32", 
        "float32", 
        "float32", 
        "float32", 
        "float32", 
        "float32", 
        "float32", 
        "float32", 
        "float32", 
        "float32", 
        "float32", 
        "float32", 
        "float32", 
        "float32", 
        "float32", 
        "float32", 
        "float32", 
        "float32", 
        "float32", 
        "float32", 
        "float32", 
        "float32", 
        "float32", 
        "float32", 
        "float32", 
        "float32", 
        "float32", 
        "float32", 
        "float32", 
        "float32", 
        "float32", 
        "float32", 
        "float32", 
        "float32", 
        "float32", 
        "float32", 
        "float32", 
        "float32", 
        "float32", 
        "float32", 
        "float32", 
        "float32", 
        "float32", 
        "float32", 
        "float32", 
        "float32", 
        "float32", 
        "float32", 
        "float32", 
        "float32", 
        "float32", 
        "float32", 
        "float32", 
        "float32", 
        "float32", 
        "float32", 
        "float32", 
        "float32", 
        "float32", 
        "float32", 
        "float32", 
        "float32", 
        "float32", 
        "float32", 
        "float32", 
        "float32", 
        "float32", 
        "float32", 
        "float32", 
        "float32", 
        "float32", 
        "float32", 
        "float32", 
        "float32", 
        "float32", 
        "float32", 
        "float32", 
        "float32", 
        "float32", 
        "float32", 
        "float32", 
        "float32", 
        "float32", 
        "float32", 
        "float32", 
        "float32", 
        "float32", 
        "float32", 
        "float32", 
        "float32", 
        "float32", 
        "float32", 
        "float32", 
        "float32", 
        "float32", 
        "float32", 
        "float32", 
        "float32", 
        "float32", 
        "float32", 
        "float32", 
        "float32", 
        "float32", 
        "float32", 
        "float32", 
        "float32", 
        "float32", 
        "float32", 
        "float32", 
        "float32", 
        "float32", 
        "float32", 
        "float32", 
        "float32", 
        "float32", 
        "float32", 
        "float32", 
        "float32", 
        "float32", 
        "float32", 
        "float32", 
        "float32", 
        "float32", 
        "float32", 
        "float32", 
        "float32", 
        "float32", 
        "float32", 
        "float32", 
        "float32", 
        "float32", 
        "float32", 
        "float32", 
        "float32", 
        "float32", 
        "float32", 
        "float32", 
        "float32", 
        "float32", 
        "float32", 
        "float32", 
        "float32", 
        "float32", 
        "float32", 
        "float32", 
        "float32", 
        "float32", 
        "float32", 
        "float32", 
        "float32", 
        "float32", 
        "float32", 
        "float32", 
        "float32", 
        "float32", 
        "float32", 
        "float32", 
        "float32", 
        "float32", 
        "float32", 
        "float32", 
        "float32", 
        "float32", 
        "float32", 
        "float32", 
        "float32", 
        "float32", 
        "float32", 
        "float32", 
        "float32", 
        "float32", 
        "float32", 
        "float32", 
        "float32", 
        "float32", 
        "float32", 
        "float32", 
        "float32", 
        "float32", 
        "float32", 
        "float32", 
        "float32", 
        "float32", 
        "float32", 
        "float32", 
        "float32", 
        "float32", 
        "float32", 
        "float32", 
        "float32", 
        "float32", 
        "float32", 
        "float32", 
        "float32", 
        "float32", 
        "float32", 
        "float32", 
        "float32", 
        "float32", 
        "float32", 
        "float32", 
        "float32"]]
  }
}